{"format": "graph-model", "generatedBy": "2.4.0", "convertedBy": "TensorFlow.js Converter v3.3.0", "signature": {"inputs": {"input_1:0": {"name": "input_1:0", "dtype": "DT_FLOAT", "tensorShape": {"dim": [{"size": "-1"}, {"size": "15"}, {"size": "15"}, {"size": "2"}]}}}, "outputs": {"Identity:0": {"name": "Identity:0", "dtype": "DT_FLOAT", "tensorShape": {"dim": [{"size": "-1"}, {"size": "226"}]}}}}, "modelTopology": {"node": [{"name": "StatefulPartitionedCall/rn_gm/conv2d_21/Conv2D/ReadVariableOp", "op": "Const", "attr": {"dtype": {"type": "DT_FLOAT"}, "value": {"tensor": {"dtype": "DT_FLOAT", "tensorShape": {"dim": [{"size": "3"}, {"size": "3"}, {"size": "64"}, {"size": "64"}]}}}}}, {"name": "StatefulPartitionedCall/rn_gm/conv2d_21/BiasAdd/ReadVariableOp", "op": "Const", "attr": {"value": {"tensor": {"dtype": "DT_FLOAT", "tensorShape": {"dim": [{"size": "64"}]}}}, "dtype": {"type": "DT_FLOAT"}}}, {"name": "StatefulPartitionedCall/rn_gm/conv2d_22/Conv2D/ReadVariableOp", "op": "Const", "attr": {"value": {"tensor": {"dtype": "DT_FLOAT", "tensorShape": {"dim": [{"size": "3"}, {"size": "3"}, {"size": "64"}, {"size": "1"}]}}}, "dtype": {"type": "DT_FLOAT"}}}, {"name": "StatefulPartitionedCall/rn_gm/conv2d_22/BiasAdd/ReadVariableOp", "op": "Const", "attr": {"dtype": {"type": "DT_FLOAT"}, "value": {"tensor": {"dtype": "DT_FLOAT", "tensorShape": {"dim": [{"size": "1"}]}}}}}, {"name": "StatefulPartitionedCall/rn_gm/flatten_1/Const", "op": "Const", "attr": {"dtype": {"type": "DT_INT32"}, "value": {"tensor": {"dtype": "DT_INT32", "tensorShape": {"dim": [{"size": "2"}]}}}}}, {"name": "StatefulPartitionedCall/rn_gm/batch_normalization_20/batchnorm/mul", "op": "Const", "attr": {"dtype": {"type": "DT_FLOAT"}, "value": {"tensor": {"dtype": "DT_FLOAT", "tensorShape": {"dim": [{"size": "64"}]}}}}}, {"name": "StatefulPartitionedCall/rn_gm/dense_19/Tensordot/Const", "op": "Const", "attr": {"value": {"tensor": {"dtype": "DT_INT32", "tensorShape": {"dim": [{"size": "1"}]}}}, "dtype": {"type": "DT_INT32"}}}, {"name": "StatefulPartitionedCall/rn_gm/dense_19/Tensordot/axes", "op": "Const", "attr": {"value": {"tensor": {"dtype": "DT_INT32", "tensorShape": {"dim": [{"size": "1"}]}}}, "dtype": {"type": "DT_INT32"}}}, {"name": "StatefulPartitionedCall/rn_gm/dense_19/Tensordot/GatherV2_1/axis", "op": "Const", "attr": {"dtype": {"type": "DT_INT32"}, "value": {"tensor": {"dtype": "DT_INT32", "tensorShape": {}}}}}, {"name": "StatefulPartitionedCall/rn_gm/dense_19/Tensordot/Const_1", "op": "Const", "attr": {"value": {"tensor": {"dtype": "DT_INT32", "tensorShape": {"dim": [{"size": "1"}]}}}, "dtype": {"type": "DT_INT32"}}}, {"name": "StatefulPartitionedCall/rn_gm/dense_19/Tensordot/ReadVariableOp", "op": "Const", "attr": {"dtype": {"type": "DT_FLOAT"}, "value": {"tensor": {"dtype": "DT_FLOAT", "tensorShape": {"dim": [{"size": "32"}, {"size": "64"}]}}}}}, {"name": "StatefulPartitionedCall/rn_gm/dense_18/Tensordot/Const", "op": "Const", "attr": {"value": {"tensor": {"dtype": "DT_INT32", "tensorShape": {"dim": [{"size": "1"}]}}}, "dtype": {"type": "DT_INT32"}}}, {"name": "StatefulPartitionedCall/rn_gm/dense_18/Tensordot/axes", "op": "Const", "attr": {"value": {"tensor": {"dtype": "DT_INT32", "tensorShape": {"dim": [{"size": "1"}]}}}, "dtype": {"type": "DT_INT32"}}}, {"name": "StatefulPartitionedCall/rn_gm/dense_18/Tensordot/GatherV2_1/axis", "op": "Const", "attr": {"dtype": {"type": "DT_INT32"}, "value": {"tensor": {"dtype": "DT_INT32", "tensorShape": {}}}}}, {"name": "StatefulPartitionedCall/rn_gm/dense_18/Tensordot/Const_1", "op": "Const", "attr": {"dtype": {"type": "DT_INT32"}, "value": {"tensor": {"dtype": "DT_INT32", "tensorShape": {"dim": [{"size": "1"}]}}}}}, {"name": "StatefulPartitionedCall/rn_gm/dense_18/Tensordot/ReadVariableOp", "op": "Const", "attr": {"value": {"tensor": {"dtype": "DT_FLOAT", "tensorShape": {"dim": [{"size": "64"}, {"size": "32"}]}}}, "dtype": {"type": "DT_FLOAT"}}}, {"name": "StatefulPartitionedCall/rn_gm/batch_normalization_18/batchnorm/mul", "op": "Const", "attr": {"value": {"tensor": {"dtype": "DT_FLOAT", "tensorShape": {"dim": [{"size": "64"}]}}}, "dtype": {"type": "DT_FLOAT"}}}, {"name": "StatefulPartitionedCall/rn_gm/dense_17/Tensordot/Const", "op": "Const", "attr": {"value": {"tensor": {"dtype": "DT_INT32", "tensorShape": {"dim": [{"size": "1"}]}}}, "dtype": {"type": "DT_INT32"}}}, {"name": "StatefulPartitionedCall/rn_gm/dense_17/Tensordot/axes", "op": "Const", "attr": {"dtype": {"type": "DT_INT32"}, "value": {"tensor": {"dtype": "DT_INT32", "tensorShape": {"dim": [{"size": "1"}]}}}}}, {"name": "StatefulPartitionedCall/rn_gm/dense_17/Tensordot/GatherV2_1/axis", "op": "Const", "attr": {"value": {"tensor": {"dtype": "DT_INT32", "tensorShape": {}}}, "dtype": {"type": "DT_INT32"}}}, {"name": "StatefulPartitionedCall/rn_gm/dense_17/Tensordot/Const_1", "op": "Const", "attr": {"dtype": {"type": "DT_INT32"}, "value": {"tensor": {"dtype": "DT_INT32", "tensorShape": {"dim": [{"size": "1"}]}}}}}, {"name": "StatefulPartitionedCall/rn_gm/dense_17/Tensordot/ReadVariableOp", "op": "Const", "attr": {"value": {"tensor": {"dtype": "DT_FLOAT", "tensorShape": {"dim": [{"size": "32"}, {"size": "64"}]}}}, "dtype": {"type": "DT_FLOAT"}}}, {"name": "StatefulPartitionedCall/rn_gm/dense_16/Tensordot/Const", "op": "Const", "attr": {"dtype": {"type": "DT_INT32"}, "value": {"tensor": {"dtype": "DT_INT32", "tensorShape": {"dim": [{"size": "1"}]}}}}}, {"name": "StatefulPartitionedCall/rn_gm/dense_16/Tensordot/axes", "op": "Const", "attr": {"value": {"tensor": {"dtype": "DT_INT32", "tensorShape": {"dim": [{"size": "1"}]}}}, "dtype": {"type": "DT_INT32"}}}, {"name": "StatefulPartitionedCall/rn_gm/dense_16/Tensordot/GatherV2_1/axis", "op": "Const", "attr": {"value": {"tensor": {"dtype": "DT_INT32", "tensorShape": {}}}, "dtype": {"type": "DT_INT32"}}}, {"name": "StatefulPartitionedCall/rn_gm/dense_16/Tensordot/Const_1", "op": "Const", "attr": {"value": {"tensor": {"dtype": "DT_INT32", "tensorShape": {"dim": [{"size": "1"}]}}}, "dtype": {"type": "DT_INT32"}}}, {"name": "StatefulPartitionedCall/rn_gm/dense_16/Tensordot/ReadVariableOp", "op": "Const", "attr": {"value": {"tensor": {"dtype": "DT_FLOAT", "tensorShape": {"dim": [{"size": "64"}, {"size": "32"}]}}}, "dtype": {"type": "DT_FLOAT"}}}, {"name": "StatefulPartitionedCall/rn_gm/batch_normalization_16/batchnorm/mul", "op": "Const", "attr": {"dtype": {"type": "DT_FLOAT"}, "value": {"tensor": {"dtype": "DT_FLOAT", "tensorShape": {"dim": [{"size": "64"}]}}}}}, {"name": "StatefulPartitionedCall/rn_gm/dense_15/Tensordot/Const", "op": "Const", "attr": {"value": {"tensor": {"dtype": "DT_INT32", "tensorShape": {"dim": [{"size": "1"}]}}}, "dtype": {"type": "DT_INT32"}}}, {"name": "StatefulPartitionedCall/rn_gm/dense_15/Tensordot/axes", "op": "Const", "attr": {"dtype": {"type": "DT_INT32"}, "value": {"tensor": {"dtype": "DT_INT32", "tensorShape": {"dim": [{"size": "1"}]}}}}}, {"name": "StatefulPartitionedCall/rn_gm/dense_15/Tensordot/GatherV2_1/axis", "op": "Const", "attr": {"value": {"tensor": {"dtype": "DT_INT32", "tensorShape": {}}}, "dtype": {"type": "DT_INT32"}}}, {"name": "StatefulPartitionedCall/rn_gm/dense_15/Tensordot/Const_1", "op": "Const", "attr": {"dtype": {"type": "DT_INT32"}, "value": {"tensor": {"dtype": "DT_INT32", "tensorShape": {"dim": [{"size": "1"}]}}}}}, {"name": "StatefulPartitionedCall/rn_gm/dense_15/Tensordot/ReadVariableOp", "op": "Const", "attr": {"dtype": {"type": "DT_FLOAT"}, "value": {"tensor": {"dtype": "DT_FLOAT", "tensorShape": {"dim": [{"size": "32"}, {"size": "64"}]}}}}}, {"name": "StatefulPartitionedCall/rn_gm/dense_14/Tensordot/Const", "op": "Const", "attr": {"dtype": {"type": "DT_INT32"}, "value": {"tensor": {"dtype": "DT_INT32", "tensorShape": {"dim": [{"size": "1"}]}}}}}, {"name": "StatefulPartitionedCall/rn_gm/dense_14/Tensordot/axes", "op": "Const", "attr": {"dtype": {"type": "DT_INT32"}, "value": {"tensor": {"dtype": "DT_INT32", "tensorShape": {"dim": [{"size": "1"}]}}}}}, {"name": "StatefulPartitionedCall/rn_gm/dense_14/Tensordot/GatherV2_1/axis", "op": "Const", "attr": {"dtype": {"type": "DT_INT32"}, "value": {"tensor": {"dtype": "DT_INT32", "tensorShape": {}}}}}, {"name": "StatefulPartitionedCall/rn_gm/dense_14/Tensordot/Const_1", "op": "Const", "attr": {"value": {"tensor": {"dtype": "DT_INT32", "tensorShape": {"dim": [{"size": "1"}]}}}, "dtype": {"type": "DT_INT32"}}}, {"name": "StatefulPartitionedCall/rn_gm/dense_14/Tensordot/ReadVariableOp", "op": "Const", "attr": {"dtype": {"type": "DT_FLOAT"}, "value": {"tensor": {"dtype": "DT_FLOAT", "tensorShape": {"dim": [{"size": "64"}, {"size": "32"}]}}}}}, {"name": "StatefulPartitionedCall/rn_gm/batch_normalization_14/batchnorm/mul", "op": "Const", "attr": {"dtype": {"type": "DT_FLOAT"}, "value": {"tensor": {"dtype": "DT_FLOAT", "tensorShape": {"dim": [{"size": "64"}]}}}}}, {"name": "StatefulPartitionedCall/rn_gm/dense_13/Tensordot/Const", "op": "Const", "attr": {"value": {"tensor": {"dtype": "DT_INT32", "tensorShape": {"dim": [{"size": "1"}]}}}, "dtype": {"type": "DT_INT32"}}}, {"name": "StatefulPartitionedCall/rn_gm/dense_13/Tensordot/axes", "op": "Const", "attr": {"value": {"tensor": {"dtype": "DT_INT32", "tensorShape": {"dim": [{"size": "1"}]}}}, "dtype": {"type": "DT_INT32"}}}, {"name": "StatefulPartitionedCall/rn_gm/dense_13/Tensordot/GatherV2_1/axis", "op": "Const", "attr": {"dtype": {"type": "DT_INT32"}, "value": {"tensor": {"dtype": "DT_INT32", "tensorShape": {}}}}}, {"name": "StatefulPartitionedCall/rn_gm/dense_13/Tensordot/Const_1", "op": "Const", "attr": {"value": {"tensor": {"dtype": "DT_INT32", "tensorShape": {"dim": [{"size": "1"}]}}}, "dtype": {"type": "DT_INT32"}}}, {"name": "StatefulPartitionedCall/rn_gm/dense_13/Tensordot/ReadVariableOp", "op": "Const", "attr": {"dtype": {"type": "DT_FLOAT"}, "value": {"tensor": {"dtype": "DT_FLOAT", "tensorShape": {"dim": [{"size": "32"}, {"size": "64"}]}}}}}, {"name": "StatefulPartitionedCall/rn_gm/dense_12/Tensordot/Const", "op": "Const", "attr": {"value": {"tensor": {"dtype": "DT_INT32", "tensorShape": {"dim": [{"size": "1"}]}}}, "dtype": {"type": "DT_INT32"}}}, {"name": "StatefulPartitionedCall/rn_gm/dense_12/Tensordot/axes", "op": "Const", "attr": {"dtype": {"type": "DT_INT32"}, "value": {"tensor": {"dtype": "DT_INT32", "tensorShape": {"dim": [{"size": "1"}]}}}}}, {"name": "StatefulPartitionedCall/rn_gm/dense_12/Tensordot/GatherV2_1/axis", "op": "Const", "attr": {"value": {"tensor": {"dtype": "DT_INT32", "tensorShape": {}}}, "dtype": {"type": "DT_INT32"}}}, {"name": "StatefulPartitionedCall/rn_gm/dense_12/Tensordot/Const_1", "op": "Const", "attr": {"value": {"tensor": {"dtype": "DT_INT32", "tensorShape": {"dim": [{"size": "1"}]}}}, "dtype": {"type": "DT_INT32"}}}, {"name": "StatefulPartitionedCall/rn_gm/dense_12/Tensordot/ReadVariableOp", "op": "Const", "attr": {"value": {"tensor": {"dtype": "DT_FLOAT", "tensorShape": {"dim": [{"size": "64"}, {"size": "32"}]}}}, "dtype": {"type": "DT_FLOAT"}}}, {"name": "StatefulPartitionedCall/rn_gm/batch_normalization_12/batchnorm/mul", "op": "Const", "attr": {"value": {"tensor": {"dtype": "DT_FLOAT", "tensorShape": {"dim": [{"size": "64"}]}}}, "dtype": {"type": "DT_FLOAT"}}}, {"name": "StatefulPartitionedCall/rn_gm/dense_11/Tensordot/Const", "op": "Const", "attr": {"dtype": {"type": "DT_INT32"}, "value": {"tensor": {"dtype": "DT_INT32", "tensorShape": {"dim": [{"size": "1"}]}}}}}, {"name": "StatefulPartitionedCall/rn_gm/dense_11/Tensordot/axes", "op": "Const", "attr": {"value": {"tensor": {"dtype": "DT_INT32", "tensorShape": {"dim": [{"size": "1"}]}}}, "dtype": {"type": "DT_INT32"}}}, {"name": "StatefulPartitionedCall/rn_gm/dense_11/Tensordot/GatherV2_1/axis", "op": "Const", "attr": {"dtype": {"type": "DT_INT32"}, "value": {"tensor": {"dtype": "DT_INT32", "tensorShape": {}}}}}, {"name": "StatefulPartitionedCall/rn_gm/dense_11/Tensordot/Const_1", "op": "Const", "attr": {"value": {"tensor": {"dtype": "DT_INT32", "tensorShape": {"dim": [{"size": "1"}]}}}, "dtype": {"type": "DT_INT32"}}}, {"name": "StatefulPartitionedCall/rn_gm/dense_11/Tensordot/ReadVariableOp", "op": "Const", "attr": {"dtype": {"type": "DT_FLOAT"}, "value": {"tensor": {"dtype": "DT_FLOAT", "tensorShape": {"dim": [{"size": "32"}, {"size": "64"}]}}}}}, {"name": "StatefulPartitionedCall/rn_gm/dense_10/Tensordot/Const", "op": "Const", "attr": {"dtype": {"type": "DT_INT32"}, "value": {"tensor": {"dtype": "DT_INT32", "tensorShape": {"dim": [{"size": "1"}]}}}}}, {"name": "StatefulPartitionedCall/rn_gm/dense_10/Tensordot/axes", "op": "Const", "attr": {"dtype": {"type": "DT_INT32"}, "value": {"tensor": {"dtype": "DT_INT32", "tensorShape": {"dim": [{"size": "1"}]}}}}}, {"name": "StatefulPartitionedCall/rn_gm/dense_10/Tensordot/GatherV2_1/axis", "op": "Const", "attr": {"dtype": {"type": "DT_INT32"}, "value": {"tensor": {"dtype": "DT_INT32", "tensorShape": {}}}}}, {"name": "StatefulPartitionedCall/rn_gm/dense_10/Tensordot/Const_1", "op": "Const", "attr": {"value": {"tensor": {"dtype": "DT_INT32", "tensorShape": {"dim": [{"size": "1"}]}}}, "dtype": {"type": "DT_INT32"}}}, {"name": "StatefulPartitionedCall/rn_gm/dense_10/Tensordot/ReadVariableOp", "op": "Const", "attr": {"value": {"tensor": {"dtype": "DT_FLOAT", "tensorShape": {"dim": [{"size": "64"}, {"size": "32"}]}}}, "dtype": {"type": "DT_FLOAT"}}}, {"name": "StatefulPartitionedCall/rn_gm/batch_normalization_10/batchnorm/mul", "op": "Const", "attr": {"dtype": {"type": "DT_FLOAT"}, "value": {"tensor": {"dtype": "DT_FLOAT", "tensorShape": {"dim": [{"size": "64"}]}}}}}, {"name": "StatefulPartitionedCall/rn_gm/dense_9/Tensordot/Const", "op": "Const", "attr": {"value": {"tensor": {"dtype": "DT_INT32", "tensorShape": {"dim": [{"size": "1"}]}}}, "dtype": {"type": "DT_INT32"}}}, {"name": "StatefulPartitionedCall/rn_gm/dense_9/Tensordot/axes", "op": "Const", "attr": {"dtype": {"type": "DT_INT32"}, "value": {"tensor": {"dtype": "DT_INT32", "tensorShape": {"dim": [{"size": "1"}]}}}}}, {"name": "StatefulPartitionedCall/rn_gm/dense_9/Tensordot/GatherV2_1/axis", "op": "Const", "attr": {"dtype": {"type": "DT_INT32"}, "value": {"tensor": {"dtype": "DT_INT32", "tensorShape": {}}}}}, {"name": "StatefulPartitionedCall/rn_gm/dense_9/Tensordot/Const_1", "op": "Const", "attr": {"dtype": {"type": "DT_INT32"}, "value": {"tensor": {"dtype": "DT_INT32", "tensorShape": {"dim": [{"size": "1"}]}}}}}, {"name": "StatefulPartitionedCall/rn_gm/dense_9/Tensordot/ReadVariableOp", "op": "Const", "attr": {"dtype": {"type": "DT_FLOAT"}, "value": {"tensor": {"dtype": "DT_FLOAT", "tensorShape": {"dim": [{"size": "32"}, {"size": "64"}]}}}}}, {"name": "StatefulPartitionedCall/rn_gm/dense_8/Tensordot/Const", "op": "Const", "attr": {"value": {"tensor": {"dtype": "DT_INT32", "tensorShape": {"dim": [{"size": "1"}]}}}, "dtype": {"type": "DT_INT32"}}}, {"name": "StatefulPartitionedCall/rn_gm/dense_8/Tensordot/axes", "op": "Const", "attr": {"value": {"tensor": {"dtype": "DT_INT32", "tensorShape": {"dim": [{"size": "1"}]}}}, "dtype": {"type": "DT_INT32"}}}, {"name": "StatefulPartitionedCall/rn_gm/dense_8/Tensordot/GatherV2_1/axis", "op": "Const", "attr": {"dtype": {"type": "DT_INT32"}, "value": {"tensor": {"dtype": "DT_INT32", "tensorShape": {}}}}}, {"name": "StatefulPartitionedCall/rn_gm/dense_8/Tensordot/Const_1", "op": "Const", "attr": {"dtype": {"type": "DT_INT32"}, "value": {"tensor": {"dtype": "DT_INT32", "tensorShape": {"dim": [{"size": "1"}]}}}}}, {"name": "StatefulPartitionedCall/rn_gm/dense_8/Tensordot/ReadVariableOp", "op": "Const", "attr": {"dtype": {"type": "DT_FLOAT"}, "value": {"tensor": {"dtype": "DT_FLOAT", "tensorShape": {"dim": [{"size": "64"}, {"size": "32"}]}}}}}, {"name": "StatefulPartitionedCall/rn_gm/batch_normalization_8/batchnorm/mul", "op": "Const", "attr": {"dtype": {"type": "DT_FLOAT"}, "value": {"tensor": {"dtype": "DT_FLOAT", "tensorShape": {"dim": [{"size": "64"}]}}}}}, {"name": "StatefulPartitionedCall/rn_gm/dense_7/Tensordot/Const", "op": "Const", "attr": {"value": {"tensor": {"dtype": "DT_INT32", "tensorShape": {"dim": [{"size": "1"}]}}}, "dtype": {"type": "DT_INT32"}}}, {"name": "StatefulPartitionedCall/rn_gm/dense_7/Tensordot/axes", "op": "Const", "attr": {"dtype": {"type": "DT_INT32"}, "value": {"tensor": {"dtype": "DT_INT32", "tensorShape": {"dim": [{"size": "1"}]}}}}}, {"name": "StatefulPartitionedCall/rn_gm/dense_7/Tensordot/GatherV2_1/axis", "op": "Const", "attr": {"dtype": {"type": "DT_INT32"}, "value": {"tensor": {"dtype": "DT_INT32", "tensorShape": {}}}}}, {"name": "StatefulPartitionedCall/rn_gm/dense_7/Tensordot/Const_1", "op": "Const", "attr": {"dtype": {"type": "DT_INT32"}, "value": {"tensor": {"dtype": "DT_INT32", "tensorShape": {"dim": [{"size": "1"}]}}}}}, {"name": "StatefulPartitionedCall/rn_gm/dense_7/Tensordot/ReadVariableOp", "op": "Const", "attr": {"dtype": {"type": "DT_FLOAT"}, "value": {"tensor": {"dtype": "DT_FLOAT", "tensorShape": {"dim": [{"size": "32"}, {"size": "64"}]}}}}}, {"name": "StatefulPartitionedCall/rn_gm/dense_6/Tensordot/Const", "op": "Const", "attr": {"dtype": {"type": "DT_INT32"}, "value": {"tensor": {"dtype": "DT_INT32", "tensorShape": {"dim": [{"size": "1"}]}}}}}, {"name": "StatefulPartitionedCall/rn_gm/dense_6/Tensordot/axes", "op": "Const", "attr": {"dtype": {"type": "DT_INT32"}, "value": {"tensor": {"dtype": "DT_INT32", "tensorShape": {"dim": [{"size": "1"}]}}}}}, {"name": "StatefulPartitionedCall/rn_gm/dense_6/Tensordot/GatherV2_1/axis", "op": "Const", "attr": {"value": {"tensor": {"dtype": "DT_INT32", "tensorShape": {}}}, "dtype": {"type": "DT_INT32"}}}, {"name": "StatefulPartitionedCall/rn_gm/dense_6/Tensordot/Const_1", "op": "Const", "attr": {"value": {"tensor": {"dtype": "DT_INT32", "tensorShape": {"dim": [{"size": "1"}]}}}, "dtype": {"type": "DT_INT32"}}}, {"name": "StatefulPartitionedCall/rn_gm/dense_6/Tensordot/ReadVariableOp", "op": "Const", "attr": {"dtype": {"type": "DT_FLOAT"}, "value": {"tensor": {"dtype": "DT_FLOAT", "tensorShape": {"dim": [{"size": "64"}, {"size": "32"}]}}}}}, {"name": "StatefulPartitionedCall/rn_gm/batch_normalization_6/batchnorm/mul", "op": "Const", "attr": {"value": {"tensor": {"dtype": "DT_FLOAT", "tensorShape": {"dim": [{"size": "64"}]}}}, "dtype": {"type": "DT_FLOAT"}}}, {"name": "StatefulPartitionedCall/rn_gm/dense_5/Tensordot/Const", "op": "Const", "attr": {"dtype": {"type": "DT_INT32"}, "value": {"tensor": {"dtype": "DT_INT32", "tensorShape": {"dim": [{"size": "1"}]}}}}}, {"name": "StatefulPartitionedCall/rn_gm/dense_5/Tensordot/axes", "op": "Const", "attr": {"value": {"tensor": {"dtype": "DT_INT32", "tensorShape": {"dim": [{"size": "1"}]}}}, "dtype": {"type": "DT_INT32"}}}, {"name": "StatefulPartitionedCall/rn_gm/dense_5/Tensordot/GatherV2_1/axis", "op": "Const", "attr": {"value": {"tensor": {"dtype": "DT_INT32", "tensorShape": {}}}, "dtype": {"type": "DT_INT32"}}}, {"name": "StatefulPartitionedCall/rn_gm/dense_5/Tensordot/Const_1", "op": "Const", "attr": {"dtype": {"type": "DT_INT32"}, "value": {"tensor": {"dtype": "DT_INT32", "tensorShape": {"dim": [{"size": "1"}]}}}}}, {"name": "StatefulPartitionedCall/rn_gm/dense_5/Tensordot/ReadVariableOp", "op": "Const", "attr": {"value": {"tensor": {"dtype": "DT_FLOAT", "tensorShape": {"dim": [{"size": "32"}, {"size": "64"}]}}}, "dtype": {"type": "DT_FLOAT"}}}, {"name": "StatefulPartitionedCall/rn_gm/dense_4/Tensordot/Const", "op": "Const", "attr": {"dtype": {"type": "DT_INT32"}, "value": {"tensor": {"dtype": "DT_INT32", "tensorShape": {"dim": [{"size": "1"}]}}}}}, {"name": "StatefulPartitionedCall/rn_gm/dense_4/Tensordot/axes", "op": "Const", "attr": {"dtype": {"type": "DT_INT32"}, "value": {"tensor": {"dtype": "DT_INT32", "tensorShape": {"dim": [{"size": "1"}]}}}}}, {"name": "StatefulPartitionedCall/rn_gm/dense_4/Tensordot/GatherV2_1/axis", "op": "Const", "attr": {"value": {"tensor": {"dtype": "DT_INT32", "tensorShape": {}}}, "dtype": {"type": "DT_INT32"}}}, {"name": "StatefulPartitionedCall/rn_gm/dense_4/Tensordot/Const_1", "op": "Const", "attr": {"dtype": {"type": "DT_INT32"}, "value": {"tensor": {"dtype": "DT_INT32", "tensorShape": {"dim": [{"size": "1"}]}}}}}, {"name": "StatefulPartitionedCall/rn_gm/dense_4/Tensordot/ReadVariableOp", "op": "Const", "attr": {"dtype": {"type": "DT_FLOAT"}, "value": {"tensor": {"dtype": "DT_FLOAT", "tensorShape": {"dim": [{"size": "64"}, {"size": "32"}]}}}}}, {"name": "StatefulPartitionedCall/rn_gm/batch_normalization_4/batchnorm/mul", "op": "Const", "attr": {"value": {"tensor": {"dtype": "DT_FLOAT", "tensorShape": {"dim": [{"size": "64"}]}}}, "dtype": {"type": "DT_FLOAT"}}}, {"name": "StatefulPartitionedCall/rn_gm/dense_3/Tensordot/Const", "op": "Const", "attr": {"dtype": {"type": "DT_INT32"}, "value": {"tensor": {"dtype": "DT_INT32", "tensorShape": {"dim": [{"size": "1"}]}}}}}, {"name": "StatefulPartitionedCall/rn_gm/dense_3/Tensordot/axes", "op": "Const", "attr": {"dtype": {"type": "DT_INT32"}, "value": {"tensor": {"dtype": "DT_INT32", "tensorShape": {"dim": [{"size": "1"}]}}}}}, {"name": "StatefulPartitionedCall/rn_gm/dense_3/Tensordot/GatherV2_1/axis", "op": "Const", "attr": {"dtype": {"type": "DT_INT32"}, "value": {"tensor": {"dtype": "DT_INT32", "tensorShape": {}}}}}, {"name": "StatefulPartitionedCall/rn_gm/dense_3/Tensordot/Const_1", "op": "Const", "attr": {"dtype": {"type": "DT_INT32"}, "value": {"tensor": {"dtype": "DT_INT32", "tensorShape": {"dim": [{"size": "1"}]}}}}}, {"name": "StatefulPartitionedCall/rn_gm/dense_3/Tensordot/ReadVariableOp", "op": "Const", "attr": {"dtype": {"type": "DT_FLOAT"}, "value": {"tensor": {"dtype": "DT_FLOAT", "tensorShape": {"dim": [{"size": "32"}, {"size": "64"}]}}}}}, {"name": "StatefulPartitionedCall/rn_gm/dense_2/Tensordot/Const", "op": "Const", "attr": {"dtype": {"type": "DT_INT32"}, "value": {"tensor": {"dtype": "DT_INT32", "tensorShape": {"dim": [{"size": "1"}]}}}}}, {"name": "StatefulPartitionedCall/rn_gm/dense_2/Tensordot/axes", "op": "Const", "attr": {"dtype": {"type": "DT_INT32"}, "value": {"tensor": {"dtype": "DT_INT32", "tensorShape": {"dim": [{"size": "1"}]}}}}}, {"name": "StatefulPartitionedCall/rn_gm/dense_2/Tensordot/GatherV2_1/axis", "op": "Const", "attr": {"value": {"tensor": {"dtype": "DT_INT32", "tensorShape": {}}}, "dtype": {"type": "DT_INT32"}}}, {"name": "StatefulPartitionedCall/rn_gm/dense_2/Tensordot/Const_1", "op": "Const", "attr": {"value": {"tensor": {"dtype": "DT_INT32", "tensorShape": {"dim": [{"size": "1"}]}}}, "dtype": {"type": "DT_INT32"}}}, {"name": "StatefulPartitionedCall/rn_gm/dense_2/Tensordot/ReadVariableOp", "op": "Const", "attr": {"value": {"tensor": {"dtype": "DT_FLOAT", "tensorShape": {"dim": [{"size": "64"}, {"size": "32"}]}}}, "dtype": {"type": "DT_FLOAT"}}}, {"name": "StatefulPartitionedCall/rn_gm/batch_normalization_2/batchnorm/mul", "op": "Const", "attr": {"dtype": {"type": "DT_FLOAT"}, "value": {"tensor": {"dtype": "DT_FLOAT", "tensorShape": {"dim": [{"size": "64"}]}}}}}, {"name": "StatefulPartitionedCall/rn_gm/dense_1/Tensordot/Const", "op": "Const", "attr": {"dtype": {"type": "DT_INT32"}, "value": {"tensor": {"dtype": "DT_INT32", "tensorShape": {"dim": [{"size": "1"}]}}}}}, {"name": "StatefulPartitionedCall/rn_gm/dense_1/Tensordot/axes", "op": "Const", "attr": {"dtype": {"type": "DT_INT32"}, "value": {"tensor": {"dtype": "DT_INT32", "tensorShape": {"dim": [{"size": "1"}]}}}}}, {"name": "StatefulPartitionedCall/rn_gm/dense_1/Tensordot/GatherV2_1/axis", "op": "Const", "attr": {"dtype": {"type": "DT_INT32"}, "value": {"tensor": {"dtype": "DT_INT32", "tensorShape": {}}}}}, {"name": "StatefulPartitionedCall/rn_gm/dense_1/Tensordot/Const_1", "op": "Const", "attr": {"dtype": {"type": "DT_INT32"}, "value": {"tensor": {"dtype": "DT_INT32", "tensorShape": {"dim": [{"size": "1"}]}}}}}, {"name": "StatefulPartitionedCall/rn_gm/dense_1/Tensordot/ReadVariableOp", "op": "Const", "attr": {"value": {"tensor": {"dtype": "DT_FLOAT", "tensorShape": {"dim": [{"size": "32"}, {"size": "64"}]}}}, "dtype": {"type": "DT_FLOAT"}}}, {"name": "StatefulPartitionedCall/rn_gm/dense/Tensordot/Const", "op": "Const", "attr": {"value": {"tensor": {"dtype": "DT_INT32", "tensorShape": {"dim": [{"size": "1"}]}}}, "dtype": {"type": "DT_INT32"}}}, {"name": "StatefulPartitionedCall/rn_gm/dense/Tensordot/axes", "op": "Const", "attr": {"value": {"tensor": {"dtype": "DT_INT32", "tensorShape": {"dim": [{"size": "1"}]}}}, "dtype": {"type": "DT_INT32"}}}, {"name": "StatefulPartitionedCall/rn_gm/dense/Tensordot/GatherV2_1/axis", "op": "Const", "attr": {"dtype": {"type": "DT_INT32"}, "value": {"tensor": {"dtype": "DT_INT32", "tensorShape": {}}}}}, {"name": "StatefulPartitionedCall/rn_gm/dense/Tensordot/Const_1", "op": "Const", "attr": {"value": {"tensor": {"dtype": "DT_INT32", "tensorShape": {"dim": [{"size": "1"}]}}}, "dtype": {"type": "DT_INT32"}}}, {"name": "StatefulPartitionedCall/rn_gm/dense/Tensordot/ReadVariableOp", "op": "Const", "attr": {"dtype": {"type": "DT_FLOAT"}, "value": {"tensor": {"dtype": "DT_FLOAT", "tensorShape": {"dim": [{"size": "64"}, {"size": "32"}]}}}}}, {"name": "StatefulPartitionedCall/rn_gm/conv2d/Conv2D/merged_input", "op": "Const", "attr": {"value": {"tensor": {"dtype": "DT_FLOAT", "tensorShape": {"dim": [{"size": "3"}, {"size": "3"}, {"size": "2"}, {"size": "64"}]}}}, "dtype": {"type": "DT_FLOAT"}}}, {"name": "StatefulPartitionedCall/rn_gm/batch_normalization/batchnorm/sub", "op": "Const", "attr": {"value": {"tensor": {"dtype": "DT_FLOAT", "tensorShape": {"dim": [{"size": "64"}]}}}, "dtype": {"type": "DT_FLOAT"}}}, {"name": "StatefulPartitionedCall/rn_gm/conv2d_1/Conv2D/merged_input", "op": "Const", "attr": {"value": {"tensor": {"dtype": "DT_FLOAT", "tensorShape": {"dim": [{"size": "3"}, {"size": "3"}, {"size": "64"}, {"size": "64"}]}}}, "dtype": {"type": "DT_FLOAT"}}}, {"name": "StatefulPartitionedCall/rn_gm/batch_normalization_1/batchnorm/sub", "op": "Const", "attr": {"dtype": {"type": "DT_FLOAT"}, "value": {"tensor": {"dtype": "DT_FLOAT", "tensorShape": {"dim": [{"size": "64"}]}}}}}, {"name": "StatefulPartitionedCall/rn_gm/conv2d_2/Conv2D/ReadVariableOp", "op": "Const", "attr": {"value": {"tensor": {"dtype": "DT_FLOAT", "tensorShape": {"dim": [{"size": "3"}, {"size": "3"}, {"size": "64"}, {"size": "64"}]}}}, "dtype": {"type": "DT_FLOAT"}}}, {"name": "StatefulPartitionedCall/rn_gm/dense/Tensordot/free", "op": "Const", "attr": {"value": {"tensor": {"dtype": "DT_INT32", "tensorShape": {"dim": [{"size": "3"}]}}}, "dtype": {"type": "DT_INT32"}}}, {"name": "StatefulPartitionedCall/rn_gm/dense/Tensordot/GatherV2/axis", "op": "Const", "attr": {"dtype": {"type": "DT_INT32"}, "value": {"tensor": {"dtype": "DT_INT32", "tensorShape": {}}}}}, {"name": "StatefulPartitionedCall/rn_gm/dense/Tensordot/Const_2", "op": "Const", "attr": {"value": {"tensor": {"dtype": "DT_INT32", "tensorShape": {"dim": [{"size": "1"}]}}}, "dtype": {"type": "DT_INT32"}}}, {"name": "StatefulPartitionedCall/rn_gm/dense/Tensordot/concat_1/axis", "op": "Const", "attr": {"dtype": {"type": "DT_INT32"}, "value": {"tensor": {"dtype": "DT_INT32", "tensorShape": {}}}}}, {"name": "StatefulPartitionedCall/rn_gm/dense/BiasAdd/ReadVariableOp", "op": "Const", "attr": {"dtype": {"type": "DT_FLOAT"}, "value": {"tensor": {"dtype": "DT_FLOAT", "tensorShape": {"dim": [{"size": "32"}]}}}}}, {"name": "StatefulPartitionedCall/rn_gm/dense_1/Tensordot/free", "op": "Const", "attr": {"value": {"tensor": {"dtype": "DT_INT32", "tensorShape": {"dim": [{"size": "3"}]}}}, "dtype": {"type": "DT_INT32"}}}, {"name": "StatefulPartitionedCall/rn_gm/dense_1/Tensordot/GatherV2/axis", "op": "Const", "attr": {"value": {"tensor": {"dtype": "DT_INT32", "tensorShape": {}}}, "dtype": {"type": "DT_INT32"}}}, {"name": "StatefulPartitionedCall/rn_gm/dense_1/Tensordot/Const_2", "op": "Const", "attr": {"dtype": {"type": "DT_INT32"}, "value": {"tensor": {"dtype": "DT_INT32", "tensorShape": {"dim": [{"size": "1"}]}}}}}, {"name": "StatefulPartitionedCall/rn_gm/dense_1/Tensordot/concat_1/axis", "op": "Const", "attr": {"value": {"tensor": {"dtype": "DT_INT32", "tensorShape": {}}}, "dtype": {"type": "DT_INT32"}}}, {"name": "StatefulPartitionedCall/rn_gm/dense_1/BiasAdd/ReadVariableOp", "op": "Const", "attr": {"dtype": {"type": "DT_FLOAT"}, "value": {"tensor": {"dtype": "DT_FLOAT", "tensorShape": {"dim": [{"size": "64"}]}}}}}, {"name": "StatefulPartitionedCall/rn_gm/batch_normalization_2/batchnorm/sub", "op": "Const", "attr": {"value": {"tensor": {"dtype": "DT_FLOAT", "tensorShape": {"dim": [{"size": "64"}]}}}, "dtype": {"type": "DT_FLOAT"}}}, {"name": "StatefulPartitionedCall/rn_gm/conv2d_3/Conv2D/merged_input", "op": "Const", "attr": {"value": {"tensor": {"dtype": "DT_FLOAT", "tensorShape": {"dim": [{"size": "3"}, {"size": "3"}, {"size": "64"}, {"size": "64"}]}}}, "dtype": {"type": "DT_FLOAT"}}}, {"name": "StatefulPartitionedCall/rn_gm/batch_normalization_3/batchnorm/sub", "op": "Const", "attr": {"value": {"tensor": {"dtype": "DT_FLOAT", "tensorShape": {"dim": [{"size": "64"}]}}}, "dtype": {"type": "DT_FLOAT"}}}, {"name": "StatefulPartitionedCall/rn_gm/conv2d_4/Conv2D/ReadVariableOp", "op": "Const", "attr": {"value": {"tensor": {"dtype": "DT_FLOAT", "tensorShape": {"dim": [{"size": "3"}, {"size": "3"}, {"size": "64"}, {"size": "64"}]}}}, "dtype": {"type": "DT_FLOAT"}}}, {"name": "StatefulPartitionedCall/rn_gm/dense_2/Tensordot/free", "op": "Const", "attr": {"dtype": {"type": "DT_INT32"}, "value": {"tensor": {"dtype": "DT_INT32", "tensorShape": {"dim": [{"size": "3"}]}}}}}, {"name": "StatefulPartitionedCall/rn_gm/dense_2/Tensordot/GatherV2/axis", "op": "Const", "attr": {"value": {"tensor": {"dtype": "DT_INT32", "tensorShape": {}}}, "dtype": {"type": "DT_INT32"}}}, {"name": "StatefulPartitionedCall/rn_gm/dense_2/Tensordot/Const_2", "op": "Const", "attr": {"dtype": {"type": "DT_INT32"}, "value": {"tensor": {"dtype": "DT_INT32", "tensorShape": {"dim": [{"size": "1"}]}}}}}, {"name": "StatefulPartitionedCall/rn_gm/dense_2/Tensordot/concat_1/axis", "op": "Const", "attr": {"value": {"tensor": {"dtype": "DT_INT32", "tensorShape": {}}}, "dtype": {"type": "DT_INT32"}}}, {"name": "StatefulPartitionedCall/rn_gm/dense_2/BiasAdd/ReadVariableOp", "op": "Const", "attr": {"value": {"tensor": {"dtype": "DT_FLOAT", "tensorShape": {"dim": [{"size": "32"}]}}}, "dtype": {"type": "DT_FLOAT"}}}, {"name": "StatefulPartitionedCall/rn_gm/dense_3/Tensordot/free", "op": "Const", "attr": {"dtype": {"type": "DT_INT32"}, "value": {"tensor": {"dtype": "DT_INT32", "tensorShape": {"dim": [{"size": "3"}]}}}}}, {"name": "StatefulPartitionedCall/rn_gm/dense_3/Tensordot/GatherV2/axis", "op": "Const", "attr": {"dtype": {"type": "DT_INT32"}, "value": {"tensor": {"dtype": "DT_INT32", "tensorShape": {}}}}}, {"name": "StatefulPartitionedCall/rn_gm/dense_3/Tensordot/Const_2", "op": "Const", "attr": {"dtype": {"type": "DT_INT32"}, "value": {"tensor": {"dtype": "DT_INT32", "tensorShape": {"dim": [{"size": "1"}]}}}}}, {"name": "StatefulPartitionedCall/rn_gm/dense_3/Tensordot/concat_1/axis", "op": "Const", "attr": {"dtype": {"type": "DT_INT32"}, "value": {"tensor": {"dtype": "DT_INT32", "tensorShape": {}}}}}, {"name": "StatefulPartitionedCall/rn_gm/dense_3/BiasAdd/ReadVariableOp", "op": "Const", "attr": {"dtype": {"type": "DT_FLOAT"}, "value": {"tensor": {"dtype": "DT_FLOAT", "tensorShape": {"dim": [{"size": "64"}]}}}}}, {"name": "StatefulPartitionedCall/rn_gm/batch_normalization_4/batchnorm/sub", "op": "Const", "attr": {"dtype": {"type": "DT_FLOAT"}, "value": {"tensor": {"dtype": "DT_FLOAT", "tensorShape": {"dim": [{"size": "64"}]}}}}}, {"name": "StatefulPartitionedCall/rn_gm/conv2d_5/Conv2D/merged_input", "op": "Const", "attr": {"dtype": {"type": "DT_FLOAT"}, "value": {"tensor": {"dtype": "DT_FLOAT", "tensorShape": {"dim": [{"size": "3"}, {"size": "3"}, {"size": "64"}, {"size": "64"}]}}}}}, {"name": "StatefulPartitionedCall/rn_gm/batch_normalization_5/batchnorm/sub", "op": "Const", "attr": {"dtype": {"type": "DT_FLOAT"}, "value": {"tensor": {"dtype": "DT_FLOAT", "tensorShape": {"dim": [{"size": "64"}]}}}}}, {"name": "StatefulPartitionedCall/rn_gm/conv2d_6/Conv2D/ReadVariableOp", "op": "Const", "attr": {"dtype": {"type": "DT_FLOAT"}, "value": {"tensor": {"dtype": "DT_FLOAT", "tensorShape": {"dim": [{"size": "3"}, {"size": "3"}, {"size": "64"}, {"size": "64"}]}}}}}, {"name": "StatefulPartitionedCall/rn_gm/dense_4/Tensordot/free", "op": "Const", "attr": {"value": {"tensor": {"dtype": "DT_INT32", "tensorShape": {"dim": [{"size": "3"}]}}}, "dtype": {"type": "DT_INT32"}}}, {"name": "StatefulPartitionedCall/rn_gm/dense_4/Tensordot/GatherV2/axis", "op": "Const", "attr": {"dtype": {"type": "DT_INT32"}, "value": {"tensor": {"dtype": "DT_INT32", "tensorShape": {}}}}}, {"name": "StatefulPartitionedCall/rn_gm/dense_4/Tensordot/Const_2", "op": "Const", "attr": {"dtype": {"type": "DT_INT32"}, "value": {"tensor": {"dtype": "DT_INT32", "tensorShape": {"dim": [{"size": "1"}]}}}}}, {"name": "StatefulPartitionedCall/rn_gm/dense_4/Tensordot/concat_1/axis", "op": "Const", "attr": {"value": {"tensor": {"dtype": "DT_INT32", "tensorShape": {}}}, "dtype": {"type": "DT_INT32"}}}, {"name": "StatefulPartitionedCall/rn_gm/dense_4/BiasAdd/ReadVariableOp", "op": "Const", "attr": {"value": {"tensor": {"dtype": "DT_FLOAT", "tensorShape": {"dim": [{"size": "32"}]}}}, "dtype": {"type": "DT_FLOAT"}}}, {"name": "StatefulPartitionedCall/rn_gm/dense_5/Tensordot/free", "op": "Const", "attr": {"value": {"tensor": {"dtype": "DT_INT32", "tensorShape": {"dim": [{"size": "3"}]}}}, "dtype": {"type": "DT_INT32"}}}, {"name": "StatefulPartitionedCall/rn_gm/dense_5/Tensordot/GatherV2/axis", "op": "Const", "attr": {"value": {"tensor": {"dtype": "DT_INT32", "tensorShape": {}}}, "dtype": {"type": "DT_INT32"}}}, {"name": "StatefulPartitionedCall/rn_gm/dense_5/Tensordot/Const_2", "op": "Const", "attr": {"value": {"tensor": {"dtype": "DT_INT32", "tensorShape": {"dim": [{"size": "1"}]}}}, "dtype": {"type": "DT_INT32"}}}, {"name": "StatefulPartitionedCall/rn_gm/dense_5/Tensordot/concat_1/axis", "op": "Const", "attr": {"value": {"tensor": {"dtype": "DT_INT32", "tensorShape": {}}}, "dtype": {"type": "DT_INT32"}}}, {"name": "StatefulPartitionedCall/rn_gm/dense_5/BiasAdd/ReadVariableOp", "op": "Const", "attr": {"dtype": {"type": "DT_FLOAT"}, "value": {"tensor": {"dtype": "DT_FLOAT", "tensorShape": {"dim": [{"size": "64"}]}}}}}, {"name": "StatefulPartitionedCall/rn_gm/batch_normalization_6/batchnorm/sub", "op": "Const", "attr": {"dtype": {"type": "DT_FLOAT"}, "value": {"tensor": {"dtype": "DT_FLOAT", "tensorShape": {"dim": [{"size": "64"}]}}}}}, {"name": "StatefulPartitionedCall/rn_gm/conv2d_7/Conv2D/merged_input", "op": "Const", "attr": {"value": {"tensor": {"dtype": "DT_FLOAT", "tensorShape": {"dim": [{"size": "3"}, {"size": "3"}, {"size": "64"}, {"size": "64"}]}}}, "dtype": {"type": "DT_FLOAT"}}}, {"name": "StatefulPartitionedCall/rn_gm/batch_normalization_7/batchnorm/sub", "op": "Const", "attr": {"value": {"tensor": {"dtype": "DT_FLOAT", "tensorShape": {"dim": [{"size": "64"}]}}}, "dtype": {"type": "DT_FLOAT"}}}, {"name": "StatefulPartitionedCall/rn_gm/conv2d_8/Conv2D/ReadVariableOp", "op": "Const", "attr": {"value": {"tensor": {"dtype": "DT_FLOAT", "tensorShape": {"dim": [{"size": "3"}, {"size": "3"}, {"size": "64"}, {"size": "64"}]}}}, "dtype": {"type": "DT_FLOAT"}}}, {"name": "StatefulPartitionedCall/rn_gm/dense_6/Tensordot/free", "op": "Const", "attr": {"dtype": {"type": "DT_INT32"}, "value": {"tensor": {"dtype": "DT_INT32", "tensorShape": {"dim": [{"size": "3"}]}}}}}, {"name": "StatefulPartitionedCall/rn_gm/dense_6/Tensordot/GatherV2/axis", "op": "Const", "attr": {"dtype": {"type": "DT_INT32"}, "value": {"tensor": {"dtype": "DT_INT32", "tensorShape": {}}}}}, {"name": "StatefulPartitionedCall/rn_gm/dense_6/Tensordot/Const_2", "op": "Const", "attr": {"value": {"tensor": {"dtype": "DT_INT32", "tensorShape": {"dim": [{"size": "1"}]}}}, "dtype": {"type": "DT_INT32"}}}, {"name": "StatefulPartitionedCall/rn_gm/dense_6/Tensordot/concat_1/axis", "op": "Const", "attr": {"value": {"tensor": {"dtype": "DT_INT32", "tensorShape": {}}}, "dtype": {"type": "DT_INT32"}}}, {"name": "StatefulPartitionedCall/rn_gm/dense_6/BiasAdd/ReadVariableOp", "op": "Const", "attr": {"dtype": {"type": "DT_FLOAT"}, "value": {"tensor": {"dtype": "DT_FLOAT", "tensorShape": {"dim": [{"size": "32"}]}}}}}, {"name": "StatefulPartitionedCall/rn_gm/dense_7/Tensordot/free", "op": "Const", "attr": {"dtype": {"type": "DT_INT32"}, "value": {"tensor": {"dtype": "DT_INT32", "tensorShape": {"dim": [{"size": "3"}]}}}}}, {"name": "StatefulPartitionedCall/rn_gm/dense_7/Tensordot/GatherV2/axis", "op": "Const", "attr": {"dtype": {"type": "DT_INT32"}, "value": {"tensor": {"dtype": "DT_INT32", "tensorShape": {}}}}}, {"name": "StatefulPartitionedCall/rn_gm/dense_7/Tensordot/Const_2", "op": "Const", "attr": {"value": {"tensor": {"dtype": "DT_INT32", "tensorShape": {"dim": [{"size": "1"}]}}}, "dtype": {"type": "DT_INT32"}}}, {"name": "StatefulPartitionedCall/rn_gm/dense_7/Tensordot/concat_1/axis", "op": "Const", "attr": {"dtype": {"type": "DT_INT32"}, "value": {"tensor": {"dtype": "DT_INT32", "tensorShape": {}}}}}, {"name": "StatefulPartitionedCall/rn_gm/dense_7/BiasAdd/ReadVariableOp", "op": "Const", "attr": {"value": {"tensor": {"dtype": "DT_FLOAT", "tensorShape": {"dim": [{"size": "64"}]}}}, "dtype": {"type": "DT_FLOAT"}}}, {"name": "StatefulPartitionedCall/rn_gm/batch_normalization_8/batchnorm/sub", "op": "Const", "attr": {"dtype": {"type": "DT_FLOAT"}, "value": {"tensor": {"dtype": "DT_FLOAT", "tensorShape": {"dim": [{"size": "64"}]}}}}}, {"name": "StatefulPartitionedCall/rn_gm/conv2d_9/Conv2D/merged_input", "op": "Const", "attr": {"dtype": {"type": "DT_FLOAT"}, "value": {"tensor": {"dtype": "DT_FLOAT", "tensorShape": {"dim": [{"size": "3"}, {"size": "3"}, {"size": "64"}, {"size": "64"}]}}}}}, {"name": "StatefulPartitionedCall/rn_gm/batch_normalization_9/batchnorm/sub", "op": "Const", "attr": {"dtype": {"type": "DT_FLOAT"}, "value": {"tensor": {"dtype": "DT_FLOAT", "tensorShape": {"dim": [{"size": "64"}]}}}}}, {"name": "StatefulPartitionedCall/rn_gm/conv2d_10/Conv2D/ReadVariableOp", "op": "Const", "attr": {"value": {"tensor": {"dtype": "DT_FLOAT", "tensorShape": {"dim": [{"size": "3"}, {"size": "3"}, {"size": "64"}, {"size": "64"}]}}}, "dtype": {"type": "DT_FLOAT"}}}, {"name": "StatefulPartitionedCall/rn_gm/dense_8/Tensordot/free", "op": "Const", "attr": {"value": {"tensor": {"dtype": "DT_INT32", "tensorShape": {"dim": [{"size": "3"}]}}}, "dtype": {"type": "DT_INT32"}}}, {"name": "StatefulPartitionedCall/rn_gm/dense_8/Tensordot/GatherV2/axis", "op": "Const", "attr": {"dtype": {"type": "DT_INT32"}, "value": {"tensor": {"dtype": "DT_INT32", "tensorShape": {}}}}}, {"name": "StatefulPartitionedCall/rn_gm/dense_8/Tensordot/Const_2", "op": "Const", "attr": {"value": {"tensor": {"dtype": "DT_INT32", "tensorShape": {"dim": [{"size": "1"}]}}}, "dtype": {"type": "DT_INT32"}}}, {"name": "StatefulPartitionedCall/rn_gm/dense_8/Tensordot/concat_1/axis", "op": "Const", "attr": {"dtype": {"type": "DT_INT32"}, "value": {"tensor": {"dtype": "DT_INT32", "tensorShape": {}}}}}, {"name": "StatefulPartitionedCall/rn_gm/dense_8/BiasAdd/ReadVariableOp", "op": "Const", "attr": {"value": {"tensor": {"dtype": "DT_FLOAT", "tensorShape": {"dim": [{"size": "32"}]}}}, "dtype": {"type": "DT_FLOAT"}}}, {"name": "StatefulPartitionedCall/rn_gm/dense_9/Tensordot/free", "op": "Const", "attr": {"value": {"tensor": {"dtype": "DT_INT32", "tensorShape": {"dim": [{"size": "3"}]}}}, "dtype": {"type": "DT_INT32"}}}, {"name": "StatefulPartitionedCall/rn_gm/dense_9/Tensordot/GatherV2/axis", "op": "Const", "attr": {"dtype": {"type": "DT_INT32"}, "value": {"tensor": {"dtype": "DT_INT32", "tensorShape": {}}}}}, {"name": "StatefulPartitionedCall/rn_gm/dense_9/Tensordot/Const_2", "op": "Const", "attr": {"dtype": {"type": "DT_INT32"}, "value": {"tensor": {"dtype": "DT_INT32", "tensorShape": {"dim": [{"size": "1"}]}}}}}, {"name": "StatefulPartitionedCall/rn_gm/dense_9/Tensordot/concat_1/axis", "op": "Const", "attr": {"value": {"tensor": {"dtype": "DT_INT32", "tensorShape": {}}}, "dtype": {"type": "DT_INT32"}}}, {"name": "StatefulPartitionedCall/rn_gm/dense_9/BiasAdd/ReadVariableOp", "op": "Const", "attr": {"value": {"tensor": {"dtype": "DT_FLOAT", "tensorShape": {"dim": [{"size": "64"}]}}}, "dtype": {"type": "DT_FLOAT"}}}, {"name": "StatefulPartitionedCall/rn_gm/batch_normalization_10/batchnorm/sub", "op": "Const", "attr": {"value": {"tensor": {"dtype": "DT_FLOAT", "tensorShape": {"dim": [{"size": "64"}]}}}, "dtype": {"type": "DT_FLOAT"}}}, {"name": "StatefulPartitionedCall/rn_gm/conv2d_11/Conv2D/merged_input", "op": "Const", "attr": {"dtype": {"type": "DT_FLOAT"}, "value": {"tensor": {"dtype": "DT_FLOAT", "tensorShape": {"dim": [{"size": "3"}, {"size": "3"}, {"size": "64"}, {"size": "64"}]}}}}}, {"name": "StatefulPartitionedCall/rn_gm/batch_normalization_11/batchnorm/sub", "op": "Const", "attr": {"dtype": {"type": "DT_FLOAT"}, "value": {"tensor": {"dtype": "DT_FLOAT", "tensorShape": {"dim": [{"size": "64"}]}}}}}, {"name": "StatefulPartitionedCall/rn_gm/conv2d_12/Conv2D/ReadVariableOp", "op": "Const", "attr": {"value": {"tensor": {"dtype": "DT_FLOAT", "tensorShape": {"dim": [{"size": "3"}, {"size": "3"}, {"size": "64"}, {"size": "64"}]}}}, "dtype": {"type": "DT_FLOAT"}}}, {"name": "StatefulPartitionedCall/rn_gm/dense_10/Tensordot/free", "op": "Const", "attr": {"dtype": {"type": "DT_INT32"}, "value": {"tensor": {"dtype": "DT_INT32", "tensorShape": {"dim": [{"size": "3"}]}}}}}, {"name": "StatefulPartitionedCall/rn_gm/dense_10/Tensordot/GatherV2/axis", "op": "Const", "attr": {"value": {"tensor": {"dtype": "DT_INT32", "tensorShape": {}}}, "dtype": {"type": "DT_INT32"}}}, {"name": "StatefulPartitionedCall/rn_gm/dense_10/Tensordot/Const_2", "op": "Const", "attr": {"dtype": {"type": "DT_INT32"}, "value": {"tensor": {"dtype": "DT_INT32", "tensorShape": {"dim": [{"size": "1"}]}}}}}, {"name": "StatefulPartitionedCall/rn_gm/dense_10/Tensordot/concat_1/axis", "op": "Const", "attr": {"dtype": {"type": "DT_INT32"}, "value": {"tensor": {"dtype": "DT_INT32", "tensorShape": {}}}}}, {"name": "StatefulPartitionedCall/rn_gm/dense_10/BiasAdd/ReadVariableOp", "op": "Const", "attr": {"dtype": {"type": "DT_FLOAT"}, "value": {"tensor": {"dtype": "DT_FLOAT", "tensorShape": {"dim": [{"size": "32"}]}}}}}, {"name": "StatefulPartitionedCall/rn_gm/dense_11/Tensordot/free", "op": "Const", "attr": {"value": {"tensor": {"dtype": "DT_INT32", "tensorShape": {"dim": [{"size": "3"}]}}}, "dtype": {"type": "DT_INT32"}}}, {"name": "StatefulPartitionedCall/rn_gm/dense_11/Tensordot/GatherV2/axis", "op": "Const", "attr": {"value": {"tensor": {"dtype": "DT_INT32", "tensorShape": {}}}, "dtype": {"type": "DT_INT32"}}}, {"name": "StatefulPartitionedCall/rn_gm/dense_11/Tensordot/Const_2", "op": "Const", "attr": {"dtype": {"type": "DT_INT32"}, "value": {"tensor": {"dtype": "DT_INT32", "tensorShape": {"dim": [{"size": "1"}]}}}}}, {"name": "StatefulPartitionedCall/rn_gm/dense_11/Tensordot/concat_1/axis", "op": "Const", "attr": {"value": {"tensor": {"dtype": "DT_INT32", "tensorShape": {}}}, "dtype": {"type": "DT_INT32"}}}, {"name": "StatefulPartitionedCall/rn_gm/dense_11/BiasAdd/ReadVariableOp", "op": "Const", "attr": {"dtype": {"type": "DT_FLOAT"}, "value": {"tensor": {"dtype": "DT_FLOAT", "tensorShape": {"dim": [{"size": "64"}]}}}}}, {"name": "StatefulPartitionedCall/rn_gm/batch_normalization_12/batchnorm/sub", "op": "Const", "attr": {"dtype": {"type": "DT_FLOAT"}, "value": {"tensor": {"dtype": "DT_FLOAT", "tensorShape": {"dim": [{"size": "64"}]}}}}}, {"name": "StatefulPartitionedCall/rn_gm/conv2d_13/Conv2D/merged_input", "op": "Const", "attr": {"value": {"tensor": {"dtype": "DT_FLOAT", "tensorShape": {"dim": [{"size": "3"}, {"size": "3"}, {"size": "64"}, {"size": "64"}]}}}, "dtype": {"type": "DT_FLOAT"}}}, {"name": "StatefulPartitionedCall/rn_gm/batch_normalization_13/batchnorm/sub", "op": "Const", "attr": {"dtype": {"type": "DT_FLOAT"}, "value": {"tensor": {"dtype": "DT_FLOAT", "tensorShape": {"dim": [{"size": "64"}]}}}}}, {"name": "StatefulPartitionedCall/rn_gm/conv2d_14/Conv2D/ReadVariableOp", "op": "Const", "attr": {"dtype": {"type": "DT_FLOAT"}, "value": {"tensor": {"dtype": "DT_FLOAT", "tensorShape": {"dim": [{"size": "3"}, {"size": "3"}, {"size": "64"}, {"size": "64"}]}}}}}, {"name": "StatefulPartitionedCall/rn_gm/dense_12/Tensordot/free", "op": "Const", "attr": {"dtype": {"type": "DT_INT32"}, "value": {"tensor": {"dtype": "DT_INT32", "tensorShape": {"dim": [{"size": "3"}]}}}}}, {"name": "StatefulPartitionedCall/rn_gm/dense_12/Tensordot/GatherV2/axis", "op": "Const", "attr": {"dtype": {"type": "DT_INT32"}, "value": {"tensor": {"dtype": "DT_INT32", "tensorShape": {}}}}}, {"name": "StatefulPartitionedCall/rn_gm/dense_12/Tensordot/Const_2", "op": "Const", "attr": {"dtype": {"type": "DT_INT32"}, "value": {"tensor": {"dtype": "DT_INT32", "tensorShape": {"dim": [{"size": "1"}]}}}}}, {"name": "StatefulPartitionedCall/rn_gm/dense_12/Tensordot/concat_1/axis", "op": "Const", "attr": {"value": {"tensor": {"dtype": "DT_INT32", "tensorShape": {}}}, "dtype": {"type": "DT_INT32"}}}, {"name": "StatefulPartitionedCall/rn_gm/dense_12/BiasAdd/ReadVariableOp", "op": "Const", "attr": {"value": {"tensor": {"dtype": "DT_FLOAT", "tensorShape": {"dim": [{"size": "32"}]}}}, "dtype": {"type": "DT_FLOAT"}}}, {"name": "StatefulPartitionedCall/rn_gm/dense_13/Tensordot/free", "op": "Const", "attr": {"value": {"tensor": {"dtype": "DT_INT32", "tensorShape": {"dim": [{"size": "3"}]}}}, "dtype": {"type": "DT_INT32"}}}, {"name": "StatefulPartitionedCall/rn_gm/dense_13/Tensordot/GatherV2/axis", "op": "Const", "attr": {"dtype": {"type": "DT_INT32"}, "value": {"tensor": {"dtype": "DT_INT32", "tensorShape": {}}}}}, {"name": "StatefulPartitionedCall/rn_gm/dense_13/Tensordot/Const_2", "op": "Const", "attr": {"value": {"tensor": {"dtype": "DT_INT32", "tensorShape": {"dim": [{"size": "1"}]}}}, "dtype": {"type": "DT_INT32"}}}, {"name": "StatefulPartitionedCall/rn_gm/dense_13/Tensordot/concat_1/axis", "op": "Const", "attr": {"value": {"tensor": {"dtype": "DT_INT32", "tensorShape": {}}}, "dtype": {"type": "DT_INT32"}}}, {"name": "StatefulPartitionedCall/rn_gm/dense_13/BiasAdd/ReadVariableOp", "op": "Const", "attr": {"dtype": {"type": "DT_FLOAT"}, "value": {"tensor": {"dtype": "DT_FLOAT", "tensorShape": {"dim": [{"size": "64"}]}}}}}, {"name": "StatefulPartitionedCall/rn_gm/batch_normalization_14/batchnorm/sub", "op": "Const", "attr": {"dtype": {"type": "DT_FLOAT"}, "value": {"tensor": {"dtype": "DT_FLOAT", "tensorShape": {"dim": [{"size": "64"}]}}}}}, {"name": "StatefulPartitionedCall/rn_gm/conv2d_15/Conv2D/merged_input", "op": "Const", "attr": {"value": {"tensor": {"dtype": "DT_FLOAT", "tensorShape": {"dim": [{"size": "3"}, {"size": "3"}, {"size": "64"}, {"size": "64"}]}}}, "dtype": {"type": "DT_FLOAT"}}}, {"name": "StatefulPartitionedCall/rn_gm/batch_normalization_15/batchnorm/sub", "op": "Const", "attr": {"dtype": {"type": "DT_FLOAT"}, "value": {"tensor": {"dtype": "DT_FLOAT", "tensorShape": {"dim": [{"size": "64"}]}}}}}, {"name": "StatefulPartitionedCall/rn_gm/conv2d_16/Conv2D/ReadVariableOp", "op": "Const", "attr": {"dtype": {"type": "DT_FLOAT"}, "value": {"tensor": {"dtype": "DT_FLOAT", "tensorShape": {"dim": [{"size": "3"}, {"size": "3"}, {"size": "64"}, {"size": "64"}]}}}}}, {"name": "StatefulPartitionedCall/rn_gm/dense_14/Tensordot/free", "op": "Const", "attr": {"dtype": {"type": "DT_INT32"}, "value": {"tensor": {"dtype": "DT_INT32", "tensorShape": {"dim": [{"size": "3"}]}}}}}, {"name": "StatefulPartitionedCall/rn_gm/dense_14/Tensordot/GatherV2/axis", "op": "Const", "attr": {"dtype": {"type": "DT_INT32"}, "value": {"tensor": {"dtype": "DT_INT32", "tensorShape": {}}}}}, {"name": "StatefulPartitionedCall/rn_gm/dense_14/Tensordot/Const_2", "op": "Const", "attr": {"value": {"tensor": {"dtype": "DT_INT32", "tensorShape": {"dim": [{"size": "1"}]}}}, "dtype": {"type": "DT_INT32"}}}, {"name": "StatefulPartitionedCall/rn_gm/dense_14/Tensordot/concat_1/axis", "op": "Const", "attr": {"dtype": {"type": "DT_INT32"}, "value": {"tensor": {"dtype": "DT_INT32", "tensorShape": {}}}}}, {"name": "StatefulPartitionedCall/rn_gm/dense_14/BiasAdd/ReadVariableOp", "op": "Const", "attr": {"dtype": {"type": "DT_FLOAT"}, "value": {"tensor": {"dtype": "DT_FLOAT", "tensorShape": {"dim": [{"size": "32"}]}}}}}, {"name": "StatefulPartitionedCall/rn_gm/dense_15/Tensordot/free", "op": "Const", "attr": {"dtype": {"type": "DT_INT32"}, "value": {"tensor": {"dtype": "DT_INT32", "tensorShape": {"dim": [{"size": "3"}]}}}}}, {"name": "StatefulPartitionedCall/rn_gm/dense_15/Tensordot/GatherV2/axis", "op": "Const", "attr": {"value": {"tensor": {"dtype": "DT_INT32", "tensorShape": {}}}, "dtype": {"type": "DT_INT32"}}}, {"name": "StatefulPartitionedCall/rn_gm/dense_15/Tensordot/Const_2", "op": "Const", "attr": {"value": {"tensor": {"dtype": "DT_INT32", "tensorShape": {"dim": [{"size": "1"}]}}}, "dtype": {"type": "DT_INT32"}}}, {"name": "StatefulPartitionedCall/rn_gm/dense_15/Tensordot/concat_1/axis", "op": "Const", "attr": {"dtype": {"type": "DT_INT32"}, "value": {"tensor": {"dtype": "DT_INT32", "tensorShape": {}}}}}, {"name": "StatefulPartitionedCall/rn_gm/dense_15/BiasAdd/ReadVariableOp", "op": "Const", "attr": {"value": {"tensor": {"dtype": "DT_FLOAT", "tensorShape": {"dim": [{"size": "64"}]}}}, "dtype": {"type": "DT_FLOAT"}}}, {"name": "StatefulPartitionedCall/rn_gm/batch_normalization_16/batchnorm/sub", "op": "Const", "attr": {"value": {"tensor": {"dtype": "DT_FLOAT", "tensorShape": {"dim": [{"size": "64"}]}}}, "dtype": {"type": "DT_FLOAT"}}}, {"name": "StatefulPartitionedCall/rn_gm/conv2d_17/Conv2D/merged_input", "op": "Const", "attr": {"value": {"tensor": {"dtype": "DT_FLOAT", "tensorShape": {"dim": [{"size": "3"}, {"size": "3"}, {"size": "64"}, {"size": "64"}]}}}, "dtype": {"type": "DT_FLOAT"}}}, {"name": "StatefulPartitionedCall/rn_gm/batch_normalization_17/batchnorm/sub", "op": "Const", "attr": {"value": {"tensor": {"dtype": "DT_FLOAT", "tensorShape": {"dim": [{"size": "64"}]}}}, "dtype": {"type": "DT_FLOAT"}}}, {"name": "StatefulPartitionedCall/rn_gm/conv2d_18/Conv2D/ReadVariableOp", "op": "Const", "attr": {"value": {"tensor": {"dtype": "DT_FLOAT", "tensorShape": {"dim": [{"size": "3"}, {"size": "3"}, {"size": "64"}, {"size": "64"}]}}}, "dtype": {"type": "DT_FLOAT"}}}, {"name": "StatefulPartitionedCall/rn_gm/dense_16/Tensordot/free", "op": "Const", "attr": {"dtype": {"type": "DT_INT32"}, "value": {"tensor": {"dtype": "DT_INT32", "tensorShape": {"dim": [{"size": "3"}]}}}}}, {"name": "StatefulPartitionedCall/rn_gm/dense_16/Tensordot/GatherV2/axis", "op": "Const", "attr": {"dtype": {"type": "DT_INT32"}, "value": {"tensor": {"dtype": "DT_INT32", "tensorShape": {}}}}}, {"name": "StatefulPartitionedCall/rn_gm/dense_16/Tensordot/Const_2", "op": "Const", "attr": {"value": {"tensor": {"dtype": "DT_INT32", "tensorShape": {"dim": [{"size": "1"}]}}}, "dtype": {"type": "DT_INT32"}}}, {"name": "StatefulPartitionedCall/rn_gm/dense_16/Tensordot/concat_1/axis", "op": "Const", "attr": {"value": {"tensor": {"dtype": "DT_INT32", "tensorShape": {}}}, "dtype": {"type": "DT_INT32"}}}, {"name": "StatefulPartitionedCall/rn_gm/dense_16/BiasAdd/ReadVariableOp", "op": "Const", "attr": {"value": {"tensor": {"dtype": "DT_FLOAT", "tensorShape": {"dim": [{"size": "32"}]}}}, "dtype": {"type": "DT_FLOAT"}}}, {"name": "StatefulPartitionedCall/rn_gm/dense_17/Tensordot/free", "op": "Const", "attr": {"value": {"tensor": {"dtype": "DT_INT32", "tensorShape": {"dim": [{"size": "3"}]}}}, "dtype": {"type": "DT_INT32"}}}, {"name": "StatefulPartitionedCall/rn_gm/dense_17/Tensordot/GatherV2/axis", "op": "Const", "attr": {"value": {"tensor": {"dtype": "DT_INT32", "tensorShape": {}}}, "dtype": {"type": "DT_INT32"}}}, {"name": "StatefulPartitionedCall/rn_gm/dense_17/Tensordot/Const_2", "op": "Const", "attr": {"value": {"tensor": {"dtype": "DT_INT32", "tensorShape": {"dim": [{"size": "1"}]}}}, "dtype": {"type": "DT_INT32"}}}, {"name": "StatefulPartitionedCall/rn_gm/dense_17/Tensordot/concat_1/axis", "op": "Const", "attr": {"value": {"tensor": {"dtype": "DT_INT32", "tensorShape": {}}}, "dtype": {"type": "DT_INT32"}}}, {"name": "StatefulPartitionedCall/rn_gm/dense_17/BiasAdd/ReadVariableOp", "op": "Const", "attr": {"value": {"tensor": {"dtype": "DT_FLOAT", "tensorShape": {"dim": [{"size": "64"}]}}}, "dtype": {"type": "DT_FLOAT"}}}, {"name": "StatefulPartitionedCall/rn_gm/batch_normalization_18/batchnorm/sub", "op": "Const", "attr": {"value": {"tensor": {"dtype": "DT_FLOAT", "tensorShape": {"dim": [{"size": "64"}]}}}, "dtype": {"type": "DT_FLOAT"}}}, {"name": "StatefulPartitionedCall/rn_gm/conv2d_19/Conv2D/merged_input", "op": "Const", "attr": {"value": {"tensor": {"dtype": "DT_FLOAT", "tensorShape": {"dim": [{"size": "3"}, {"size": "3"}, {"size": "64"}, {"size": "64"}]}}}, "dtype": {"type": "DT_FLOAT"}}}, {"name": "StatefulPartitionedCall/rn_gm/batch_normalization_19/batchnorm/sub", "op": "Const", "attr": {"dtype": {"type": "DT_FLOAT"}, "value": {"tensor": {"dtype": "DT_FLOAT", "tensorShape": {"dim": [{"size": "64"}]}}}}}, {"name": "StatefulPartitionedCall/rn_gm/conv2d_20/Conv2D/ReadVariableOp", "op": "Const", "attr": {"value": {"tensor": {"dtype": "DT_FLOAT", "tensorShape": {"dim": [{"size": "3"}, {"size": "3"}, {"size": "64"}, {"size": "64"}]}}}, "dtype": {"type": "DT_FLOAT"}}}, {"name": "StatefulPartitionedCall/rn_gm/dense_18/Tensordot/free", "op": "Const", "attr": {"value": {"tensor": {"dtype": "DT_INT32", "tensorShape": {"dim": [{"size": "3"}]}}}, "dtype": {"type": "DT_INT32"}}}, {"name": "StatefulPartitionedCall/rn_gm/dense_18/Tensordot/GatherV2/axis", "op": "Const", "attr": {"value": {"tensor": {"dtype": "DT_INT32", "tensorShape": {}}}, "dtype": {"type": "DT_INT32"}}}, {"name": "StatefulPartitionedCall/rn_gm/dense_18/Tensordot/Const_2", "op": "Const", "attr": {"value": {"tensor": {"dtype": "DT_INT32", "tensorShape": {"dim": [{"size": "1"}]}}}, "dtype": {"type": "DT_INT32"}}}, {"name": "StatefulPartitionedCall/rn_gm/dense_18/Tensordot/concat_1/axis", "op": "Const", "attr": {"dtype": {"type": "DT_INT32"}, "value": {"tensor": {"dtype": "DT_INT32", "tensorShape": {}}}}}, {"name": "StatefulPartitionedCall/rn_gm/dense_18/BiasAdd/ReadVariableOp", "op": "Const", "attr": {"dtype": {"type": "DT_FLOAT"}, "value": {"tensor": {"dtype": "DT_FLOAT", "tensorShape": {"dim": [{"size": "32"}]}}}}}, {"name": "StatefulPartitionedCall/rn_gm/dense_19/Tensordot/free", "op": "Const", "attr": {"dtype": {"type": "DT_INT32"}, "value": {"tensor": {"dtype": "DT_INT32", "tensorShape": {"dim": [{"size": "3"}]}}}}}, {"name": "StatefulPartitionedCall/rn_gm/dense_19/Tensordot/GatherV2/axis", "op": "Const", "attr": {"value": {"tensor": {"dtype": "DT_INT32", "tensorShape": {}}}, "dtype": {"type": "DT_INT32"}}}, {"name": "StatefulPartitionedCall/rn_gm/dense_19/Tensordot/Const_2", "op": "Const", "attr": {"dtype": {"type": "DT_INT32"}, "value": {"tensor": {"dtype": "DT_INT32", "tensorShape": {"dim": [{"size": "1"}]}}}}}, {"name": "StatefulPartitionedCall/rn_gm/dense_19/Tensordot/concat_1/axis", "op": "Const", "attr": {"value": {"tensor": {"dtype": "DT_INT32", "tensorShape": {}}}, "dtype": {"type": "DT_INT32"}}}, {"name": "StatefulPartitionedCall/rn_gm/dense_19/BiasAdd/ReadVariableOp", "op": "Const", "attr": {"dtype": {"type": "DT_FLOAT"}, "value": {"tensor": {"dtype": "DT_FLOAT", "tensorShape": {"dim": [{"size": "64"}]}}}}}, {"name": "StatefulPartitionedCall/rn_gm/batch_normalization_20/batchnorm/sub", "op": "Const", "attr": {"value": {"tensor": {"dtype": "DT_FLOAT", "tensorShape": {"dim": [{"size": "64"}]}}}, "dtype": {"type": "DT_FLOAT"}}}, {"name": "StatefulPartitionedCall/rn_gm/conv2d_23/Conv2D/ReadVariableOp", "op": "Const", "attr": {"value": {"tensor": {"dtype": "DT_FLOAT", "tensorShape": {"dim": [{"size": "3"}, {"size": "3"}, {"size": "64"}, {"size": "32"}]}}}, "dtype": {"type": "DT_FLOAT"}}}, {"name": "StatefulPartitionedCall/rn_gm/conv2d_23/BiasAdd/ReadVariableOp", "op": "Const", "attr": {"dtype": {"type": "DT_FLOAT"}, "value": {"tensor": {"dtype": "DT_FLOAT", "tensorShape": {"dim": [{"size": "32"}]}}}}}, {"name": "StatefulPartitionedCall/rn_gm/flatten/Const", "op": "Const", "attr": {"dtype": {"type": "DT_INT32"}, "value": {"tensor": {"dtype": "DT_INT32", "tensorShape": {"dim": [{"size": "2"}]}}}}}, {"name": "StatefulPartitionedCall/rn_gm/dense_20/MatMul/ReadVariableOp", "op": "Const", "attr": {"dtype": {"type": "DT_FLOAT"}, "value": {"tensor": {"dtype": "DT_FLOAT", "tensorShape": {"dim": [{"size": "7200"}, {"size": "128"}]}}}}}, {"name": "StatefulPartitionedCall/rn_gm/batch_normalization_21/batchnorm/mul", "op": "Const", "attr": {"dtype": {"type": "DT_FLOAT"}, "value": {"tensor": {"dtype": "DT_FLOAT", "tensorShape": {"dim": [{"size": "128"}]}}}}}, {"name": "StatefulPartitionedCall/rn_gm/batch_normalization_21/batchnorm/sub", "op": "Const", "attr": {"dtype": {"type": "DT_FLOAT"}, "value": {"tensor": {"dtype": "DT_FLOAT", "tensorShape": {"dim": [{"size": "128"}]}}}}}, {"name": "StatefulPartitionedCall/rn_gm/dense_21/MatMul/ReadVariableOp", "op": "Const", "attr": {"dtype": {"type": "DT_FLOAT"}, "value": {"tensor": {"dtype": "DT_FLOAT", "tensorShape": {"dim": [{"size": "128"}, {"size": "1"}]}}}}}, {"name": "StatefulPartitionedCall/rn_gm/dense_21/BiasAdd/ReadVariableOp", "op": "Const", "attr": {"dtype": {"type": "DT_FLOAT"}, "value": {"tensor": {"dtype": "DT_FLOAT", "tensorShape": {"dim": [{"size": "1"}]}}}}}, {"name": "StatefulPartitionedCall/rn_gm/concatenate/concat/axis", "op": "Const", "attr": {"value": {"tensor": {"dtype": "DT_INT32", "tensorShape": {}}}, "dtype": {"type": "DT_INT32"}}}, {"name": "input_1", "op": "Placeholder", "attr": {"shape": {"shape": {"dim": [{"size": "-1"}, {"size": "15"}, {"size": "15"}, {"size": "2"}]}}, "dtype": {"type": "DT_FLOAT"}}}, {"name": "StatefulPartitionedCall/rn_gm/batch_normalization/batchnorm/mul_1", "op": "Conv2D", "input": ["input_1", "StatefulPartitionedCall/rn_gm/conv2d/Conv2D/merged_input"], "device": "/device:CPU:0", "attr": {"data_format": {"s": "TkhXQw=="}, "padding": {"s": "U0FNRQ=="}, "T": {"type": "DT_FLOAT"}, "use_cudnn_on_gpu": {"b": true}, "explicit_paddings": {"list": {}}, "strides": {"list": {"i": ["1", "1", "1", "1"]}}, "dilations": {"list": {"i": ["1", "1", "1", "1"]}}}}, {"name": "StatefulPartitionedCall/rn_gm/batch_normalization/batchnorm/add_1", "op": "AddV2", "input": ["StatefulPartitionedCall/rn_gm/batch_normalization/batchnorm/mul_1", "StatefulPartitionedCall/rn_gm/batch_normalization/batchnorm/sub"], "attr": {"T": {"type": "DT_FLOAT"}}}, {"name": "StatefulPartitionedCall/rn_gm/Relu", "op": "Relu", "input": ["StatefulPartitionedCall/rn_gm/batch_normalization/batchnorm/add_1"], "attr": {"T": {"type": "DT_FLOAT"}}}, {"name": "StatefulPartitionedCall/rn_gm/batch_normalization_1/batchnorm/mul_1", "op": "Conv2D", "input": ["StatefulPartitionedCall/rn_gm/Relu", "StatefulPartitionedCall/rn_gm/conv2d_1/Conv2D/merged_input"], "device": "/device:CPU:0", "attr": {"strides": {"list": {"i": ["1", "1", "1", "1"]}}, "use_cudnn_on_gpu": {"b": true}, "dilations": {"list": {"i": ["1", "1", "1", "1"]}}, "explicit_paddings": {"list": {}}, "T": {"type": "DT_FLOAT"}, "padding": {"s": "U0FNRQ=="}, "data_format": {"s": "TkhXQw=="}}}, {"name": "StatefulPartitionedCall/rn_gm/batch_normalization_1/batchnorm/add_1", "op": "AddV2", "input": ["StatefulPartitionedCall/rn_gm/batch_normalization_1/batchnorm/mul_1", "StatefulPartitionedCall/rn_gm/batch_normalization_1/batchnorm/sub"], "attr": {"T": {"type": "DT_FLOAT"}}}, {"name": "StatefulPartitionedCall/rn_gm/Relu_1", "op": "Relu", "input": ["StatefulPartitionedCall/rn_gm/batch_normalization_1/batchnorm/add_1"], "attr": {"T": {"type": "DT_FLOAT"}}}, {"name": "StatefulPartitionedCall/rn_gm/conv2d_2/Conv2D", "op": "Conv2D", "input": ["StatefulPartitionedCall/rn_gm/Relu_1", "StatefulPartitionedCall/rn_gm/conv2d_2/Conv2D/ReadVariableOp"], "device": "/device:CPU:0", "attr": {"T": {"type": "DT_FLOAT"}, "padding": {"s": "U0FNRQ=="}, "strides": {"list": {"i": ["1", "1", "1", "1"]}}, "dilations": {"list": {"i": ["1", "1", "1", "1"]}}, "explicit_paddings": {"list": {}}, "use_cudnn_on_gpu": {"b": true}, "data_format": {"s": "TkhXQw=="}}}, {"name": "StatefulPartitionedCall/rn_gm/average_pooling2d/AvgPool", "op": "AvgPool", "input": ["StatefulPartitionedCall/rn_gm/conv2d_2/Conv2D"], "attr": {"T": {"type": "DT_FLOAT"}, "strides": {"list": {"i": ["1", "15", "15", "1"]}}, "padding": {"s": "VkFMSUQ="}, "ksize": {"list": {"i": ["1", "15", "15", "1"]}}, "data_format": {"s": "TkhXQw=="}}}, {"name": "StatefulPartitionedCall/rn_gm/dense/Tensordot/Shape", "op": "Shape", "input": ["StatefulPartitionedCall/rn_gm/average_pooling2d/AvgPool"], "attr": {"T": {"type": "DT_FLOAT"}, "out_type": {"type": "DT_INT32"}}}, {"name": "StatefulPartitionedCall/rn_gm/dense/Tensordot/GatherV2_1", "op": "GatherV2", "input": ["StatefulPartitionedCall/rn_gm/dense/Tensordot/Shape", "StatefulPartitionedCall/rn_gm/dense/Tensordot/axes", "StatefulPartitionedCall/rn_gm/dense/Tensordot/GatherV2_1/axis"], "attr": {"Tparams": {"type": "DT_INT32"}, "Taxis": {"type": "DT_INT32"}, "batch_dims": {"i": "0"}, "Tindices": {"type": "DT_INT32"}}}, {"name": "StatefulPartitionedCall/rn_gm/dense/Tensordot/GatherV2", "op": "GatherV2", "input": ["StatefulPartitionedCall/rn_gm/dense/Tensordot/Shape", "StatefulPartitionedCall/rn_gm/dense/Tensordot/free", "StatefulPartitionedCall/rn_gm/dense/Tensordot/GatherV2/axis"], "attr": {"batch_dims": {"i": "0"}, "Tparams": {"type": "DT_INT32"}, "Taxis": {"type": "DT_INT32"}, "Tindices": {"type": "DT_INT32"}}}, {"name": "StatefulPartitionedCall/rn_gm/dense/Tensordot/Prod_1", "op": "Prod", "input": ["StatefulPartitionedCall/rn_gm/dense/Tensordot/GatherV2_1", "StatefulPartitionedCall/rn_gm/dense/Tensordot/Const_1"], "attr": {"T": {"type": "DT_INT32"}, "Tidx": {"type": "DT_INT32"}, "keep_dims": {"b": false}}}, {"name": "StatefulPartitionedCall/rn_gm/dense/Tensordot/Prod", "op": "Prod", "input": ["StatefulPartitionedCall/rn_gm/dense/Tensordot/GatherV2", "StatefulPartitionedCall/rn_gm/dense/Tensordot/Const"], "attr": {"T": {"type": "DT_INT32"}, "Tidx": {"type": "DT_INT32"}, "keep_dims": {"b": false}}}, {"name": "StatefulPartitionedCall/rn_gm/dense/Tensordot/concat_1", "op": "ConcatV2", "input": ["StatefulPartitionedCall/rn_gm/dense/Tensordot/GatherV2", "StatefulPartitionedCall/rn_gm/dense/Tensordot/Const_2", "StatefulPartitionedCall/rn_gm/dense/Tensordot/concat_1/axis"], "attr": {"Tidx": {"type": "DT_INT32"}, "T": {"type": "DT_INT32"}, "N": {"i": "2"}}}, {"name": "StatefulPartitionedCall/rn_gm/dense/Tensordot/stack", "op": "Pack", "input": ["StatefulPartitionedCall/rn_gm/dense/Tensordot/Prod", "StatefulPartitionedCall/rn_gm/dense/Tensordot/Prod_1"], "attr": {"axis": {"i": "0"}, "N": {"i": "2"}, "T": {"type": "DT_INT32"}}}, {"name": "StatefulPartitionedCall/rn_gm/dense/Tensordot/Reshape", "op": "Reshape", "input": ["StatefulPartitionedCall/rn_gm/average_pooling2d/AvgPool", "StatefulPartitionedCall/rn_gm/dense/Tensordot/stack"], "attr": {"Tshape": {"type": "DT_INT32"}, "T": {"type": "DT_FLOAT"}}}, {"name": "StatefulPartitionedCall/rn_gm/dense/Tensordot/MatMul", "op": "MatMul", "input": ["StatefulPartitionedCall/rn_gm/dense/Tensordot/Reshape", "StatefulPartitionedCall/rn_gm/dense/Tensordot/ReadVariableOp"], "device": "/device:CPU:0", "attr": {"T": {"type": "DT_FLOAT"}, "transpose_a": {"b": false}, "transpose_b": {"b": false}}}, {"name": "StatefulPartitionedCall/rn_gm/dense/Tensordot", "op": "Reshape", "input": ["StatefulPartitionedCall/rn_gm/dense/Tensordot/MatMul", "StatefulPartitionedCall/rn_gm/dense/Tensordot/concat_1"], "attr": {"T": {"type": "DT_FLOAT"}, "Tshape": {"type": "DT_INT32"}}}, {"name": "StatefulPartitionedCall/rn_gm/dense/BiasAdd", "op": "BiasAdd", "input": ["StatefulPartitionedCall/rn_gm/dense/Tensordot", "StatefulPartitionedCall/rn_gm/dense/BiasAdd/ReadVariableOp"], "attr": {"data_format": {"s": "TkhXQw=="}, "T": {"type": "DT_FLOAT"}}}, {"name": "StatefulPartitionedCall/rn_gm/dense/Relu", "op": "Relu", "input": ["StatefulPartitionedCall/rn_gm/dense/BiasAdd"], "attr": {"T": {"type": "DT_FLOAT"}}}, {"name": "StatefulPartitionedCall/rn_gm/dense_1/Tensordot/Shape", "op": "Shape", "input": ["StatefulPartitionedCall/rn_gm/dense/Relu"], "attr": {"out_type": {"type": "DT_INT32"}, "T": {"type": "DT_FLOAT"}}}, {"name": "StatefulPartitionedCall/rn_gm/dense_1/Tensordot/GatherV2_1", "op": "GatherV2", "input": ["StatefulPartitionedCall/rn_gm/dense_1/Tensordot/Shape", "StatefulPartitionedCall/rn_gm/dense_1/Tensordot/axes", "StatefulPartitionedCall/rn_gm/dense_1/Tensordot/GatherV2_1/axis"], "attr": {"Tindices": {"type": "DT_INT32"}, "Tparams": {"type": "DT_INT32"}, "Taxis": {"type": "DT_INT32"}, "batch_dims": {"i": "0"}}}, {"name": "StatefulPartitionedCall/rn_gm/dense_1/Tensordot/GatherV2", "op": "GatherV2", "input": ["StatefulPartitionedCall/rn_gm/dense_1/Tensordot/Shape", "StatefulPartitionedCall/rn_gm/dense_1/Tensordot/free", "StatefulPartitionedCall/rn_gm/dense_1/Tensordot/GatherV2/axis"], "attr": {"Tindices": {"type": "DT_INT32"}, "Taxis": {"type": "DT_INT32"}, "Tparams": {"type": "DT_INT32"}, "batch_dims": {"i": "0"}}}, {"name": "StatefulPartitionedCall/rn_gm/dense_1/Tensordot/Prod_1", "op": "Prod", "input": ["StatefulPartitionedCall/rn_gm/dense_1/Tensordot/GatherV2_1", "StatefulPartitionedCall/rn_gm/dense_1/Tensordot/Const_1"], "attr": {"Tidx": {"type": "DT_INT32"}, "T": {"type": "DT_INT32"}, "keep_dims": {"b": false}}}, {"name": "StatefulPartitionedCall/rn_gm/dense_1/Tensordot/Prod", "op": "Prod", "input": ["StatefulPartitionedCall/rn_gm/dense_1/Tensordot/GatherV2", "StatefulPartitionedCall/rn_gm/dense_1/Tensordot/Const"], "attr": {"T": {"type": "DT_INT32"}, "Tidx": {"type": "DT_INT32"}, "keep_dims": {"b": false}}}, {"name": "StatefulPartitionedCall/rn_gm/dense_1/Tensordot/concat_1", "op": "ConcatV2", "input": ["StatefulPartitionedCall/rn_gm/dense_1/Tensordot/GatherV2", "StatefulPartitionedCall/rn_gm/dense_1/Tensordot/Const_2", "StatefulPartitionedCall/rn_gm/dense_1/Tensordot/concat_1/axis"], "attr": {"N": {"i": "2"}, "T": {"type": "DT_INT32"}, "Tidx": {"type": "DT_INT32"}}}, {"name": "StatefulPartitionedCall/rn_gm/dense_1/Tensordot/stack", "op": "Pack", "input": ["StatefulPartitionedCall/rn_gm/dense_1/Tensordot/Prod", "StatefulPartitionedCall/rn_gm/dense_1/Tensordot/Prod_1"], "attr": {"axis": {"i": "0"}, "N": {"i": "2"}, "T": {"type": "DT_INT32"}}}, {"name": "StatefulPartitionedCall/rn_gm/dense_1/Tensordot/Reshape", "op": "Reshape", "input": ["StatefulPartitionedCall/rn_gm/dense/Relu", "StatefulPartitionedCall/rn_gm/dense_1/Tensordot/stack"], "attr": {"T": {"type": "DT_FLOAT"}, "Tshape": {"type": "DT_INT32"}}}, {"name": "StatefulPartitionedCall/rn_gm/dense_1/Tensordot/MatMul", "op": "MatMul", "input": ["StatefulPartitionedCall/rn_gm/dense_1/Tensordot/Reshape", "StatefulPartitionedCall/rn_gm/dense_1/Tensordot/ReadVariableOp"], "device": "/device:CPU:0", "attr": {"transpose_b": {"b": false}, "T": {"type": "DT_FLOAT"}, "transpose_a": {"b": false}}}, {"name": "StatefulPartitionedCall/rn_gm/dense_1/Tensordot", "op": "Reshape", "input": ["StatefulPartitionedCall/rn_gm/dense_1/Tensordot/MatMul", "StatefulPartitionedCall/rn_gm/dense_1/Tensordot/concat_1"], "attr": {"T": {"type": "DT_FLOAT"}, "Tshape": {"type": "DT_INT32"}}}, {"name": "StatefulPartitionedCall/rn_gm/dense_1/BiasAdd", "op": "BiasAdd", "input": ["StatefulPartitionedCall/rn_gm/dense_1/Tensordot", "StatefulPartitionedCall/rn_gm/dense_1/BiasAdd/ReadVariableOp"], "attr": {"data_format": {"s": "TkhXQw=="}, "T": {"type": "DT_FLOAT"}}}, {"name": "StatefulPartitionedCall/rn_gm/dense_1/Sigmoid", "op": "Sigmoid", "input": ["StatefulPartitionedCall/rn_gm/dense_1/BiasAdd"], "attr": {"T": {"type": "DT_FLOAT"}}}, {"name": "StatefulPartitionedCall/rn_gm/mul", "op": "Mul", "input": ["StatefulPartitionedCall/rn_gm/batch_normalization_2/batchnorm/mul", "StatefulPartitionedCall/rn_gm/dense_1/Sigmoid"], "attr": {"T": {"type": "DT_FLOAT"}}}, {"name": "StatefulPartitionedCall/rn_gm/batch_normalization_2/batchnorm/mul_1", "op": "Mul", "input": ["StatefulPartitionedCall/rn_gm/conv2d_2/Conv2D", "StatefulPartitionedCall/rn_gm/mul"], "attr": {"T": {"type": "DT_FLOAT"}}}, {"name": "StatefulPartitionedCall/rn_gm/batch_normalization_2/batchnorm/add_1", "op": "AddV2", "input": ["StatefulPartitionedCall/rn_gm/batch_normalization_2/batchnorm/mul_1", "StatefulPartitionedCall/rn_gm/batch_normalization_2/batchnorm/sub"], "attr": {"T": {"type": "DT_FLOAT"}}}, {"name": "StatefulPartitionedCall/rn_gm/add", "op": "AddV2", "input": ["StatefulPartitionedCall/rn_gm/Relu", "StatefulPartitionedCall/rn_gm/batch_normalization_2/batchnorm/add_1"], "attr": {"T": {"type": "DT_FLOAT"}}}, {"name": "StatefulPartitionedCall/rn_gm/Relu_2", "op": "Relu", "input": ["StatefulPartitionedCall/rn_gm/add"], "attr": {"T": {"type": "DT_FLOAT"}}}, {"name": "StatefulPartitionedCall/rn_gm/batch_normalization_3/batchnorm/mul_1", "op": "Conv2D", "input": ["StatefulPartitionedCall/rn_gm/Relu_2", "StatefulPartitionedCall/rn_gm/conv2d_3/Conv2D/merged_input"], "device": "/device:CPU:0", "attr": {"use_cudnn_on_gpu": {"b": true}, "T": {"type": "DT_FLOAT"}, "padding": {"s": "U0FNRQ=="}, "dilations": {"list": {"i": ["1", "1", "1", "1"]}}, "data_format": {"s": "TkhXQw=="}, "strides": {"list": {"i": ["1", "1", "1", "1"]}}, "explicit_paddings": {"list": {}}}}, {"name": "StatefulPartitionedCall/rn_gm/batch_normalization_3/batchnorm/add_1", "op": "AddV2", "input": ["StatefulPartitionedCall/rn_gm/batch_normalization_3/batchnorm/mul_1", "StatefulPartitionedCall/rn_gm/batch_normalization_3/batchnorm/sub"], "attr": {"T": {"type": "DT_FLOAT"}}}, {"name": "StatefulPartitionedCall/rn_gm/Relu_3", "op": "Relu", "input": ["StatefulPartitionedCall/rn_gm/batch_normalization_3/batchnorm/add_1"], "attr": {"T": {"type": "DT_FLOAT"}}}, {"name": "StatefulPartitionedCall/rn_gm/conv2d_4/Conv2D", "op": "Conv2D", "input": ["StatefulPartitionedCall/rn_gm/Relu_3", "StatefulPartitionedCall/rn_gm/conv2d_4/Conv2D/ReadVariableOp"], "device": "/device:CPU:0", "attr": {"data_format": {"s": "TkhXQw=="}, "padding": {"s": "U0FNRQ=="}, "dilations": {"list": {"i": ["1", "1", "1", "1"]}}, "strides": {"list": {"i": ["1", "1", "1", "1"]}}, "T": {"type": "DT_FLOAT"}, "explicit_paddings": {"list": {}}, "use_cudnn_on_gpu": {"b": true}}}, {"name": "StatefulPartitionedCall/rn_gm/average_pooling2d_1/AvgPool", "op": "AvgPool", "input": ["StatefulPartitionedCall/rn_gm/conv2d_4/Conv2D"], "attr": {"padding": {"s": "VkFMSUQ="}, "data_format": {"s": "TkhXQw=="}, "strides": {"list": {"i": ["1", "15", "15", "1"]}}, "T": {"type": "DT_FLOAT"}, "ksize": {"list": {"i": ["1", "15", "15", "1"]}}}}, {"name": "StatefulPartitionedCall/rn_gm/dense_2/Tensordot/Shape", "op": "Shape", "input": ["StatefulPartitionedCall/rn_gm/average_pooling2d_1/AvgPool"], "attr": {"out_type": {"type": "DT_INT32"}, "T": {"type": "DT_FLOAT"}}}, {"name": "StatefulPartitionedCall/rn_gm/dense_2/Tensordot/GatherV2_1", "op": "GatherV2", "input": ["StatefulPartitionedCall/rn_gm/dense_2/Tensordot/Shape", "StatefulPartitionedCall/rn_gm/dense_2/Tensordot/axes", "StatefulPartitionedCall/rn_gm/dense_2/Tensordot/GatherV2_1/axis"], "attr": {"Taxis": {"type": "DT_INT32"}, "batch_dims": {"i": "0"}, "Tparams": {"type": "DT_INT32"}, "Tindices": {"type": "DT_INT32"}}}, {"name": "StatefulPartitionedCall/rn_gm/dense_2/Tensordot/GatherV2", "op": "GatherV2", "input": ["StatefulPartitionedCall/rn_gm/dense_2/Tensordot/Shape", "StatefulPartitionedCall/rn_gm/dense_2/Tensordot/free", "StatefulPartitionedCall/rn_gm/dense_2/Tensordot/GatherV2/axis"], "attr": {"Taxis": {"type": "DT_INT32"}, "Tindices": {"type": "DT_INT32"}, "Tparams": {"type": "DT_INT32"}, "batch_dims": {"i": "0"}}}, {"name": "StatefulPartitionedCall/rn_gm/dense_2/Tensordot/Prod_1", "op": "Prod", "input": ["StatefulPartitionedCall/rn_gm/dense_2/Tensordot/GatherV2_1", "StatefulPartitionedCall/rn_gm/dense_2/Tensordot/Const_1"], "attr": {"T": {"type": "DT_INT32"}, "keep_dims": {"b": false}, "Tidx": {"type": "DT_INT32"}}}, {"name": "StatefulPartitionedCall/rn_gm/dense_2/Tensordot/Prod", "op": "Prod", "input": ["StatefulPartitionedCall/rn_gm/dense_2/Tensordot/GatherV2", "StatefulPartitionedCall/rn_gm/dense_2/Tensordot/Const"], "attr": {"keep_dims": {"b": false}, "T": {"type": "DT_INT32"}, "Tidx": {"type": "DT_INT32"}}}, {"name": "StatefulPartitionedCall/rn_gm/dense_2/Tensordot/concat_1", "op": "ConcatV2", "input": ["StatefulPartitionedCall/rn_gm/dense_2/Tensordot/GatherV2", "StatefulPartitionedCall/rn_gm/dense_2/Tensordot/Const_2", "StatefulPartitionedCall/rn_gm/dense_2/Tensordot/concat_1/axis"], "attr": {"N": {"i": "2"}, "T": {"type": "DT_INT32"}, "Tidx": {"type": "DT_INT32"}}}, {"name": "StatefulPartitionedCall/rn_gm/dense_2/Tensordot/stack", "op": "Pack", "input": ["StatefulPartitionedCall/rn_gm/dense_2/Tensordot/Prod", "StatefulPartitionedCall/rn_gm/dense_2/Tensordot/Prod_1"], "attr": {"axis": {"i": "0"}, "N": {"i": "2"}, "T": {"type": "DT_INT32"}}}, {"name": "StatefulPartitionedCall/rn_gm/dense_2/Tensordot/Reshape", "op": "Reshape", "input": ["StatefulPartitionedCall/rn_gm/average_pooling2d_1/AvgPool", "StatefulPartitionedCall/rn_gm/dense_2/Tensordot/stack"], "attr": {"Tshape": {"type": "DT_INT32"}, "T": {"type": "DT_FLOAT"}}}, {"name": "StatefulPartitionedCall/rn_gm/dense_2/Tensordot/MatMul", "op": "MatMul", "input": ["StatefulPartitionedCall/rn_gm/dense_2/Tensordot/Reshape", "StatefulPartitionedCall/rn_gm/dense_2/Tensordot/ReadVariableOp"], "device": "/device:CPU:0", "attr": {"transpose_b": {"b": false}, "transpose_a": {"b": false}, "T": {"type": "DT_FLOAT"}}}, {"name": "StatefulPartitionedCall/rn_gm/dense_2/Tensordot", "op": "Reshape", "input": ["StatefulPartitionedCall/rn_gm/dense_2/Tensordot/MatMul", "StatefulPartitionedCall/rn_gm/dense_2/Tensordot/concat_1"], "attr": {"Tshape": {"type": "DT_INT32"}, "T": {"type": "DT_FLOAT"}}}, {"name": "StatefulPartitionedCall/rn_gm/dense_2/BiasAdd", "op": "BiasAdd", "input": ["StatefulPartitionedCall/rn_gm/dense_2/Tensordot", "StatefulPartitionedCall/rn_gm/dense_2/BiasAdd/ReadVariableOp"], "attr": {"T": {"type": "DT_FLOAT"}, "data_format": {"s": "TkhXQw=="}}}, {"name": "StatefulPartitionedCall/rn_gm/dense_2/Relu", "op": "Relu", "input": ["StatefulPartitionedCall/rn_gm/dense_2/BiasAdd"], "attr": {"T": {"type": "DT_FLOAT"}}}, {"name": "StatefulPartitionedCall/rn_gm/dense_3/Tensordot/Shape", "op": "Shape", "input": ["StatefulPartitionedCall/rn_gm/dense_2/Relu"], "attr": {"out_type": {"type": "DT_INT32"}, "T": {"type": "DT_FLOAT"}}}, {"name": "StatefulPartitionedCall/rn_gm/dense_3/Tensordot/GatherV2_1", "op": "GatherV2", "input": ["StatefulPartitionedCall/rn_gm/dense_3/Tensordot/Shape", "StatefulPartitionedCall/rn_gm/dense_3/Tensordot/axes", "StatefulPartitionedCall/rn_gm/dense_3/Tensordot/GatherV2_1/axis"], "attr": {"batch_dims": {"i": "0"}, "Tindices": {"type": "DT_INT32"}, "Tparams": {"type": "DT_INT32"}, "Taxis": {"type": "DT_INT32"}}}, {"name": "StatefulPartitionedCall/rn_gm/dense_3/Tensordot/GatherV2", "op": "GatherV2", "input": ["StatefulPartitionedCall/rn_gm/dense_3/Tensordot/Shape", "StatefulPartitionedCall/rn_gm/dense_3/Tensordot/free", "StatefulPartitionedCall/rn_gm/dense_3/Tensordot/GatherV2/axis"], "attr": {"Taxis": {"type": "DT_INT32"}, "batch_dims": {"i": "0"}, "Tparams": {"type": "DT_INT32"}, "Tindices": {"type": "DT_INT32"}}}, {"name": "StatefulPartitionedCall/rn_gm/dense_3/Tensordot/Prod_1", "op": "Prod", "input": ["StatefulPartitionedCall/rn_gm/dense_3/Tensordot/GatherV2_1", "StatefulPartitionedCall/rn_gm/dense_3/Tensordot/Const_1"], "attr": {"T": {"type": "DT_INT32"}, "Tidx": {"type": "DT_INT32"}, "keep_dims": {"b": false}}}, {"name": "StatefulPartitionedCall/rn_gm/dense_3/Tensordot/Prod", "op": "Prod", "input": ["StatefulPartitionedCall/rn_gm/dense_3/Tensordot/GatherV2", "StatefulPartitionedCall/rn_gm/dense_3/Tensordot/Const"], "attr": {"keep_dims": {"b": false}, "T": {"type": "DT_INT32"}, "Tidx": {"type": "DT_INT32"}}}, {"name": "StatefulPartitionedCall/rn_gm/dense_3/Tensordot/concat_1", "op": "ConcatV2", "input": ["StatefulPartitionedCall/rn_gm/dense_3/Tensordot/GatherV2", "StatefulPartitionedCall/rn_gm/dense_3/Tensordot/Const_2", "StatefulPartitionedCall/rn_gm/dense_3/Tensordot/concat_1/axis"], "attr": {"N": {"i": "2"}, "T": {"type": "DT_INT32"}, "Tidx": {"type": "DT_INT32"}}}, {"name": "StatefulPartitionedCall/rn_gm/dense_3/Tensordot/stack", "op": "Pack", "input": ["StatefulPartitionedCall/rn_gm/dense_3/Tensordot/Prod", "StatefulPartitionedCall/rn_gm/dense_3/Tensordot/Prod_1"], "attr": {"N": {"i": "2"}, "T": {"type": "DT_INT32"}, "axis": {"i": "0"}}}, {"name": "StatefulPartitionedCall/rn_gm/dense_3/Tensordot/Reshape", "op": "Reshape", "input": ["StatefulPartitionedCall/rn_gm/dense_2/Relu", "StatefulPartitionedCall/rn_gm/dense_3/Tensordot/stack"], "attr": {"T": {"type": "DT_FLOAT"}, "Tshape": {"type": "DT_INT32"}}}, {"name": "StatefulPartitionedCall/rn_gm/dense_3/Tensordot/MatMul", "op": "MatMul", "input": ["StatefulPartitionedCall/rn_gm/dense_3/Tensordot/Reshape", "StatefulPartitionedCall/rn_gm/dense_3/Tensordot/ReadVariableOp"], "device": "/device:CPU:0", "attr": {"T": {"type": "DT_FLOAT"}, "transpose_a": {"b": false}, "transpose_b": {"b": false}}}, {"name": "StatefulPartitionedCall/rn_gm/dense_3/Tensordot", "op": "Reshape", "input": ["StatefulPartitionedCall/rn_gm/dense_3/Tensordot/MatMul", "StatefulPartitionedCall/rn_gm/dense_3/Tensordot/concat_1"], "attr": {"T": {"type": "DT_FLOAT"}, "Tshape": {"type": "DT_INT32"}}}, {"name": "StatefulPartitionedCall/rn_gm/dense_3/BiasAdd", "op": "BiasAdd", "input": ["StatefulPartitionedCall/rn_gm/dense_3/Tensordot", "StatefulPartitionedCall/rn_gm/dense_3/BiasAdd/ReadVariableOp"], "attr": {"data_format": {"s": "TkhXQw=="}, "T": {"type": "DT_FLOAT"}}}, {"name": "StatefulPartitionedCall/rn_gm/dense_3/Sigmoid", "op": "Sigmoid", "input": ["StatefulPartitionedCall/rn_gm/dense_3/BiasAdd"], "attr": {"T": {"type": "DT_FLOAT"}}}, {"name": "StatefulPartitionedCall/rn_gm/mul_1", "op": "Mul", "input": ["StatefulPartitionedCall/rn_gm/batch_normalization_4/batchnorm/mul", "StatefulPartitionedCall/rn_gm/dense_3/Sigmoid"], "attr": {"T": {"type": "DT_FLOAT"}}}, {"name": "StatefulPartitionedCall/rn_gm/batch_normalization_4/batchnorm/mul_1", "op": "Mul", "input": ["StatefulPartitionedCall/rn_gm/conv2d_4/Conv2D", "StatefulPartitionedCall/rn_gm/mul_1"], "attr": {"T": {"type": "DT_FLOAT"}}}, {"name": "StatefulPartitionedCall/rn_gm/batch_normalization_4/batchnorm/add_1", "op": "AddV2", "input": ["StatefulPartitionedCall/rn_gm/batch_normalization_4/batchnorm/mul_1", "StatefulPartitionedCall/rn_gm/batch_normalization_4/batchnorm/sub"], "attr": {"T": {"type": "DT_FLOAT"}}}, {"name": "StatefulPartitionedCall/rn_gm/add_1", "op": "AddV2", "input": ["StatefulPartitionedCall/rn_gm/Relu_2", "StatefulPartitionedCall/rn_gm/batch_normalization_4/batchnorm/add_1"], "attr": {"T": {"type": "DT_FLOAT"}}}, {"name": "StatefulPartitionedCall/rn_gm/Relu_4", "op": "Relu", "input": ["StatefulPartitionedCall/rn_gm/add_1"], "attr": {"T": {"type": "DT_FLOAT"}}}, {"name": "StatefulPartitionedCall/rn_gm/batch_normalization_5/batchnorm/mul_1", "op": "Conv2D", "input": ["StatefulPartitionedCall/rn_gm/Relu_4", "StatefulPartitionedCall/rn_gm/conv2d_5/Conv2D/merged_input"], "device": "/device:CPU:0", "attr": {"T": {"type": "DT_FLOAT"}, "dilations": {"list": {"i": ["1", "1", "1", "1"]}}, "use_cudnn_on_gpu": {"b": true}, "strides": {"list": {"i": ["1", "1", "1", "1"]}}, "explicit_paddings": {"list": {}}, "padding": {"s": "U0FNRQ=="}, "data_format": {"s": "TkhXQw=="}}}, {"name": "StatefulPartitionedCall/rn_gm/batch_normalization_5/batchnorm/add_1", "op": "AddV2", "input": ["StatefulPartitionedCall/rn_gm/batch_normalization_5/batchnorm/mul_1", "StatefulPartitionedCall/rn_gm/batch_normalization_5/batchnorm/sub"], "attr": {"T": {"type": "DT_FLOAT"}}}, {"name": "StatefulPartitionedCall/rn_gm/Relu_5", "op": "Relu", "input": ["StatefulPartitionedCall/rn_gm/batch_normalization_5/batchnorm/add_1"], "attr": {"T": {"type": "DT_FLOAT"}}}, {"name": "StatefulPartitionedCall/rn_gm/conv2d_6/Conv2D", "op": "Conv2D", "input": ["StatefulPartitionedCall/rn_gm/Relu_5", "StatefulPartitionedCall/rn_gm/conv2d_6/Conv2D/ReadVariableOp"], "device": "/device:CPU:0", "attr": {"use_cudnn_on_gpu": {"b": true}, "padding": {"s": "U0FNRQ=="}, "explicit_paddings": {"list": {}}, "dilations": {"list": {"i": ["1", "1", "1", "1"]}}, "strides": {"list": {"i": ["1", "1", "1", "1"]}}, "T": {"type": "DT_FLOAT"}, "data_format": {"s": "TkhXQw=="}}}, {"name": "StatefulPartitionedCall/rn_gm/average_pooling2d_2/AvgPool", "op": "AvgPool", "input": ["StatefulPartitionedCall/rn_gm/conv2d_6/Conv2D"], "attr": {"T": {"type": "DT_FLOAT"}, "ksize": {"list": {"i": ["1", "15", "15", "1"]}}, "padding": {"s": "VkFMSUQ="}, "strides": {"list": {"i": ["1", "15", "15", "1"]}}, "data_format": {"s": "TkhXQw=="}}}, {"name": "StatefulPartitionedCall/rn_gm/dense_4/Tensordot/Shape", "op": "Shape", "input": ["StatefulPartitionedCall/rn_gm/average_pooling2d_2/AvgPool"], "attr": {"out_type": {"type": "DT_INT32"}, "T": {"type": "DT_FLOAT"}}}, {"name": "StatefulPartitionedCall/rn_gm/dense_4/Tensordot/GatherV2_1", "op": "GatherV2", "input": ["StatefulPartitionedCall/rn_gm/dense_4/Tensordot/Shape", "StatefulPartitionedCall/rn_gm/dense_4/Tensordot/axes", "StatefulPartitionedCall/rn_gm/dense_4/Tensordot/GatherV2_1/axis"], "attr": {"Tindices": {"type": "DT_INT32"}, "Taxis": {"type": "DT_INT32"}, "batch_dims": {"i": "0"}, "Tparams": {"type": "DT_INT32"}}}, {"name": "StatefulPartitionedCall/rn_gm/dense_4/Tensordot/GatherV2", "op": "GatherV2", "input": ["StatefulPartitionedCall/rn_gm/dense_4/Tensordot/Shape", "StatefulPartitionedCall/rn_gm/dense_4/Tensordot/free", "StatefulPartitionedCall/rn_gm/dense_4/Tensordot/GatherV2/axis"], "attr": {"batch_dims": {"i": "0"}, "Tparams": {"type": "DT_INT32"}, "Taxis": {"type": "DT_INT32"}, "Tindices": {"type": "DT_INT32"}}}, {"name": "StatefulPartitionedCall/rn_gm/dense_4/Tensordot/Prod_1", "op": "Prod", "input": ["StatefulPartitionedCall/rn_gm/dense_4/Tensordot/GatherV2_1", "StatefulPartitionedCall/rn_gm/dense_4/Tensordot/Const_1"], "attr": {"keep_dims": {"b": false}, "Tidx": {"type": "DT_INT32"}, "T": {"type": "DT_INT32"}}}, {"name": "StatefulPartitionedCall/rn_gm/dense_4/Tensordot/Prod", "op": "Prod", "input": ["StatefulPartitionedCall/rn_gm/dense_4/Tensordot/GatherV2", "StatefulPartitionedCall/rn_gm/dense_4/Tensordot/Const"], "attr": {"Tidx": {"type": "DT_INT32"}, "T": {"type": "DT_INT32"}, "keep_dims": {"b": false}}}, {"name": "StatefulPartitionedCall/rn_gm/dense_4/Tensordot/concat_1", "op": "ConcatV2", "input": ["StatefulPartitionedCall/rn_gm/dense_4/Tensordot/GatherV2", "StatefulPartitionedCall/rn_gm/dense_4/Tensordot/Const_2", "StatefulPartitionedCall/rn_gm/dense_4/Tensordot/concat_1/axis"], "attr": {"N": {"i": "2"}, "Tidx": {"type": "DT_INT32"}, "T": {"type": "DT_INT32"}}}, {"name": "StatefulPartitionedCall/rn_gm/dense_4/Tensordot/stack", "op": "Pack", "input": ["StatefulPartitionedCall/rn_gm/dense_4/Tensordot/Prod", "StatefulPartitionedCall/rn_gm/dense_4/Tensordot/Prod_1"], "attr": {"T": {"type": "DT_INT32"}, "axis": {"i": "0"}, "N": {"i": "2"}}}, {"name": "StatefulPartitionedCall/rn_gm/dense_4/Tensordot/Reshape", "op": "Reshape", "input": ["StatefulPartitionedCall/rn_gm/average_pooling2d_2/AvgPool", "StatefulPartitionedCall/rn_gm/dense_4/Tensordot/stack"], "attr": {"T": {"type": "DT_FLOAT"}, "Tshape": {"type": "DT_INT32"}}}, {"name": "StatefulPartitionedCall/rn_gm/dense_4/Tensordot/MatMul", "op": "MatMul", "input": ["StatefulPartitionedCall/rn_gm/dense_4/Tensordot/Reshape", "StatefulPartitionedCall/rn_gm/dense_4/Tensordot/ReadVariableOp"], "device": "/device:CPU:0", "attr": {"transpose_a": {"b": false}, "T": {"type": "DT_FLOAT"}, "transpose_b": {"b": false}}}, {"name": "StatefulPartitionedCall/rn_gm/dense_4/Tensordot", "op": "Reshape", "input": ["StatefulPartitionedCall/rn_gm/dense_4/Tensordot/MatMul", "StatefulPartitionedCall/rn_gm/dense_4/Tensordot/concat_1"], "attr": {"Tshape": {"type": "DT_INT32"}, "T": {"type": "DT_FLOAT"}}}, {"name": "StatefulPartitionedCall/rn_gm/dense_4/BiasAdd", "op": "BiasAdd", "input": ["StatefulPartitionedCall/rn_gm/dense_4/Tensordot", "StatefulPartitionedCall/rn_gm/dense_4/BiasAdd/ReadVariableOp"], "attr": {"data_format": {"s": "TkhXQw=="}, "T": {"type": "DT_FLOAT"}}}, {"name": "StatefulPartitionedCall/rn_gm/dense_4/Relu", "op": "Relu", "input": ["StatefulPartitionedCall/rn_gm/dense_4/BiasAdd"], "attr": {"T": {"type": "DT_FLOAT"}}}, {"name": "StatefulPartitionedCall/rn_gm/dense_5/Tensordot/Shape", "op": "Shape", "input": ["StatefulPartitionedCall/rn_gm/dense_4/Relu"], "attr": {"out_type": {"type": "DT_INT32"}, "T": {"type": "DT_FLOAT"}}}, {"name": "StatefulPartitionedCall/rn_gm/dense_5/Tensordot/GatherV2_1", "op": "GatherV2", "input": ["StatefulPartitionedCall/rn_gm/dense_5/Tensordot/Shape", "StatefulPartitionedCall/rn_gm/dense_5/Tensordot/axes", "StatefulPartitionedCall/rn_gm/dense_5/Tensordot/GatherV2_1/axis"], "attr": {"Taxis": {"type": "DT_INT32"}, "Tparams": {"type": "DT_INT32"}, "batch_dims": {"i": "0"}, "Tindices": {"type": "DT_INT32"}}}, {"name": "StatefulPartitionedCall/rn_gm/dense_5/Tensordot/GatherV2", "op": "GatherV2", "input": ["StatefulPartitionedCall/rn_gm/dense_5/Tensordot/Shape", "StatefulPartitionedCall/rn_gm/dense_5/Tensordot/free", "StatefulPartitionedCall/rn_gm/dense_5/Tensordot/GatherV2/axis"], "attr": {"Tparams": {"type": "DT_INT32"}, "Taxis": {"type": "DT_INT32"}, "batch_dims": {"i": "0"}, "Tindices": {"type": "DT_INT32"}}}, {"name": "StatefulPartitionedCall/rn_gm/dense_5/Tensordot/Prod_1", "op": "Prod", "input": ["StatefulPartitionedCall/rn_gm/dense_5/Tensordot/GatherV2_1", "StatefulPartitionedCall/rn_gm/dense_5/Tensordot/Const_1"], "attr": {"T": {"type": "DT_INT32"}, "Tidx": {"type": "DT_INT32"}, "keep_dims": {"b": false}}}, {"name": "StatefulPartitionedCall/rn_gm/dense_5/Tensordot/Prod", "op": "Prod", "input": ["StatefulPartitionedCall/rn_gm/dense_5/Tensordot/GatherV2", "StatefulPartitionedCall/rn_gm/dense_5/Tensordot/Const"], "attr": {"Tidx": {"type": "DT_INT32"}, "T": {"type": "DT_INT32"}, "keep_dims": {"b": false}}}, {"name": "StatefulPartitionedCall/rn_gm/dense_5/Tensordot/concat_1", "op": "ConcatV2", "input": ["StatefulPartitionedCall/rn_gm/dense_5/Tensordot/GatherV2", "StatefulPartitionedCall/rn_gm/dense_5/Tensordot/Const_2", "StatefulPartitionedCall/rn_gm/dense_5/Tensordot/concat_1/axis"], "attr": {"N": {"i": "2"}, "T": {"type": "DT_INT32"}, "Tidx": {"type": "DT_INT32"}}}, {"name": "StatefulPartitionedCall/rn_gm/dense_5/Tensordot/stack", "op": "Pack", "input": ["StatefulPartitionedCall/rn_gm/dense_5/Tensordot/Prod", "StatefulPartitionedCall/rn_gm/dense_5/Tensordot/Prod_1"], "attr": {"N": {"i": "2"}, "axis": {"i": "0"}, "T": {"type": "DT_INT32"}}}, {"name": "StatefulPartitionedCall/rn_gm/dense_5/Tensordot/Reshape", "op": "Reshape", "input": ["StatefulPartitionedCall/rn_gm/dense_4/Relu", "StatefulPartitionedCall/rn_gm/dense_5/Tensordot/stack"], "attr": {"Tshape": {"type": "DT_INT32"}, "T": {"type": "DT_FLOAT"}}}, {"name": "StatefulPartitionedCall/rn_gm/dense_5/Tensordot/MatMul", "op": "MatMul", "input": ["StatefulPartitionedCall/rn_gm/dense_5/Tensordot/Reshape", "StatefulPartitionedCall/rn_gm/dense_5/Tensordot/ReadVariableOp"], "device": "/device:CPU:0", "attr": {"transpose_a": {"b": false}, "transpose_b": {"b": false}, "T": {"type": "DT_FLOAT"}}}, {"name": "StatefulPartitionedCall/rn_gm/dense_5/Tensordot", "op": "Reshape", "input": ["StatefulPartitionedCall/rn_gm/dense_5/Tensordot/MatMul", "StatefulPartitionedCall/rn_gm/dense_5/Tensordot/concat_1"], "attr": {"T": {"type": "DT_FLOAT"}, "Tshape": {"type": "DT_INT32"}}}, {"name": "StatefulPartitionedCall/rn_gm/dense_5/BiasAdd", "op": "BiasAdd", "input": ["StatefulPartitionedCall/rn_gm/dense_5/Tensordot", "StatefulPartitionedCall/rn_gm/dense_5/BiasAdd/ReadVariableOp"], "attr": {"T": {"type": "DT_FLOAT"}, "data_format": {"s": "TkhXQw=="}}}, {"name": "StatefulPartitionedCall/rn_gm/dense_5/Sigmoid", "op": "Sigmoid", "input": ["StatefulPartitionedCall/rn_gm/dense_5/BiasAdd"], "attr": {"T": {"type": "DT_FLOAT"}}}, {"name": "StatefulPartitionedCall/rn_gm/mul_2", "op": "Mul", "input": ["StatefulPartitionedCall/rn_gm/batch_normalization_6/batchnorm/mul", "StatefulPartitionedCall/rn_gm/dense_5/Sigmoid"], "attr": {"T": {"type": "DT_FLOAT"}}}, {"name": "StatefulPartitionedCall/rn_gm/batch_normalization_6/batchnorm/mul_1", "op": "Mul", "input": ["StatefulPartitionedCall/rn_gm/conv2d_6/Conv2D", "StatefulPartitionedCall/rn_gm/mul_2"], "attr": {"T": {"type": "DT_FLOAT"}}}, {"name": "StatefulPartitionedCall/rn_gm/batch_normalization_6/batchnorm/add_1", "op": "AddV2", "input": ["StatefulPartitionedCall/rn_gm/batch_normalization_6/batchnorm/mul_1", "StatefulPartitionedCall/rn_gm/batch_normalization_6/batchnorm/sub"], "attr": {"T": {"type": "DT_FLOAT"}}}, {"name": "StatefulPartitionedCall/rn_gm/add_2", "op": "AddV2", "input": ["StatefulPartitionedCall/rn_gm/Relu_4", "StatefulPartitionedCall/rn_gm/batch_normalization_6/batchnorm/add_1"], "attr": {"T": {"type": "DT_FLOAT"}}}, {"name": "StatefulPartitionedCall/rn_gm/Relu_6", "op": "Relu", "input": ["StatefulPartitionedCall/rn_gm/add_2"], "attr": {"T": {"type": "DT_FLOAT"}}}, {"name": "StatefulPartitionedCall/rn_gm/batch_normalization_7/batchnorm/mul_1", "op": "Conv2D", "input": ["StatefulPartitionedCall/rn_gm/Relu_6", "StatefulPartitionedCall/rn_gm/conv2d_7/Conv2D/merged_input"], "device": "/device:CPU:0", "attr": {"data_format": {"s": "TkhXQw=="}, "use_cudnn_on_gpu": {"b": true}, "T": {"type": "DT_FLOAT"}, "padding": {"s": "U0FNRQ=="}, "explicit_paddings": {"list": {}}, "dilations": {"list": {"i": ["1", "1", "1", "1"]}}, "strides": {"list": {"i": ["1", "1", "1", "1"]}}}}, {"name": "StatefulPartitionedCall/rn_gm/batch_normalization_7/batchnorm/add_1", "op": "AddV2", "input": ["StatefulPartitionedCall/rn_gm/batch_normalization_7/batchnorm/mul_1", "StatefulPartitionedCall/rn_gm/batch_normalization_7/batchnorm/sub"], "attr": {"T": {"type": "DT_FLOAT"}}}, {"name": "StatefulPartitionedCall/rn_gm/Relu_7", "op": "Relu", "input": ["StatefulPartitionedCall/rn_gm/batch_normalization_7/batchnorm/add_1"], "attr": {"T": {"type": "DT_FLOAT"}}}, {"name": "StatefulPartitionedCall/rn_gm/conv2d_8/Conv2D", "op": "Conv2D", "input": ["StatefulPartitionedCall/rn_gm/Relu_7", "StatefulPartitionedCall/rn_gm/conv2d_8/Conv2D/ReadVariableOp"], "device": "/device:CPU:0", "attr": {"dilations": {"list": {"i": ["1", "1", "1", "1"]}}, "T": {"type": "DT_FLOAT"}, "data_format": {"s": "TkhXQw=="}, "padding": {"s": "U0FNRQ=="}, "strides": {"list": {"i": ["1", "1", "1", "1"]}}, "use_cudnn_on_gpu": {"b": true}, "explicit_paddings": {"list": {}}}}, {"name": "StatefulPartitionedCall/rn_gm/average_pooling2d_3/AvgPool", "op": "AvgPool", "input": ["StatefulPartitionedCall/rn_gm/conv2d_8/Conv2D"], "attr": {"strides": {"list": {"i": ["1", "15", "15", "1"]}}, "ksize": {"list": {"i": ["1", "15", "15", "1"]}}, "T": {"type": "DT_FLOAT"}, "data_format": {"s": "TkhXQw=="}, "padding": {"s": "VkFMSUQ="}}}, {"name": "StatefulPartitionedCall/rn_gm/dense_6/Tensordot/Shape", "op": "Shape", "input": ["StatefulPartitionedCall/rn_gm/average_pooling2d_3/AvgPool"], "attr": {"T": {"type": "DT_FLOAT"}, "out_type": {"type": "DT_INT32"}}}, {"name": "StatefulPartitionedCall/rn_gm/dense_6/Tensordot/GatherV2_1", "op": "GatherV2", "input": ["StatefulPartitionedCall/rn_gm/dense_6/Tensordot/Shape", "StatefulPartitionedCall/rn_gm/dense_6/Tensordot/axes", "StatefulPartitionedCall/rn_gm/dense_6/Tensordot/GatherV2_1/axis"], "attr": {"Tparams": {"type": "DT_INT32"}, "Tindices": {"type": "DT_INT32"}, "batch_dims": {"i": "0"}, "Taxis": {"type": "DT_INT32"}}}, {"name": "StatefulPartitionedCall/rn_gm/dense_6/Tensordot/GatherV2", "op": "GatherV2", "input": ["StatefulPartitionedCall/rn_gm/dense_6/Tensordot/Shape", "StatefulPartitionedCall/rn_gm/dense_6/Tensordot/free", "StatefulPartitionedCall/rn_gm/dense_6/Tensordot/GatherV2/axis"], "attr": {"Tindices": {"type": "DT_INT32"}, "Taxis": {"type": "DT_INT32"}, "batch_dims": {"i": "0"}, "Tparams": {"type": "DT_INT32"}}}, {"name": "StatefulPartitionedCall/rn_gm/dense_6/Tensordot/Prod_1", "op": "Prod", "input": ["StatefulPartitionedCall/rn_gm/dense_6/Tensordot/GatherV2_1", "StatefulPartitionedCall/rn_gm/dense_6/Tensordot/Const_1"], "attr": {"T": {"type": "DT_INT32"}, "keep_dims": {"b": false}, "Tidx": {"type": "DT_INT32"}}}, {"name": "StatefulPartitionedCall/rn_gm/dense_6/Tensordot/Prod", "op": "Prod", "input": ["StatefulPartitionedCall/rn_gm/dense_6/Tensordot/GatherV2", "StatefulPartitionedCall/rn_gm/dense_6/Tensordot/Const"], "attr": {"keep_dims": {"b": false}, "Tidx": {"type": "DT_INT32"}, "T": {"type": "DT_INT32"}}}, {"name": "StatefulPartitionedCall/rn_gm/dense_6/Tensordot/concat_1", "op": "ConcatV2", "input": ["StatefulPartitionedCall/rn_gm/dense_6/Tensordot/GatherV2", "StatefulPartitionedCall/rn_gm/dense_6/Tensordot/Const_2", "StatefulPartitionedCall/rn_gm/dense_6/Tensordot/concat_1/axis"], "attr": {"N": {"i": "2"}, "Tidx": {"type": "DT_INT32"}, "T": {"type": "DT_INT32"}}}, {"name": "StatefulPartitionedCall/rn_gm/dense_6/Tensordot/stack", "op": "Pack", "input": ["StatefulPartitionedCall/rn_gm/dense_6/Tensordot/Prod", "StatefulPartitionedCall/rn_gm/dense_6/Tensordot/Prod_1"], "attr": {"N": {"i": "2"}, "T": {"type": "DT_INT32"}, "axis": {"i": "0"}}}, {"name": "StatefulPartitionedCall/rn_gm/dense_6/Tensordot/Reshape", "op": "Reshape", "input": ["StatefulPartitionedCall/rn_gm/average_pooling2d_3/AvgPool", "StatefulPartitionedCall/rn_gm/dense_6/Tensordot/stack"], "attr": {"T": {"type": "DT_FLOAT"}, "Tshape": {"type": "DT_INT32"}}}, {"name": "StatefulPartitionedCall/rn_gm/dense_6/Tensordot/MatMul", "op": "MatMul", "input": ["StatefulPartitionedCall/rn_gm/dense_6/Tensordot/Reshape", "StatefulPartitionedCall/rn_gm/dense_6/Tensordot/ReadVariableOp"], "device": "/device:CPU:0", "attr": {"T": {"type": "DT_FLOAT"}, "transpose_b": {"b": false}, "transpose_a": {"b": false}}}, {"name": "StatefulPartitionedCall/rn_gm/dense_6/Tensordot", "op": "Reshape", "input": ["StatefulPartitionedCall/rn_gm/dense_6/Tensordot/MatMul", "StatefulPartitionedCall/rn_gm/dense_6/Tensordot/concat_1"], "attr": {"T": {"type": "DT_FLOAT"}, "Tshape": {"type": "DT_INT32"}}}, {"name": "StatefulPartitionedCall/rn_gm/dense_6/BiasAdd", "op": "BiasAdd", "input": ["StatefulPartitionedCall/rn_gm/dense_6/Tensordot", "StatefulPartitionedCall/rn_gm/dense_6/BiasAdd/ReadVariableOp"], "attr": {"T": {"type": "DT_FLOAT"}, "data_format": {"s": "TkhXQw=="}}}, {"name": "StatefulPartitionedCall/rn_gm/dense_6/Relu", "op": "Relu", "input": ["StatefulPartitionedCall/rn_gm/dense_6/BiasAdd"], "attr": {"T": {"type": "DT_FLOAT"}}}, {"name": "StatefulPartitionedCall/rn_gm/dense_7/Tensordot/Shape", "op": "Shape", "input": ["StatefulPartitionedCall/rn_gm/dense_6/Relu"], "attr": {"out_type": {"type": "DT_INT32"}, "T": {"type": "DT_FLOAT"}}}, {"name": "StatefulPartitionedCall/rn_gm/dense_7/Tensordot/GatherV2_1", "op": "GatherV2", "input": ["StatefulPartitionedCall/rn_gm/dense_7/Tensordot/Shape", "StatefulPartitionedCall/rn_gm/dense_7/Tensordot/axes", "StatefulPartitionedCall/rn_gm/dense_7/Tensordot/GatherV2_1/axis"], "attr": {"batch_dims": {"i": "0"}, "Taxis": {"type": "DT_INT32"}, "Tindices": {"type": "DT_INT32"}, "Tparams": {"type": "DT_INT32"}}}, {"name": "StatefulPartitionedCall/rn_gm/dense_7/Tensordot/GatherV2", "op": "GatherV2", "input": ["StatefulPartitionedCall/rn_gm/dense_7/Tensordot/Shape", "StatefulPartitionedCall/rn_gm/dense_7/Tensordot/free", "StatefulPartitionedCall/rn_gm/dense_7/Tensordot/GatherV2/axis"], "attr": {"Tindices": {"type": "DT_INT32"}, "Tparams": {"type": "DT_INT32"}, "batch_dims": {"i": "0"}, "Taxis": {"type": "DT_INT32"}}}, {"name": "StatefulPartitionedCall/rn_gm/dense_7/Tensordot/Prod_1", "op": "Prod", "input": ["StatefulPartitionedCall/rn_gm/dense_7/Tensordot/GatherV2_1", "StatefulPartitionedCall/rn_gm/dense_7/Tensordot/Const_1"], "attr": {"T": {"type": "DT_INT32"}, "keep_dims": {"b": false}, "Tidx": {"type": "DT_INT32"}}}, {"name": "StatefulPartitionedCall/rn_gm/dense_7/Tensordot/Prod", "op": "Prod", "input": ["StatefulPartitionedCall/rn_gm/dense_7/Tensordot/GatherV2", "StatefulPartitionedCall/rn_gm/dense_7/Tensordot/Const"], "attr": {"Tidx": {"type": "DT_INT32"}, "T": {"type": "DT_INT32"}, "keep_dims": {"b": false}}}, {"name": "StatefulPartitionedCall/rn_gm/dense_7/Tensordot/concat_1", "op": "ConcatV2", "input": ["StatefulPartitionedCall/rn_gm/dense_7/Tensordot/GatherV2", "StatefulPartitionedCall/rn_gm/dense_7/Tensordot/Const_2", "StatefulPartitionedCall/rn_gm/dense_7/Tensordot/concat_1/axis"], "attr": {"Tidx": {"type": "DT_INT32"}, "N": {"i": "2"}, "T": {"type": "DT_INT32"}}}, {"name": "StatefulPartitionedCall/rn_gm/dense_7/Tensordot/stack", "op": "Pack", "input": ["StatefulPartitionedCall/rn_gm/dense_7/Tensordot/Prod", "StatefulPartitionedCall/rn_gm/dense_7/Tensordot/Prod_1"], "attr": {"axis": {"i": "0"}, "T": {"type": "DT_INT32"}, "N": {"i": "2"}}}, {"name": "StatefulPartitionedCall/rn_gm/dense_7/Tensordot/Reshape", "op": "Reshape", "input": ["StatefulPartitionedCall/rn_gm/dense_6/Relu", "StatefulPartitionedCall/rn_gm/dense_7/Tensordot/stack"], "attr": {"T": {"type": "DT_FLOAT"}, "Tshape": {"type": "DT_INT32"}}}, {"name": "StatefulPartitionedCall/rn_gm/dense_7/Tensordot/MatMul", "op": "MatMul", "input": ["StatefulPartitionedCall/rn_gm/dense_7/Tensordot/Reshape", "StatefulPartitionedCall/rn_gm/dense_7/Tensordot/ReadVariableOp"], "device": "/device:CPU:0", "attr": {"transpose_b": {"b": false}, "transpose_a": {"b": false}, "T": {"type": "DT_FLOAT"}}}, {"name": "StatefulPartitionedCall/rn_gm/dense_7/Tensordot", "op": "Reshape", "input": ["StatefulPartitionedCall/rn_gm/dense_7/Tensordot/MatMul", "StatefulPartitionedCall/rn_gm/dense_7/Tensordot/concat_1"], "attr": {"T": {"type": "DT_FLOAT"}, "Tshape": {"type": "DT_INT32"}}}, {"name": "StatefulPartitionedCall/rn_gm/dense_7/BiasAdd", "op": "BiasAdd", "input": ["StatefulPartitionedCall/rn_gm/dense_7/Tensordot", "StatefulPartitionedCall/rn_gm/dense_7/BiasAdd/ReadVariableOp"], "attr": {"T": {"type": "DT_FLOAT"}, "data_format": {"s": "TkhXQw=="}}}, {"name": "StatefulPartitionedCall/rn_gm/dense_7/Sigmoid", "op": "Sigmoid", "input": ["StatefulPartitionedCall/rn_gm/dense_7/BiasAdd"], "attr": {"T": {"type": "DT_FLOAT"}}}, {"name": "StatefulPartitionedCall/rn_gm/mul_3", "op": "Mul", "input": ["StatefulPartitionedCall/rn_gm/batch_normalization_8/batchnorm/mul", "StatefulPartitionedCall/rn_gm/dense_7/Sigmoid"], "attr": {"T": {"type": "DT_FLOAT"}}}, {"name": "StatefulPartitionedCall/rn_gm/batch_normalization_8/batchnorm/mul_1", "op": "Mul", "input": ["StatefulPartitionedCall/rn_gm/conv2d_8/Conv2D", "StatefulPartitionedCall/rn_gm/mul_3"], "attr": {"T": {"type": "DT_FLOAT"}}}, {"name": "StatefulPartitionedCall/rn_gm/batch_normalization_8/batchnorm/add_1", "op": "AddV2", "input": ["StatefulPartitionedCall/rn_gm/batch_normalization_8/batchnorm/mul_1", "StatefulPartitionedCall/rn_gm/batch_normalization_8/batchnorm/sub"], "attr": {"T": {"type": "DT_FLOAT"}}}, {"name": "StatefulPartitionedCall/rn_gm/add_3", "op": "AddV2", "input": ["StatefulPartitionedCall/rn_gm/Relu_6", "StatefulPartitionedCall/rn_gm/batch_normalization_8/batchnorm/add_1"], "attr": {"T": {"type": "DT_FLOAT"}}}, {"name": "StatefulPartitionedCall/rn_gm/Relu_8", "op": "Relu", "input": ["StatefulPartitionedCall/rn_gm/add_3"], "attr": {"T": {"type": "DT_FLOAT"}}}, {"name": "StatefulPartitionedCall/rn_gm/batch_normalization_9/batchnorm/mul_1", "op": "Conv2D", "input": ["StatefulPartitionedCall/rn_gm/Relu_8", "StatefulPartitionedCall/rn_gm/conv2d_9/Conv2D/merged_input"], "device": "/device:CPU:0", "attr": {"use_cudnn_on_gpu": {"b": true}, "data_format": {"s": "TkhXQw=="}, "padding": {"s": "U0FNRQ=="}, "explicit_paddings": {"list": {}}, "T": {"type": "DT_FLOAT"}, "dilations": {"list": {"i": ["1", "1", "1", "1"]}}, "strides": {"list": {"i": ["1", "1", "1", "1"]}}}}, {"name": "StatefulPartitionedCall/rn_gm/batch_normalization_9/batchnorm/add_1", "op": "AddV2", "input": ["StatefulPartitionedCall/rn_gm/batch_normalization_9/batchnorm/mul_1", "StatefulPartitionedCall/rn_gm/batch_normalization_9/batchnorm/sub"], "attr": {"T": {"type": "DT_FLOAT"}}}, {"name": "StatefulPartitionedCall/rn_gm/Relu_9", "op": "Relu", "input": ["StatefulPartitionedCall/rn_gm/batch_normalization_9/batchnorm/add_1"], "attr": {"T": {"type": "DT_FLOAT"}}}, {"name": "StatefulPartitionedCall/rn_gm/conv2d_10/Conv2D", "op": "Conv2D", "input": ["StatefulPartitionedCall/rn_gm/Relu_9", "StatefulPartitionedCall/rn_gm/conv2d_10/Conv2D/ReadVariableOp"], "device": "/device:CPU:0", "attr": {"use_cudnn_on_gpu": {"b": true}, "dilations": {"list": {"i": ["1", "1", "1", "1"]}}, "data_format": {"s": "TkhXQw=="}, "explicit_paddings": {"list": {}}, "T": {"type": "DT_FLOAT"}, "strides": {"list": {"i": ["1", "1", "1", "1"]}}, "padding": {"s": "U0FNRQ=="}}}, {"name": "StatefulPartitionedCall/rn_gm/average_pooling2d_4/AvgPool", "op": "AvgPool", "input": ["StatefulPartitionedCall/rn_gm/conv2d_10/Conv2D"], "attr": {"T": {"type": "DT_FLOAT"}, "ksize": {"list": {"i": ["1", "15", "15", "1"]}}, "strides": {"list": {"i": ["1", "15", "15", "1"]}}, "data_format": {"s": "TkhXQw=="}, "padding": {"s": "VkFMSUQ="}}}, {"name": "StatefulPartitionedCall/rn_gm/dense_8/Tensordot/Shape", "op": "Shape", "input": ["StatefulPartitionedCall/rn_gm/average_pooling2d_4/AvgPool"], "attr": {"T": {"type": "DT_FLOAT"}, "out_type": {"type": "DT_INT32"}}}, {"name": "StatefulPartitionedCall/rn_gm/dense_8/Tensordot/GatherV2_1", "op": "GatherV2", "input": ["StatefulPartitionedCall/rn_gm/dense_8/Tensordot/Shape", "StatefulPartitionedCall/rn_gm/dense_8/Tensordot/axes", "StatefulPartitionedCall/rn_gm/dense_8/Tensordot/GatherV2_1/axis"], "attr": {"batch_dims": {"i": "0"}, "Tindices": {"type": "DT_INT32"}, "Tparams": {"type": "DT_INT32"}, "Taxis": {"type": "DT_INT32"}}}, {"name": "StatefulPartitionedCall/rn_gm/dense_8/Tensordot/GatherV2", "op": "GatherV2", "input": ["StatefulPartitionedCall/rn_gm/dense_8/Tensordot/Shape", "StatefulPartitionedCall/rn_gm/dense_8/Tensordot/free", "StatefulPartitionedCall/rn_gm/dense_8/Tensordot/GatherV2/axis"], "attr": {"Tindices": {"type": "DT_INT32"}, "Tparams": {"type": "DT_INT32"}, "Taxis": {"type": "DT_INT32"}, "batch_dims": {"i": "0"}}}, {"name": "StatefulPartitionedCall/rn_gm/dense_8/Tensordot/Prod_1", "op": "Prod", "input": ["StatefulPartitionedCall/rn_gm/dense_8/Tensordot/GatherV2_1", "StatefulPartitionedCall/rn_gm/dense_8/Tensordot/Const_1"], "attr": {"T": {"type": "DT_INT32"}, "Tidx": {"type": "DT_INT32"}, "keep_dims": {"b": false}}}, {"name": "StatefulPartitionedCall/rn_gm/dense_8/Tensordot/Prod", "op": "Prod", "input": ["StatefulPartitionedCall/rn_gm/dense_8/Tensordot/GatherV2", "StatefulPartitionedCall/rn_gm/dense_8/Tensordot/Const"], "attr": {"keep_dims": {"b": false}, "Tidx": {"type": "DT_INT32"}, "T": {"type": "DT_INT32"}}}, {"name": "StatefulPartitionedCall/rn_gm/dense_8/Tensordot/concat_1", "op": "ConcatV2", "input": ["StatefulPartitionedCall/rn_gm/dense_8/Tensordot/GatherV2", "StatefulPartitionedCall/rn_gm/dense_8/Tensordot/Const_2", "StatefulPartitionedCall/rn_gm/dense_8/Tensordot/concat_1/axis"], "attr": {"Tidx": {"type": "DT_INT32"}, "N": {"i": "2"}, "T": {"type": "DT_INT32"}}}, {"name": "StatefulPartitionedCall/rn_gm/dense_8/Tensordot/stack", "op": "Pack", "input": ["StatefulPartitionedCall/rn_gm/dense_8/Tensordot/Prod", "StatefulPartitionedCall/rn_gm/dense_8/Tensordot/Prod_1"], "attr": {"T": {"type": "DT_INT32"}, "axis": {"i": "0"}, "N": {"i": "2"}}}, {"name": "StatefulPartitionedCall/rn_gm/dense_8/Tensordot/Reshape", "op": "Reshape", "input": ["StatefulPartitionedCall/rn_gm/average_pooling2d_4/AvgPool", "StatefulPartitionedCall/rn_gm/dense_8/Tensordot/stack"], "attr": {"T": {"type": "DT_FLOAT"}, "Tshape": {"type": "DT_INT32"}}}, {"name": "StatefulPartitionedCall/rn_gm/dense_8/Tensordot/MatMul", "op": "MatMul", "input": ["StatefulPartitionedCall/rn_gm/dense_8/Tensordot/Reshape", "StatefulPartitionedCall/rn_gm/dense_8/Tensordot/ReadVariableOp"], "device": "/device:CPU:0", "attr": {"T": {"type": "DT_FLOAT"}, "transpose_a": {"b": false}, "transpose_b": {"b": false}}}, {"name": "StatefulPartitionedCall/rn_gm/dense_8/Tensordot", "op": "Reshape", "input": ["StatefulPartitionedCall/rn_gm/dense_8/Tensordot/MatMul", "StatefulPartitionedCall/rn_gm/dense_8/Tensordot/concat_1"], "attr": {"Tshape": {"type": "DT_INT32"}, "T": {"type": "DT_FLOAT"}}}, {"name": "StatefulPartitionedCall/rn_gm/dense_8/BiasAdd", "op": "BiasAdd", "input": ["StatefulPartitionedCall/rn_gm/dense_8/Tensordot", "StatefulPartitionedCall/rn_gm/dense_8/BiasAdd/ReadVariableOp"], "attr": {"data_format": {"s": "TkhXQw=="}, "T": {"type": "DT_FLOAT"}}}, {"name": "StatefulPartitionedCall/rn_gm/dense_8/Relu", "op": "Relu", "input": ["StatefulPartitionedCall/rn_gm/dense_8/BiasAdd"], "attr": {"T": {"type": "DT_FLOAT"}}}, {"name": "StatefulPartitionedCall/rn_gm/dense_9/Tensordot/Shape", "op": "Shape", "input": ["StatefulPartitionedCall/rn_gm/dense_8/Relu"], "attr": {"T": {"type": "DT_FLOAT"}, "out_type": {"type": "DT_INT32"}}}, {"name": "StatefulPartitionedCall/rn_gm/dense_9/Tensordot/GatherV2_1", "op": "GatherV2", "input": ["StatefulPartitionedCall/rn_gm/dense_9/Tensordot/Shape", "StatefulPartitionedCall/rn_gm/dense_9/Tensordot/axes", "StatefulPartitionedCall/rn_gm/dense_9/Tensordot/GatherV2_1/axis"], "attr": {"Taxis": {"type": "DT_INT32"}, "Tindices": {"type": "DT_INT32"}, "Tparams": {"type": "DT_INT32"}, "batch_dims": {"i": "0"}}}, {"name": "StatefulPartitionedCall/rn_gm/dense_9/Tensordot/GatherV2", "op": "GatherV2", "input": ["StatefulPartitionedCall/rn_gm/dense_9/Tensordot/Shape", "StatefulPartitionedCall/rn_gm/dense_9/Tensordot/free", "StatefulPartitionedCall/rn_gm/dense_9/Tensordot/GatherV2/axis"], "attr": {"Taxis": {"type": "DT_INT32"}, "Tindices": {"type": "DT_INT32"}, "batch_dims": {"i": "0"}, "Tparams": {"type": "DT_INT32"}}}, {"name": "StatefulPartitionedCall/rn_gm/dense_9/Tensordot/Prod_1", "op": "Prod", "input": ["StatefulPartitionedCall/rn_gm/dense_9/Tensordot/GatherV2_1", "StatefulPartitionedCall/rn_gm/dense_9/Tensordot/Const_1"], "attr": {"T": {"type": "DT_INT32"}, "Tidx": {"type": "DT_INT32"}, "keep_dims": {"b": false}}}, {"name": "StatefulPartitionedCall/rn_gm/dense_9/Tensordot/Prod", "op": "Prod", "input": ["StatefulPartitionedCall/rn_gm/dense_9/Tensordot/GatherV2", "StatefulPartitionedCall/rn_gm/dense_9/Tensordot/Const"], "attr": {"Tidx": {"type": "DT_INT32"}, "keep_dims": {"b": false}, "T": {"type": "DT_INT32"}}}, {"name": "StatefulPartitionedCall/rn_gm/dense_9/Tensordot/concat_1", "op": "ConcatV2", "input": ["StatefulPartitionedCall/rn_gm/dense_9/Tensordot/GatherV2", "StatefulPartitionedCall/rn_gm/dense_9/Tensordot/Const_2", "StatefulPartitionedCall/rn_gm/dense_9/Tensordot/concat_1/axis"], "attr": {"N": {"i": "2"}, "Tidx": {"type": "DT_INT32"}, "T": {"type": "DT_INT32"}}}, {"name": "StatefulPartitionedCall/rn_gm/dense_9/Tensordot/stack", "op": "Pack", "input": ["StatefulPartitionedCall/rn_gm/dense_9/Tensordot/Prod", "StatefulPartitionedCall/rn_gm/dense_9/Tensordot/Prod_1"], "attr": {"axis": {"i": "0"}, "T": {"type": "DT_INT32"}, "N": {"i": "2"}}}, {"name": "StatefulPartitionedCall/rn_gm/dense_9/Tensordot/Reshape", "op": "Reshape", "input": ["StatefulPartitionedCall/rn_gm/dense_8/Relu", "StatefulPartitionedCall/rn_gm/dense_9/Tensordot/stack"], "attr": {"Tshape": {"type": "DT_INT32"}, "T": {"type": "DT_FLOAT"}}}, {"name": "StatefulPartitionedCall/rn_gm/dense_9/Tensordot/MatMul", "op": "MatMul", "input": ["StatefulPartitionedCall/rn_gm/dense_9/Tensordot/Reshape", "StatefulPartitionedCall/rn_gm/dense_9/Tensordot/ReadVariableOp"], "device": "/device:CPU:0", "attr": {"transpose_a": {"b": false}, "transpose_b": {"b": false}, "T": {"type": "DT_FLOAT"}}}, {"name": "StatefulPartitionedCall/rn_gm/dense_9/Tensordot", "op": "Reshape", "input": ["StatefulPartitionedCall/rn_gm/dense_9/Tensordot/MatMul", "StatefulPartitionedCall/rn_gm/dense_9/Tensordot/concat_1"], "attr": {"T": {"type": "DT_FLOAT"}, "Tshape": {"type": "DT_INT32"}}}, {"name": "StatefulPartitionedCall/rn_gm/dense_9/BiasAdd", "op": "BiasAdd", "input": ["StatefulPartitionedCall/rn_gm/dense_9/Tensordot", "StatefulPartitionedCall/rn_gm/dense_9/BiasAdd/ReadVariableOp"], "attr": {"data_format": {"s": "TkhXQw=="}, "T": {"type": "DT_FLOAT"}}}, {"name": "StatefulPartitionedCall/rn_gm/dense_9/Sigmoid", "op": "Sigmoid", "input": ["StatefulPartitionedCall/rn_gm/dense_9/BiasAdd"], "attr": {"T": {"type": "DT_FLOAT"}}}, {"name": "StatefulPartitionedCall/rn_gm/mul_4", "op": "Mul", "input": ["StatefulPartitionedCall/rn_gm/batch_normalization_10/batchnorm/mul", "StatefulPartitionedCall/rn_gm/dense_9/Sigmoid"], "attr": {"T": {"type": "DT_FLOAT"}}}, {"name": "StatefulPartitionedCall/rn_gm/batch_normalization_10/batchnorm/mul_1", "op": "Mul", "input": ["StatefulPartitionedCall/rn_gm/conv2d_10/Conv2D", "StatefulPartitionedCall/rn_gm/mul_4"], "attr": {"T": {"type": "DT_FLOAT"}}}, {"name": "StatefulPartitionedCall/rn_gm/batch_normalization_10/batchnorm/add_1", "op": "AddV2", "input": ["StatefulPartitionedCall/rn_gm/batch_normalization_10/batchnorm/mul_1", "StatefulPartitionedCall/rn_gm/batch_normalization_10/batchnorm/sub"], "attr": {"T": {"type": "DT_FLOAT"}}}, {"name": "StatefulPartitionedCall/rn_gm/add_4", "op": "AddV2", "input": ["StatefulPartitionedCall/rn_gm/Relu_8", "StatefulPartitionedCall/rn_gm/batch_normalization_10/batchnorm/add_1"], "attr": {"T": {"type": "DT_FLOAT"}}}, {"name": "StatefulPartitionedCall/rn_gm/Relu_10", "op": "Relu", "input": ["StatefulPartitionedCall/rn_gm/add_4"], "attr": {"T": {"type": "DT_FLOAT"}}}, {"name": "StatefulPartitionedCall/rn_gm/batch_normalization_11/batchnorm/mul_1", "op": "Conv2D", "input": ["StatefulPartitionedCall/rn_gm/Relu_10", "StatefulPartitionedCall/rn_gm/conv2d_11/Conv2D/merged_input"], "device": "/device:CPU:0", "attr": {"use_cudnn_on_gpu": {"b": true}, "strides": {"list": {"i": ["1", "1", "1", "1"]}}, "padding": {"s": "U0FNRQ=="}, "T": {"type": "DT_FLOAT"}, "dilations": {"list": {"i": ["1", "1", "1", "1"]}}, "data_format": {"s": "TkhXQw=="}, "explicit_paddings": {"list": {}}}}, {"name": "StatefulPartitionedCall/rn_gm/batch_normalization_11/batchnorm/add_1", "op": "AddV2", "input": ["StatefulPartitionedCall/rn_gm/batch_normalization_11/batchnorm/mul_1", "StatefulPartitionedCall/rn_gm/batch_normalization_11/batchnorm/sub"], "attr": {"T": {"type": "DT_FLOAT"}}}, {"name": "StatefulPartitionedCall/rn_gm/Relu_11", "op": "Relu", "input": ["StatefulPartitionedCall/rn_gm/batch_normalization_11/batchnorm/add_1"], "attr": {"T": {"type": "DT_FLOAT"}}}, {"name": "StatefulPartitionedCall/rn_gm/conv2d_12/Conv2D", "op": "Conv2D", "input": ["StatefulPartitionedCall/rn_gm/Relu_11", "StatefulPartitionedCall/rn_gm/conv2d_12/Conv2D/ReadVariableOp"], "device": "/device:CPU:0", "attr": {"strides": {"list": {"i": ["1", "1", "1", "1"]}}, "T": {"type": "DT_FLOAT"}, "data_format": {"s": "TkhXQw=="}, "explicit_paddings": {"list": {}}, "padding": {"s": "U0FNRQ=="}, "dilations": {"list": {"i": ["1", "1", "1", "1"]}}, "use_cudnn_on_gpu": {"b": true}}}, {"name": "StatefulPartitionedCall/rn_gm/average_pooling2d_5/AvgPool", "op": "AvgPool", "input": ["StatefulPartitionedCall/rn_gm/conv2d_12/Conv2D"], "attr": {"strides": {"list": {"i": ["1", "15", "15", "1"]}}, "padding": {"s": "VkFMSUQ="}, "ksize": {"list": {"i": ["1", "15", "15", "1"]}}, "data_format": {"s": "TkhXQw=="}, "T": {"type": "DT_FLOAT"}}}, {"name": "StatefulPartitionedCall/rn_gm/dense_10/Tensordot/Shape", "op": "Shape", "input": ["StatefulPartitionedCall/rn_gm/average_pooling2d_5/AvgPool"], "attr": {"T": {"type": "DT_FLOAT"}, "out_type": {"type": "DT_INT32"}}}, {"name": "StatefulPartitionedCall/rn_gm/dense_10/Tensordot/GatherV2_1", "op": "GatherV2", "input": ["StatefulPartitionedCall/rn_gm/dense_10/Tensordot/Shape", "StatefulPartitionedCall/rn_gm/dense_10/Tensordot/axes", "StatefulPartitionedCall/rn_gm/dense_10/Tensordot/GatherV2_1/axis"], "attr": {"Tindices": {"type": "DT_INT32"}, "batch_dims": {"i": "0"}, "Tparams": {"type": "DT_INT32"}, "Taxis": {"type": "DT_INT32"}}}, {"name": "StatefulPartitionedCall/rn_gm/dense_10/Tensordot/GatherV2", "op": "GatherV2", "input": ["StatefulPartitionedCall/rn_gm/dense_10/Tensordot/Shape", "StatefulPartitionedCall/rn_gm/dense_10/Tensordot/free", "StatefulPartitionedCall/rn_gm/dense_10/Tensordot/GatherV2/axis"], "attr": {"Tparams": {"type": "DT_INT32"}, "Taxis": {"type": "DT_INT32"}, "Tindices": {"type": "DT_INT32"}, "batch_dims": {"i": "0"}}}, {"name": "StatefulPartitionedCall/rn_gm/dense_10/Tensordot/Prod_1", "op": "Prod", "input": ["StatefulPartitionedCall/rn_gm/dense_10/Tensordot/GatherV2_1", "StatefulPartitionedCall/rn_gm/dense_10/Tensordot/Const_1"], "attr": {"keep_dims": {"b": false}, "Tidx": {"type": "DT_INT32"}, "T": {"type": "DT_INT32"}}}, {"name": "StatefulPartitionedCall/rn_gm/dense_10/Tensordot/Prod", "op": "Prod", "input": ["StatefulPartitionedCall/rn_gm/dense_10/Tensordot/GatherV2", "StatefulPartitionedCall/rn_gm/dense_10/Tensordot/Const"], "attr": {"keep_dims": {"b": false}, "Tidx": {"type": "DT_INT32"}, "T": {"type": "DT_INT32"}}}, {"name": "StatefulPartitionedCall/rn_gm/dense_10/Tensordot/concat_1", "op": "ConcatV2", "input": ["StatefulPartitionedCall/rn_gm/dense_10/Tensordot/GatherV2", "StatefulPartitionedCall/rn_gm/dense_10/Tensordot/Const_2", "StatefulPartitionedCall/rn_gm/dense_10/Tensordot/concat_1/axis"], "attr": {"T": {"type": "DT_INT32"}, "N": {"i": "2"}, "Tidx": {"type": "DT_INT32"}}}, {"name": "StatefulPartitionedCall/rn_gm/dense_10/Tensordot/stack", "op": "Pack", "input": ["StatefulPartitionedCall/rn_gm/dense_10/Tensordot/Prod", "StatefulPartitionedCall/rn_gm/dense_10/Tensordot/Prod_1"], "attr": {"T": {"type": "DT_INT32"}, "N": {"i": "2"}, "axis": {"i": "0"}}}, {"name": "StatefulPartitionedCall/rn_gm/dense_10/Tensordot/Reshape", "op": "Reshape", "input": ["StatefulPartitionedCall/rn_gm/average_pooling2d_5/AvgPool", "StatefulPartitionedCall/rn_gm/dense_10/Tensordot/stack"], "attr": {"T": {"type": "DT_FLOAT"}, "Tshape": {"type": "DT_INT32"}}}, {"name": "StatefulPartitionedCall/rn_gm/dense_10/Tensordot/MatMul", "op": "MatMul", "input": ["StatefulPartitionedCall/rn_gm/dense_10/Tensordot/Reshape", "StatefulPartitionedCall/rn_gm/dense_10/Tensordot/ReadVariableOp"], "device": "/device:CPU:0", "attr": {"transpose_b": {"b": false}, "T": {"type": "DT_FLOAT"}, "transpose_a": {"b": false}}}, {"name": "StatefulPartitionedCall/rn_gm/dense_10/Tensordot", "op": "Reshape", "input": ["StatefulPartitionedCall/rn_gm/dense_10/Tensordot/MatMul", "StatefulPartitionedCall/rn_gm/dense_10/Tensordot/concat_1"], "attr": {"T": {"type": "DT_FLOAT"}, "Tshape": {"type": "DT_INT32"}}}, {"name": "StatefulPartitionedCall/rn_gm/dense_10/BiasAdd", "op": "BiasAdd", "input": ["StatefulPartitionedCall/rn_gm/dense_10/Tensordot", "StatefulPartitionedCall/rn_gm/dense_10/BiasAdd/ReadVariableOp"], "attr": {"T": {"type": "DT_FLOAT"}, "data_format": {"s": "TkhXQw=="}}}, {"name": "StatefulPartitionedCall/rn_gm/dense_10/Relu", "op": "Relu", "input": ["StatefulPartitionedCall/rn_gm/dense_10/BiasAdd"], "attr": {"T": {"type": "DT_FLOAT"}}}, {"name": "StatefulPartitionedCall/rn_gm/dense_11/Tensordot/Shape", "op": "Shape", "input": ["StatefulPartitionedCall/rn_gm/dense_10/Relu"], "attr": {"T": {"type": "DT_FLOAT"}, "out_type": {"type": "DT_INT32"}}}, {"name": "StatefulPartitionedCall/rn_gm/dense_11/Tensordot/GatherV2_1", "op": "GatherV2", "input": ["StatefulPartitionedCall/rn_gm/dense_11/Tensordot/Shape", "StatefulPartitionedCall/rn_gm/dense_11/Tensordot/axes", "StatefulPartitionedCall/rn_gm/dense_11/Tensordot/GatherV2_1/axis"], "attr": {"Taxis": {"type": "DT_INT32"}, "Tindices": {"type": "DT_INT32"}, "Tparams": {"type": "DT_INT32"}, "batch_dims": {"i": "0"}}}, {"name": "StatefulPartitionedCall/rn_gm/dense_11/Tensordot/GatherV2", "op": "GatherV2", "input": ["StatefulPartitionedCall/rn_gm/dense_11/Tensordot/Shape", "StatefulPartitionedCall/rn_gm/dense_11/Tensordot/free", "StatefulPartitionedCall/rn_gm/dense_11/Tensordot/GatherV2/axis"], "attr": {"Tindices": {"type": "DT_INT32"}, "Tparams": {"type": "DT_INT32"}, "batch_dims": {"i": "0"}, "Taxis": {"type": "DT_INT32"}}}, {"name": "StatefulPartitionedCall/rn_gm/dense_11/Tensordot/Prod_1", "op": "Prod", "input": ["StatefulPartitionedCall/rn_gm/dense_11/Tensordot/GatherV2_1", "StatefulPartitionedCall/rn_gm/dense_11/Tensordot/Const_1"], "attr": {"T": {"type": "DT_INT32"}, "keep_dims": {"b": false}, "Tidx": {"type": "DT_INT32"}}}, {"name": "StatefulPartitionedCall/rn_gm/dense_11/Tensordot/Prod", "op": "Prod", "input": ["StatefulPartitionedCall/rn_gm/dense_11/Tensordot/GatherV2", "StatefulPartitionedCall/rn_gm/dense_11/Tensordot/Const"], "attr": {"Tidx": {"type": "DT_INT32"}, "T": {"type": "DT_INT32"}, "keep_dims": {"b": false}}}, {"name": "StatefulPartitionedCall/rn_gm/dense_11/Tensordot/concat_1", "op": "ConcatV2", "input": ["StatefulPartitionedCall/rn_gm/dense_11/Tensordot/GatherV2", "StatefulPartitionedCall/rn_gm/dense_11/Tensordot/Const_2", "StatefulPartitionedCall/rn_gm/dense_11/Tensordot/concat_1/axis"], "attr": {"N": {"i": "2"}, "Tidx": {"type": "DT_INT32"}, "T": {"type": "DT_INT32"}}}, {"name": "StatefulPartitionedCall/rn_gm/dense_11/Tensordot/stack", "op": "Pack", "input": ["StatefulPartitionedCall/rn_gm/dense_11/Tensordot/Prod", "StatefulPartitionedCall/rn_gm/dense_11/Tensordot/Prod_1"], "attr": {"T": {"type": "DT_INT32"}, "axis": {"i": "0"}, "N": {"i": "2"}}}, {"name": "StatefulPartitionedCall/rn_gm/dense_11/Tensordot/Reshape", "op": "Reshape", "input": ["StatefulPartitionedCall/rn_gm/dense_10/Relu", "StatefulPartitionedCall/rn_gm/dense_11/Tensordot/stack"], "attr": {"Tshape": {"type": "DT_INT32"}, "T": {"type": "DT_FLOAT"}}}, {"name": "StatefulPartitionedCall/rn_gm/dense_11/Tensordot/MatMul", "op": "MatMul", "input": ["StatefulPartitionedCall/rn_gm/dense_11/Tensordot/Reshape", "StatefulPartitionedCall/rn_gm/dense_11/Tensordot/ReadVariableOp"], "device": "/device:CPU:0", "attr": {"T": {"type": "DT_FLOAT"}, "transpose_a": {"b": false}, "transpose_b": {"b": false}}}, {"name": "StatefulPartitionedCall/rn_gm/dense_11/Tensordot", "op": "Reshape", "input": ["StatefulPartitionedCall/rn_gm/dense_11/Tensordot/MatMul", "StatefulPartitionedCall/rn_gm/dense_11/Tensordot/concat_1"], "attr": {"T": {"type": "DT_FLOAT"}, "Tshape": {"type": "DT_INT32"}}}, {"name": "StatefulPartitionedCall/rn_gm/dense_11/BiasAdd", "op": "BiasAdd", "input": ["StatefulPartitionedCall/rn_gm/dense_11/Tensordot", "StatefulPartitionedCall/rn_gm/dense_11/BiasAdd/ReadVariableOp"], "attr": {"T": {"type": "DT_FLOAT"}, "data_format": {"s": "TkhXQw=="}}}, {"name": "StatefulPartitionedCall/rn_gm/dense_11/Sigmoid", "op": "Sigmoid", "input": ["StatefulPartitionedCall/rn_gm/dense_11/BiasAdd"], "attr": {"T": {"type": "DT_FLOAT"}}}, {"name": "StatefulPartitionedCall/rn_gm/mul_5", "op": "Mul", "input": ["StatefulPartitionedCall/rn_gm/batch_normalization_12/batchnorm/mul", "StatefulPartitionedCall/rn_gm/dense_11/Sigmoid"], "attr": {"T": {"type": "DT_FLOAT"}}}, {"name": "StatefulPartitionedCall/rn_gm/batch_normalization_12/batchnorm/mul_1", "op": "Mul", "input": ["StatefulPartitionedCall/rn_gm/conv2d_12/Conv2D", "StatefulPartitionedCall/rn_gm/mul_5"], "attr": {"T": {"type": "DT_FLOAT"}}}, {"name": "StatefulPartitionedCall/rn_gm/batch_normalization_12/batchnorm/add_1", "op": "AddV2", "input": ["StatefulPartitionedCall/rn_gm/batch_normalization_12/batchnorm/mul_1", "StatefulPartitionedCall/rn_gm/batch_normalization_12/batchnorm/sub"], "attr": {"T": {"type": "DT_FLOAT"}}}, {"name": "StatefulPartitionedCall/rn_gm/add_5", "op": "AddV2", "input": ["StatefulPartitionedCall/rn_gm/Relu_10", "StatefulPartitionedCall/rn_gm/batch_normalization_12/batchnorm/add_1"], "attr": {"T": {"type": "DT_FLOAT"}}}, {"name": "StatefulPartitionedCall/rn_gm/Relu_12", "op": "Relu", "input": ["StatefulPartitionedCall/rn_gm/add_5"], "attr": {"T": {"type": "DT_FLOAT"}}}, {"name": "StatefulPartitionedCall/rn_gm/batch_normalization_13/batchnorm/mul_1", "op": "Conv2D", "input": ["StatefulPartitionedCall/rn_gm/Relu_12", "StatefulPartitionedCall/rn_gm/conv2d_13/Conv2D/merged_input"], "device": "/device:CPU:0", "attr": {"explicit_paddings": {"list": {}}, "strides": {"list": {"i": ["1", "1", "1", "1"]}}, "dilations": {"list": {"i": ["1", "1", "1", "1"]}}, "T": {"type": "DT_FLOAT"}, "padding": {"s": "U0FNRQ=="}, "use_cudnn_on_gpu": {"b": true}, "data_format": {"s": "TkhXQw=="}}}, {"name": "StatefulPartitionedCall/rn_gm/batch_normalization_13/batchnorm/add_1", "op": "AddV2", "input": ["StatefulPartitionedCall/rn_gm/batch_normalization_13/batchnorm/mul_1", "StatefulPartitionedCall/rn_gm/batch_normalization_13/batchnorm/sub"], "attr": {"T": {"type": "DT_FLOAT"}}}, {"name": "StatefulPartitionedCall/rn_gm/Relu_13", "op": "Relu", "input": ["StatefulPartitionedCall/rn_gm/batch_normalization_13/batchnorm/add_1"], "attr": {"T": {"type": "DT_FLOAT"}}}, {"name": "StatefulPartitionedCall/rn_gm/conv2d_14/Conv2D", "op": "Conv2D", "input": ["StatefulPartitionedCall/rn_gm/Relu_13", "StatefulPartitionedCall/rn_gm/conv2d_14/Conv2D/ReadVariableOp"], "device": "/device:CPU:0", "attr": {"strides": {"list": {"i": ["1", "1", "1", "1"]}}, "T": {"type": "DT_FLOAT"}, "data_format": {"s": "TkhXQw=="}, "padding": {"s": "U0FNRQ=="}, "use_cudnn_on_gpu": {"b": true}, "dilations": {"list": {"i": ["1", "1", "1", "1"]}}, "explicit_paddings": {"list": {}}}}, {"name": "StatefulPartitionedCall/rn_gm/average_pooling2d_6/AvgPool", "op": "AvgPool", "input": ["StatefulPartitionedCall/rn_gm/conv2d_14/Conv2D"], "attr": {"data_format": {"s": "TkhXQw=="}, "padding": {"s": "VkFMSUQ="}, "T": {"type": "DT_FLOAT"}, "ksize": {"list": {"i": ["1", "15", "15", "1"]}}, "strides": {"list": {"i": ["1", "15", "15", "1"]}}}}, {"name": "StatefulPartitionedCall/rn_gm/dense_12/Tensordot/Shape", "op": "Shape", "input": ["StatefulPartitionedCall/rn_gm/average_pooling2d_6/AvgPool"], "attr": {"out_type": {"type": "DT_INT32"}, "T": {"type": "DT_FLOAT"}}}, {"name": "StatefulPartitionedCall/rn_gm/dense_12/Tensordot/GatherV2_1", "op": "GatherV2", "input": ["StatefulPartitionedCall/rn_gm/dense_12/Tensordot/Shape", "StatefulPartitionedCall/rn_gm/dense_12/Tensordot/axes", "StatefulPartitionedCall/rn_gm/dense_12/Tensordot/GatherV2_1/axis"], "attr": {"Tparams": {"type": "DT_INT32"}, "Tindices": {"type": "DT_INT32"}, "Taxis": {"type": "DT_INT32"}, "batch_dims": {"i": "0"}}}, {"name": "StatefulPartitionedCall/rn_gm/dense_12/Tensordot/GatherV2", "op": "GatherV2", "input": ["StatefulPartitionedCall/rn_gm/dense_12/Tensordot/Shape", "StatefulPartitionedCall/rn_gm/dense_12/Tensordot/free", "StatefulPartitionedCall/rn_gm/dense_12/Tensordot/GatherV2/axis"], "attr": {"Taxis": {"type": "DT_INT32"}, "batch_dims": {"i": "0"}, "Tindices": {"type": "DT_INT32"}, "Tparams": {"type": "DT_INT32"}}}, {"name": "StatefulPartitionedCall/rn_gm/dense_12/Tensordot/Prod_1", "op": "Prod", "input": ["StatefulPartitionedCall/rn_gm/dense_12/Tensordot/GatherV2_1", "StatefulPartitionedCall/rn_gm/dense_12/Tensordot/Const_1"], "attr": {"Tidx": {"type": "DT_INT32"}, "keep_dims": {"b": false}, "T": {"type": "DT_INT32"}}}, {"name": "StatefulPartitionedCall/rn_gm/dense_12/Tensordot/Prod", "op": "Prod", "input": ["StatefulPartitionedCall/rn_gm/dense_12/Tensordot/GatherV2", "StatefulPartitionedCall/rn_gm/dense_12/Tensordot/Const"], "attr": {"T": {"type": "DT_INT32"}, "keep_dims": {"b": false}, "Tidx": {"type": "DT_INT32"}}}, {"name": "StatefulPartitionedCall/rn_gm/dense_12/Tensordot/concat_1", "op": "ConcatV2", "input": ["StatefulPartitionedCall/rn_gm/dense_12/Tensordot/GatherV2", "StatefulPartitionedCall/rn_gm/dense_12/Tensordot/Const_2", "StatefulPartitionedCall/rn_gm/dense_12/Tensordot/concat_1/axis"], "attr": {"N": {"i": "2"}, "T": {"type": "DT_INT32"}, "Tidx": {"type": "DT_INT32"}}}, {"name": "StatefulPartitionedCall/rn_gm/dense_12/Tensordot/stack", "op": "Pack", "input": ["StatefulPartitionedCall/rn_gm/dense_12/Tensordot/Prod", "StatefulPartitionedCall/rn_gm/dense_12/Tensordot/Prod_1"], "attr": {"T": {"type": "DT_INT32"}, "axis": {"i": "0"}, "N": {"i": "2"}}}, {"name": "StatefulPartitionedCall/rn_gm/dense_12/Tensordot/Reshape", "op": "Reshape", "input": ["StatefulPartitionedCall/rn_gm/average_pooling2d_6/AvgPool", "StatefulPartitionedCall/rn_gm/dense_12/Tensordot/stack"], "attr": {"T": {"type": "DT_FLOAT"}, "Tshape": {"type": "DT_INT32"}}}, {"name": "StatefulPartitionedCall/rn_gm/dense_12/Tensordot/MatMul", "op": "MatMul", "input": ["StatefulPartitionedCall/rn_gm/dense_12/Tensordot/Reshape", "StatefulPartitionedCall/rn_gm/dense_12/Tensordot/ReadVariableOp"], "device": "/device:CPU:0", "attr": {"transpose_b": {"b": false}, "T": {"type": "DT_FLOAT"}, "transpose_a": {"b": false}}}, {"name": "StatefulPartitionedCall/rn_gm/dense_12/Tensordot", "op": "Reshape", "input": ["StatefulPartitionedCall/rn_gm/dense_12/Tensordot/MatMul", "StatefulPartitionedCall/rn_gm/dense_12/Tensordot/concat_1"], "attr": {"Tshape": {"type": "DT_INT32"}, "T": {"type": "DT_FLOAT"}}}, {"name": "StatefulPartitionedCall/rn_gm/dense_12/BiasAdd", "op": "BiasAdd", "input": ["StatefulPartitionedCall/rn_gm/dense_12/Tensordot", "StatefulPartitionedCall/rn_gm/dense_12/BiasAdd/ReadVariableOp"], "attr": {"data_format": {"s": "TkhXQw=="}, "T": {"type": "DT_FLOAT"}}}, {"name": "StatefulPartitionedCall/rn_gm/dense_12/Relu", "op": "Relu", "input": ["StatefulPartitionedCall/rn_gm/dense_12/BiasAdd"], "attr": {"T": {"type": "DT_FLOAT"}}}, {"name": "StatefulPartitionedCall/rn_gm/dense_13/Tensordot/Shape", "op": "Shape", "input": ["StatefulPartitionedCall/rn_gm/dense_12/Relu"], "attr": {"out_type": {"type": "DT_INT32"}, "T": {"type": "DT_FLOAT"}}}, {"name": "StatefulPartitionedCall/rn_gm/dense_13/Tensordot/GatherV2_1", "op": "GatherV2", "input": ["StatefulPartitionedCall/rn_gm/dense_13/Tensordot/Shape", "StatefulPartitionedCall/rn_gm/dense_13/Tensordot/axes", "StatefulPartitionedCall/rn_gm/dense_13/Tensordot/GatherV2_1/axis"], "attr": {"Taxis": {"type": "DT_INT32"}, "Tparams": {"type": "DT_INT32"}, "batch_dims": {"i": "0"}, "Tindices": {"type": "DT_INT32"}}}, {"name": "StatefulPartitionedCall/rn_gm/dense_13/Tensordot/GatherV2", "op": "GatherV2", "input": ["StatefulPartitionedCall/rn_gm/dense_13/Tensordot/Shape", "StatefulPartitionedCall/rn_gm/dense_13/Tensordot/free", "StatefulPartitionedCall/rn_gm/dense_13/Tensordot/GatherV2/axis"], "attr": {"Tindices": {"type": "DT_INT32"}, "batch_dims": {"i": "0"}, "Tparams": {"type": "DT_INT32"}, "Taxis": {"type": "DT_INT32"}}}, {"name": "StatefulPartitionedCall/rn_gm/dense_13/Tensordot/Prod_1", "op": "Prod", "input": ["StatefulPartitionedCall/rn_gm/dense_13/Tensordot/GatherV2_1", "StatefulPartitionedCall/rn_gm/dense_13/Tensordot/Const_1"], "attr": {"T": {"type": "DT_INT32"}, "keep_dims": {"b": false}, "Tidx": {"type": "DT_INT32"}}}, {"name": "StatefulPartitionedCall/rn_gm/dense_13/Tensordot/Prod", "op": "Prod", "input": ["StatefulPartitionedCall/rn_gm/dense_13/Tensordot/GatherV2", "StatefulPartitionedCall/rn_gm/dense_13/Tensordot/Const"], "attr": {"T": {"type": "DT_INT32"}, "Tidx": {"type": "DT_INT32"}, "keep_dims": {"b": false}}}, {"name": "StatefulPartitionedCall/rn_gm/dense_13/Tensordot/concat_1", "op": "ConcatV2", "input": ["StatefulPartitionedCall/rn_gm/dense_13/Tensordot/GatherV2", "StatefulPartitionedCall/rn_gm/dense_13/Tensordot/Const_2", "StatefulPartitionedCall/rn_gm/dense_13/Tensordot/concat_1/axis"], "attr": {"T": {"type": "DT_INT32"}, "Tidx": {"type": "DT_INT32"}, "N": {"i": "2"}}}, {"name": "StatefulPartitionedCall/rn_gm/dense_13/Tensordot/stack", "op": "Pack", "input": ["StatefulPartitionedCall/rn_gm/dense_13/Tensordot/Prod", "StatefulPartitionedCall/rn_gm/dense_13/Tensordot/Prod_1"], "attr": {"T": {"type": "DT_INT32"}, "axis": {"i": "0"}, "N": {"i": "2"}}}, {"name": "StatefulPartitionedCall/rn_gm/dense_13/Tensordot/Reshape", "op": "Reshape", "input": ["StatefulPartitionedCall/rn_gm/dense_12/Relu", "StatefulPartitionedCall/rn_gm/dense_13/Tensordot/stack"], "attr": {"T": {"type": "DT_FLOAT"}, "Tshape": {"type": "DT_INT32"}}}, {"name": "StatefulPartitionedCall/rn_gm/dense_13/Tensordot/MatMul", "op": "MatMul", "input": ["StatefulPartitionedCall/rn_gm/dense_13/Tensordot/Reshape", "StatefulPartitionedCall/rn_gm/dense_13/Tensordot/ReadVariableOp"], "device": "/device:CPU:0", "attr": {"T": {"type": "DT_FLOAT"}, "transpose_b": {"b": false}, "transpose_a": {"b": false}}}, {"name": "StatefulPartitionedCall/rn_gm/dense_13/Tensordot", "op": "Reshape", "input": ["StatefulPartitionedCall/rn_gm/dense_13/Tensordot/MatMul", "StatefulPartitionedCall/rn_gm/dense_13/Tensordot/concat_1"], "attr": {"Tshape": {"type": "DT_INT32"}, "T": {"type": "DT_FLOAT"}}}, {"name": "StatefulPartitionedCall/rn_gm/dense_13/BiasAdd", "op": "BiasAdd", "input": ["StatefulPartitionedCall/rn_gm/dense_13/Tensordot", "StatefulPartitionedCall/rn_gm/dense_13/BiasAdd/ReadVariableOp"], "attr": {"data_format": {"s": "TkhXQw=="}, "T": {"type": "DT_FLOAT"}}}, {"name": "StatefulPartitionedCall/rn_gm/dense_13/Sigmoid", "op": "Sigmoid", "input": ["StatefulPartitionedCall/rn_gm/dense_13/BiasAdd"], "attr": {"T": {"type": "DT_FLOAT"}}}, {"name": "StatefulPartitionedCall/rn_gm/mul_6", "op": "Mul", "input": ["StatefulPartitionedCall/rn_gm/batch_normalization_14/batchnorm/mul", "StatefulPartitionedCall/rn_gm/dense_13/Sigmoid"], "attr": {"T": {"type": "DT_FLOAT"}}}, {"name": "StatefulPartitionedCall/rn_gm/batch_normalization_14/batchnorm/mul_1", "op": "Mul", "input": ["StatefulPartitionedCall/rn_gm/conv2d_14/Conv2D", "StatefulPartitionedCall/rn_gm/mul_6"], "attr": {"T": {"type": "DT_FLOAT"}}}, {"name": "StatefulPartitionedCall/rn_gm/batch_normalization_14/batchnorm/add_1", "op": "AddV2", "input": ["StatefulPartitionedCall/rn_gm/batch_normalization_14/batchnorm/mul_1", "StatefulPartitionedCall/rn_gm/batch_normalization_14/batchnorm/sub"], "attr": {"T": {"type": "DT_FLOAT"}}}, {"name": "StatefulPartitionedCall/rn_gm/add_6", "op": "AddV2", "input": ["StatefulPartitionedCall/rn_gm/Relu_12", "StatefulPartitionedCall/rn_gm/batch_normalization_14/batchnorm/add_1"], "attr": {"T": {"type": "DT_FLOAT"}}}, {"name": "StatefulPartitionedCall/rn_gm/Relu_14", "op": "Relu", "input": ["StatefulPartitionedCall/rn_gm/add_6"], "attr": {"T": {"type": "DT_FLOAT"}}}, {"name": "StatefulPartitionedCall/rn_gm/batch_normalization_15/batchnorm/mul_1", "op": "Conv2D", "input": ["StatefulPartitionedCall/rn_gm/Relu_14", "StatefulPartitionedCall/rn_gm/conv2d_15/Conv2D/merged_input"], "device": "/device:CPU:0", "attr": {"dilations": {"list": {"i": ["1", "1", "1", "1"]}}, "use_cudnn_on_gpu": {"b": true}, "padding": {"s": "U0FNRQ=="}, "strides": {"list": {"i": ["1", "1", "1", "1"]}}, "data_format": {"s": "TkhXQw=="}, "T": {"type": "DT_FLOAT"}, "explicit_paddings": {"list": {}}}}, {"name": "StatefulPartitionedCall/rn_gm/batch_normalization_15/batchnorm/add_1", "op": "AddV2", "input": ["StatefulPartitionedCall/rn_gm/batch_normalization_15/batchnorm/mul_1", "StatefulPartitionedCall/rn_gm/batch_normalization_15/batchnorm/sub"], "attr": {"T": {"type": "DT_FLOAT"}}}, {"name": "StatefulPartitionedCall/rn_gm/Relu_15", "op": "Relu", "input": ["StatefulPartitionedCall/rn_gm/batch_normalization_15/batchnorm/add_1"], "attr": {"T": {"type": "DT_FLOAT"}}}, {"name": "StatefulPartitionedCall/rn_gm/conv2d_16/Conv2D", "op": "Conv2D", "input": ["StatefulPartitionedCall/rn_gm/Relu_15", "StatefulPartitionedCall/rn_gm/conv2d_16/Conv2D/ReadVariableOp"], "device": "/device:CPU:0", "attr": {"use_cudnn_on_gpu": {"b": true}, "dilations": {"list": {"i": ["1", "1", "1", "1"]}}, "explicit_paddings": {"list": {}}, "padding": {"s": "U0FNRQ=="}, "data_format": {"s": "TkhXQw=="}, "strides": {"list": {"i": ["1", "1", "1", "1"]}}, "T": {"type": "DT_FLOAT"}}}, {"name": "StatefulPartitionedCall/rn_gm/average_pooling2d_7/AvgPool", "op": "AvgPool", "input": ["StatefulPartitionedCall/rn_gm/conv2d_16/Conv2D"], "attr": {"ksize": {"list": {"i": ["1", "15", "15", "1"]}}, "strides": {"list": {"i": ["1", "15", "15", "1"]}}, "padding": {"s": "VkFMSUQ="}, "T": {"type": "DT_FLOAT"}, "data_format": {"s": "TkhXQw=="}}}, {"name": "StatefulPartitionedCall/rn_gm/dense_14/Tensordot/Shape", "op": "Shape", "input": ["StatefulPartitionedCall/rn_gm/average_pooling2d_7/AvgPool"], "attr": {"out_type": {"type": "DT_INT32"}, "T": {"type": "DT_FLOAT"}}}, {"name": "StatefulPartitionedCall/rn_gm/dense_14/Tensordot/GatherV2_1", "op": "GatherV2", "input": ["StatefulPartitionedCall/rn_gm/dense_14/Tensordot/Shape", "StatefulPartitionedCall/rn_gm/dense_14/Tensordot/axes", "StatefulPartitionedCall/rn_gm/dense_14/Tensordot/GatherV2_1/axis"], "attr": {"Tindices": {"type": "DT_INT32"}, "batch_dims": {"i": "0"}, "Taxis": {"type": "DT_INT32"}, "Tparams": {"type": "DT_INT32"}}}, {"name": "StatefulPartitionedCall/rn_gm/dense_14/Tensordot/GatherV2", "op": "GatherV2", "input": ["StatefulPartitionedCall/rn_gm/dense_14/Tensordot/Shape", "StatefulPartitionedCall/rn_gm/dense_14/Tensordot/free", "StatefulPartitionedCall/rn_gm/dense_14/Tensordot/GatherV2/axis"], "attr": {"Tindices": {"type": "DT_INT32"}, "Tparams": {"type": "DT_INT32"}, "batch_dims": {"i": "0"}, "Taxis": {"type": "DT_INT32"}}}, {"name": "StatefulPartitionedCall/rn_gm/dense_14/Tensordot/Prod_1", "op": "Prod", "input": ["StatefulPartitionedCall/rn_gm/dense_14/Tensordot/GatherV2_1", "StatefulPartitionedCall/rn_gm/dense_14/Tensordot/Const_1"], "attr": {"T": {"type": "DT_INT32"}, "keep_dims": {"b": false}, "Tidx": {"type": "DT_INT32"}}}, {"name": "StatefulPartitionedCall/rn_gm/dense_14/Tensordot/Prod", "op": "Prod", "input": ["StatefulPartitionedCall/rn_gm/dense_14/Tensordot/GatherV2", "StatefulPartitionedCall/rn_gm/dense_14/Tensordot/Const"], "attr": {"T": {"type": "DT_INT32"}, "Tidx": {"type": "DT_INT32"}, "keep_dims": {"b": false}}}, {"name": "StatefulPartitionedCall/rn_gm/dense_14/Tensordot/concat_1", "op": "ConcatV2", "input": ["StatefulPartitionedCall/rn_gm/dense_14/Tensordot/GatherV2", "StatefulPartitionedCall/rn_gm/dense_14/Tensordot/Const_2", "StatefulPartitionedCall/rn_gm/dense_14/Tensordot/concat_1/axis"], "attr": {"N": {"i": "2"}, "T": {"type": "DT_INT32"}, "Tidx": {"type": "DT_INT32"}}}, {"name": "StatefulPartitionedCall/rn_gm/dense_14/Tensordot/stack", "op": "Pack", "input": ["StatefulPartitionedCall/rn_gm/dense_14/Tensordot/Prod", "StatefulPartitionedCall/rn_gm/dense_14/Tensordot/Prod_1"], "attr": {"N": {"i": "2"}, "T": {"type": "DT_INT32"}, "axis": {"i": "0"}}}, {"name": "StatefulPartitionedCall/rn_gm/dense_14/Tensordot/Reshape", "op": "Reshape", "input": ["StatefulPartitionedCall/rn_gm/average_pooling2d_7/AvgPool", "StatefulPartitionedCall/rn_gm/dense_14/Tensordot/stack"], "attr": {"T": {"type": "DT_FLOAT"}, "Tshape": {"type": "DT_INT32"}}}, {"name": "StatefulPartitionedCall/rn_gm/dense_14/Tensordot/MatMul", "op": "MatMul", "input": ["StatefulPartitionedCall/rn_gm/dense_14/Tensordot/Reshape", "StatefulPartitionedCall/rn_gm/dense_14/Tensordot/ReadVariableOp"], "device": "/device:CPU:0", "attr": {"transpose_a": {"b": false}, "T": {"type": "DT_FLOAT"}, "transpose_b": {"b": false}}}, {"name": "StatefulPartitionedCall/rn_gm/dense_14/Tensordot", "op": "Reshape", "input": ["StatefulPartitionedCall/rn_gm/dense_14/Tensordot/MatMul", "StatefulPartitionedCall/rn_gm/dense_14/Tensordot/concat_1"], "attr": {"T": {"type": "DT_FLOAT"}, "Tshape": {"type": "DT_INT32"}}}, {"name": "StatefulPartitionedCall/rn_gm/dense_14/BiasAdd", "op": "BiasAdd", "input": ["StatefulPartitionedCall/rn_gm/dense_14/Tensordot", "StatefulPartitionedCall/rn_gm/dense_14/BiasAdd/ReadVariableOp"], "attr": {"data_format": {"s": "TkhXQw=="}, "T": {"type": "DT_FLOAT"}}}, {"name": "StatefulPartitionedCall/rn_gm/dense_14/Relu", "op": "Relu", "input": ["StatefulPartitionedCall/rn_gm/dense_14/BiasAdd"], "attr": {"T": {"type": "DT_FLOAT"}}}, {"name": "StatefulPartitionedCall/rn_gm/dense_15/Tensordot/Shape", "op": "Shape", "input": ["StatefulPartitionedCall/rn_gm/dense_14/Relu"], "attr": {"T": {"type": "DT_FLOAT"}, "out_type": {"type": "DT_INT32"}}}, {"name": "StatefulPartitionedCall/rn_gm/dense_15/Tensordot/GatherV2_1", "op": "GatherV2", "input": ["StatefulPartitionedCall/rn_gm/dense_15/Tensordot/Shape", "StatefulPartitionedCall/rn_gm/dense_15/Tensordot/axes", "StatefulPartitionedCall/rn_gm/dense_15/Tensordot/GatherV2_1/axis"], "attr": {"Taxis": {"type": "DT_INT32"}, "batch_dims": {"i": "0"}, "Tparams": {"type": "DT_INT32"}, "Tindices": {"type": "DT_INT32"}}}, {"name": "StatefulPartitionedCall/rn_gm/dense_15/Tensordot/GatherV2", "op": "GatherV2", "input": ["StatefulPartitionedCall/rn_gm/dense_15/Tensordot/Shape", "StatefulPartitionedCall/rn_gm/dense_15/Tensordot/free", "StatefulPartitionedCall/rn_gm/dense_15/Tensordot/GatherV2/axis"], "attr": {"Tindices": {"type": "DT_INT32"}, "Taxis": {"type": "DT_INT32"}, "Tparams": {"type": "DT_INT32"}, "batch_dims": {"i": "0"}}}, {"name": "StatefulPartitionedCall/rn_gm/dense_15/Tensordot/Prod_1", "op": "Prod", "input": ["StatefulPartitionedCall/rn_gm/dense_15/Tensordot/GatherV2_1", "StatefulPartitionedCall/rn_gm/dense_15/Tensordot/Const_1"], "attr": {"T": {"type": "DT_INT32"}, "Tidx": {"type": "DT_INT32"}, "keep_dims": {"b": false}}}, {"name": "StatefulPartitionedCall/rn_gm/dense_15/Tensordot/Prod", "op": "Prod", "input": ["StatefulPartitionedCall/rn_gm/dense_15/Tensordot/GatherV2", "StatefulPartitionedCall/rn_gm/dense_15/Tensordot/Const"], "attr": {"keep_dims": {"b": false}, "T": {"type": "DT_INT32"}, "Tidx": {"type": "DT_INT32"}}}, {"name": "StatefulPartitionedCall/rn_gm/dense_15/Tensordot/concat_1", "op": "ConcatV2", "input": ["StatefulPartitionedCall/rn_gm/dense_15/Tensordot/GatherV2", "StatefulPartitionedCall/rn_gm/dense_15/Tensordot/Const_2", "StatefulPartitionedCall/rn_gm/dense_15/Tensordot/concat_1/axis"], "attr": {"N": {"i": "2"}, "Tidx": {"type": "DT_INT32"}, "T": {"type": "DT_INT32"}}}, {"name": "StatefulPartitionedCall/rn_gm/dense_15/Tensordot/stack", "op": "Pack", "input": ["StatefulPartitionedCall/rn_gm/dense_15/Tensordot/Prod", "StatefulPartitionedCall/rn_gm/dense_15/Tensordot/Prod_1"], "attr": {"N": {"i": "2"}, "T": {"type": "DT_INT32"}, "axis": {"i": "0"}}}, {"name": "StatefulPartitionedCall/rn_gm/dense_15/Tensordot/Reshape", "op": "Reshape", "input": ["StatefulPartitionedCall/rn_gm/dense_14/Relu", "StatefulPartitionedCall/rn_gm/dense_15/Tensordot/stack"], "attr": {"T": {"type": "DT_FLOAT"}, "Tshape": {"type": "DT_INT32"}}}, {"name": "StatefulPartitionedCall/rn_gm/dense_15/Tensordot/MatMul", "op": "MatMul", "input": ["StatefulPartitionedCall/rn_gm/dense_15/Tensordot/Reshape", "StatefulPartitionedCall/rn_gm/dense_15/Tensordot/ReadVariableOp"], "device": "/device:CPU:0", "attr": {"transpose_b": {"b": false}, "T": {"type": "DT_FLOAT"}, "transpose_a": {"b": false}}}, {"name": "StatefulPartitionedCall/rn_gm/dense_15/Tensordot", "op": "Reshape", "input": ["StatefulPartitionedCall/rn_gm/dense_15/Tensordot/MatMul", "StatefulPartitionedCall/rn_gm/dense_15/Tensordot/concat_1"], "attr": {"T": {"type": "DT_FLOAT"}, "Tshape": {"type": "DT_INT32"}}}, {"name": "StatefulPartitionedCall/rn_gm/dense_15/BiasAdd", "op": "BiasAdd", "input": ["StatefulPartitionedCall/rn_gm/dense_15/Tensordot", "StatefulPartitionedCall/rn_gm/dense_15/BiasAdd/ReadVariableOp"], "attr": {"T": {"type": "DT_FLOAT"}, "data_format": {"s": "TkhXQw=="}}}, {"name": "StatefulPartitionedCall/rn_gm/dense_15/Sigmoid", "op": "Sigmoid", "input": ["StatefulPartitionedCall/rn_gm/dense_15/BiasAdd"], "attr": {"T": {"type": "DT_FLOAT"}}}, {"name": "StatefulPartitionedCall/rn_gm/mul_7", "op": "Mul", "input": ["StatefulPartitionedCall/rn_gm/batch_normalization_16/batchnorm/mul", "StatefulPartitionedCall/rn_gm/dense_15/Sigmoid"], "attr": {"T": {"type": "DT_FLOAT"}}}, {"name": "StatefulPartitionedCall/rn_gm/batch_normalization_16/batchnorm/mul_1", "op": "Mul", "input": ["StatefulPartitionedCall/rn_gm/conv2d_16/Conv2D", "StatefulPartitionedCall/rn_gm/mul_7"], "attr": {"T": {"type": "DT_FLOAT"}}}, {"name": "StatefulPartitionedCall/rn_gm/batch_normalization_16/batchnorm/add_1", "op": "AddV2", "input": ["StatefulPartitionedCall/rn_gm/batch_normalization_16/batchnorm/mul_1", "StatefulPartitionedCall/rn_gm/batch_normalization_16/batchnorm/sub"], "attr": {"T": {"type": "DT_FLOAT"}}}, {"name": "StatefulPartitionedCall/rn_gm/add_7", "op": "AddV2", "input": ["StatefulPartitionedCall/rn_gm/Relu_14", "StatefulPartitionedCall/rn_gm/batch_normalization_16/batchnorm/add_1"], "attr": {"T": {"type": "DT_FLOAT"}}}, {"name": "StatefulPartitionedCall/rn_gm/Relu_16", "op": "Relu", "input": ["StatefulPartitionedCall/rn_gm/add_7"], "attr": {"T": {"type": "DT_FLOAT"}}}, {"name": "StatefulPartitionedCall/rn_gm/batch_normalization_17/batchnorm/mul_1", "op": "Conv2D", "input": ["StatefulPartitionedCall/rn_gm/Relu_16", "StatefulPartitionedCall/rn_gm/conv2d_17/Conv2D/merged_input"], "device": "/device:CPU:0", "attr": {"strides": {"list": {"i": ["1", "1", "1", "1"]}}, "data_format": {"s": "TkhXQw=="}, "use_cudnn_on_gpu": {"b": true}, "padding": {"s": "U0FNRQ=="}, "T": {"type": "DT_FLOAT"}, "dilations": {"list": {"i": ["1", "1", "1", "1"]}}, "explicit_paddings": {"list": {}}}}, {"name": "StatefulPartitionedCall/rn_gm/batch_normalization_17/batchnorm/add_1", "op": "AddV2", "input": ["StatefulPartitionedCall/rn_gm/batch_normalization_17/batchnorm/mul_1", "StatefulPartitionedCall/rn_gm/batch_normalization_17/batchnorm/sub"], "attr": {"T": {"type": "DT_FLOAT"}}}, {"name": "StatefulPartitionedCall/rn_gm/Relu_17", "op": "Relu", "input": ["StatefulPartitionedCall/rn_gm/batch_normalization_17/batchnorm/add_1"], "attr": {"T": {"type": "DT_FLOAT"}}}, {"name": "StatefulPartitionedCall/rn_gm/conv2d_18/Conv2D", "op": "Conv2D", "input": ["StatefulPartitionedCall/rn_gm/Relu_17", "StatefulPartitionedCall/rn_gm/conv2d_18/Conv2D/ReadVariableOp"], "device": "/device:CPU:0", "attr": {"padding": {"s": "U0FNRQ=="}, "use_cudnn_on_gpu": {"b": true}, "data_format": {"s": "TkhXQw=="}, "T": {"type": "DT_FLOAT"}, "strides": {"list": {"i": ["1", "1", "1", "1"]}}, "dilations": {"list": {"i": ["1", "1", "1", "1"]}}, "explicit_paddings": {"list": {}}}}, {"name": "StatefulPartitionedCall/rn_gm/average_pooling2d_8/AvgPool", "op": "AvgPool", "input": ["StatefulPartitionedCall/rn_gm/conv2d_18/Conv2D"], "attr": {"T": {"type": "DT_FLOAT"}, "data_format": {"s": "TkhXQw=="}, "strides": {"list": {"i": ["1", "15", "15", "1"]}}, "ksize": {"list": {"i": ["1", "15", "15", "1"]}}, "padding": {"s": "VkFMSUQ="}}}, {"name": "StatefulPartitionedCall/rn_gm/dense_16/Tensordot/Shape", "op": "Shape", "input": ["StatefulPartitionedCall/rn_gm/average_pooling2d_8/AvgPool"], "attr": {"T": {"type": "DT_FLOAT"}, "out_type": {"type": "DT_INT32"}}}, {"name": "StatefulPartitionedCall/rn_gm/dense_16/Tensordot/GatherV2_1", "op": "GatherV2", "input": ["StatefulPartitionedCall/rn_gm/dense_16/Tensordot/Shape", "StatefulPartitionedCall/rn_gm/dense_16/Tensordot/axes", "StatefulPartitionedCall/rn_gm/dense_16/Tensordot/GatherV2_1/axis"], "attr": {"Tindices": {"type": "DT_INT32"}, "Taxis": {"type": "DT_INT32"}, "batch_dims": {"i": "0"}, "Tparams": {"type": "DT_INT32"}}}, {"name": "StatefulPartitionedCall/rn_gm/dense_16/Tensordot/GatherV2", "op": "GatherV2", "input": ["StatefulPartitionedCall/rn_gm/dense_16/Tensordot/Shape", "StatefulPartitionedCall/rn_gm/dense_16/Tensordot/free", "StatefulPartitionedCall/rn_gm/dense_16/Tensordot/GatherV2/axis"], "attr": {"batch_dims": {"i": "0"}, "Taxis": {"type": "DT_INT32"}, "Tindices": {"type": "DT_INT32"}, "Tparams": {"type": "DT_INT32"}}}, {"name": "StatefulPartitionedCall/rn_gm/dense_16/Tensordot/Prod_1", "op": "Prod", "input": ["StatefulPartitionedCall/rn_gm/dense_16/Tensordot/GatherV2_1", "StatefulPartitionedCall/rn_gm/dense_16/Tensordot/Const_1"], "attr": {"Tidx": {"type": "DT_INT32"}, "keep_dims": {"b": false}, "T": {"type": "DT_INT32"}}}, {"name": "StatefulPartitionedCall/rn_gm/dense_16/Tensordot/Prod", "op": "Prod", "input": ["StatefulPartitionedCall/rn_gm/dense_16/Tensordot/GatherV2", "StatefulPartitionedCall/rn_gm/dense_16/Tensordot/Const"], "attr": {"Tidx": {"type": "DT_INT32"}, "T": {"type": "DT_INT32"}, "keep_dims": {"b": false}}}, {"name": "StatefulPartitionedCall/rn_gm/dense_16/Tensordot/concat_1", "op": "ConcatV2", "input": ["StatefulPartitionedCall/rn_gm/dense_16/Tensordot/GatherV2", "StatefulPartitionedCall/rn_gm/dense_16/Tensordot/Const_2", "StatefulPartitionedCall/rn_gm/dense_16/Tensordot/concat_1/axis"], "attr": {"Tidx": {"type": "DT_INT32"}, "N": {"i": "2"}, "T": {"type": "DT_INT32"}}}, {"name": "StatefulPartitionedCall/rn_gm/dense_16/Tensordot/stack", "op": "Pack", "input": ["StatefulPartitionedCall/rn_gm/dense_16/Tensordot/Prod", "StatefulPartitionedCall/rn_gm/dense_16/Tensordot/Prod_1"], "attr": {"axis": {"i": "0"}, "N": {"i": "2"}, "T": {"type": "DT_INT32"}}}, {"name": "StatefulPartitionedCall/rn_gm/dense_16/Tensordot/Reshape", "op": "Reshape", "input": ["StatefulPartitionedCall/rn_gm/average_pooling2d_8/AvgPool", "StatefulPartitionedCall/rn_gm/dense_16/Tensordot/stack"], "attr": {"Tshape": {"type": "DT_INT32"}, "T": {"type": "DT_FLOAT"}}}, {"name": "StatefulPartitionedCall/rn_gm/dense_16/Tensordot/MatMul", "op": "MatMul", "input": ["StatefulPartitionedCall/rn_gm/dense_16/Tensordot/Reshape", "StatefulPartitionedCall/rn_gm/dense_16/Tensordot/ReadVariableOp"], "device": "/device:CPU:0", "attr": {"transpose_a": {"b": false}, "T": {"type": "DT_FLOAT"}, "transpose_b": {"b": false}}}, {"name": "StatefulPartitionedCall/rn_gm/dense_16/Tensordot", "op": "Reshape", "input": ["StatefulPartitionedCall/rn_gm/dense_16/Tensordot/MatMul", "StatefulPartitionedCall/rn_gm/dense_16/Tensordot/concat_1"], "attr": {"T": {"type": "DT_FLOAT"}, "Tshape": {"type": "DT_INT32"}}}, {"name": "StatefulPartitionedCall/rn_gm/dense_16/BiasAdd", "op": "BiasAdd", "input": ["StatefulPartitionedCall/rn_gm/dense_16/Tensordot", "StatefulPartitionedCall/rn_gm/dense_16/BiasAdd/ReadVariableOp"], "attr": {"data_format": {"s": "TkhXQw=="}, "T": {"type": "DT_FLOAT"}}}, {"name": "StatefulPartitionedCall/rn_gm/dense_16/Relu", "op": "Relu", "input": ["StatefulPartitionedCall/rn_gm/dense_16/BiasAdd"], "attr": {"T": {"type": "DT_FLOAT"}}}, {"name": "StatefulPartitionedCall/rn_gm/dense_17/Tensordot/Shape", "op": "Shape", "input": ["StatefulPartitionedCall/rn_gm/dense_16/Relu"], "attr": {"T": {"type": "DT_FLOAT"}, "out_type": {"type": "DT_INT32"}}}, {"name": "StatefulPartitionedCall/rn_gm/dense_17/Tensordot/GatherV2_1", "op": "GatherV2", "input": ["StatefulPartitionedCall/rn_gm/dense_17/Tensordot/Shape", "StatefulPartitionedCall/rn_gm/dense_17/Tensordot/axes", "StatefulPartitionedCall/rn_gm/dense_17/Tensordot/GatherV2_1/axis"], "attr": {"Tparams": {"type": "DT_INT32"}, "Tindices": {"type": "DT_INT32"}, "Taxis": {"type": "DT_INT32"}, "batch_dims": {"i": "0"}}}, {"name": "StatefulPartitionedCall/rn_gm/dense_17/Tensordot/GatherV2", "op": "GatherV2", "input": ["StatefulPartitionedCall/rn_gm/dense_17/Tensordot/Shape", "StatefulPartitionedCall/rn_gm/dense_17/Tensordot/free", "StatefulPartitionedCall/rn_gm/dense_17/Tensordot/GatherV2/axis"], "attr": {"Taxis": {"type": "DT_INT32"}, "batch_dims": {"i": "0"}, "Tindices": {"type": "DT_INT32"}, "Tparams": {"type": "DT_INT32"}}}, {"name": "StatefulPartitionedCall/rn_gm/dense_17/Tensordot/Prod_1", "op": "Prod", "input": ["StatefulPartitionedCall/rn_gm/dense_17/Tensordot/GatherV2_1", "StatefulPartitionedCall/rn_gm/dense_17/Tensordot/Const_1"], "attr": {"Tidx": {"type": "DT_INT32"}, "keep_dims": {"b": false}, "T": {"type": "DT_INT32"}}}, {"name": "StatefulPartitionedCall/rn_gm/dense_17/Tensordot/Prod", "op": "Prod", "input": ["StatefulPartitionedCall/rn_gm/dense_17/Tensordot/GatherV2", "StatefulPartitionedCall/rn_gm/dense_17/Tensordot/Const"], "attr": {"Tidx": {"type": "DT_INT32"}, "T": {"type": "DT_INT32"}, "keep_dims": {"b": false}}}, {"name": "StatefulPartitionedCall/rn_gm/dense_17/Tensordot/concat_1", "op": "ConcatV2", "input": ["StatefulPartitionedCall/rn_gm/dense_17/Tensordot/GatherV2", "StatefulPartitionedCall/rn_gm/dense_17/Tensordot/Const_2", "StatefulPartitionedCall/rn_gm/dense_17/Tensordot/concat_1/axis"], "attr": {"Tidx": {"type": "DT_INT32"}, "T": {"type": "DT_INT32"}, "N": {"i": "2"}}}, {"name": "StatefulPartitionedCall/rn_gm/dense_17/Tensordot/stack", "op": "Pack", "input": ["StatefulPartitionedCall/rn_gm/dense_17/Tensordot/Prod", "StatefulPartitionedCall/rn_gm/dense_17/Tensordot/Prod_1"], "attr": {"axis": {"i": "0"}, "T": {"type": "DT_INT32"}, "N": {"i": "2"}}}, {"name": "StatefulPartitionedCall/rn_gm/dense_17/Tensordot/Reshape", "op": "Reshape", "input": ["StatefulPartitionedCall/rn_gm/dense_16/Relu", "StatefulPartitionedCall/rn_gm/dense_17/Tensordot/stack"], "attr": {"T": {"type": "DT_FLOAT"}, "Tshape": {"type": "DT_INT32"}}}, {"name": "StatefulPartitionedCall/rn_gm/dense_17/Tensordot/MatMul", "op": "MatMul", "input": ["StatefulPartitionedCall/rn_gm/dense_17/Tensordot/Reshape", "StatefulPartitionedCall/rn_gm/dense_17/Tensordot/ReadVariableOp"], "device": "/device:CPU:0", "attr": {"transpose_b": {"b": false}, "T": {"type": "DT_FLOAT"}, "transpose_a": {"b": false}}}, {"name": "StatefulPartitionedCall/rn_gm/dense_17/Tensordot", "op": "Reshape", "input": ["StatefulPartitionedCall/rn_gm/dense_17/Tensordot/MatMul", "StatefulPartitionedCall/rn_gm/dense_17/Tensordot/concat_1"], "attr": {"T": {"type": "DT_FLOAT"}, "Tshape": {"type": "DT_INT32"}}}, {"name": "StatefulPartitionedCall/rn_gm/dense_17/BiasAdd", "op": "BiasAdd", "input": ["StatefulPartitionedCall/rn_gm/dense_17/Tensordot", "StatefulPartitionedCall/rn_gm/dense_17/BiasAdd/ReadVariableOp"], "attr": {"T": {"type": "DT_FLOAT"}, "data_format": {"s": "TkhXQw=="}}}, {"name": "StatefulPartitionedCall/rn_gm/dense_17/Sigmoid", "op": "Sigmoid", "input": ["StatefulPartitionedCall/rn_gm/dense_17/BiasAdd"], "attr": {"T": {"type": "DT_FLOAT"}}}, {"name": "StatefulPartitionedCall/rn_gm/mul_8", "op": "Mul", "input": ["StatefulPartitionedCall/rn_gm/batch_normalization_18/batchnorm/mul", "StatefulPartitionedCall/rn_gm/dense_17/Sigmoid"], "attr": {"T": {"type": "DT_FLOAT"}}}, {"name": "StatefulPartitionedCall/rn_gm/batch_normalization_18/batchnorm/mul_1", "op": "Mul", "input": ["StatefulPartitionedCall/rn_gm/conv2d_18/Conv2D", "StatefulPartitionedCall/rn_gm/mul_8"], "attr": {"T": {"type": "DT_FLOAT"}}}, {"name": "StatefulPartitionedCall/rn_gm/batch_normalization_18/batchnorm/add_1", "op": "AddV2", "input": ["StatefulPartitionedCall/rn_gm/batch_normalization_18/batchnorm/mul_1", "StatefulPartitionedCall/rn_gm/batch_normalization_18/batchnorm/sub"], "attr": {"T": {"type": "DT_FLOAT"}}}, {"name": "StatefulPartitionedCall/rn_gm/add_8", "op": "AddV2", "input": ["StatefulPartitionedCall/rn_gm/Relu_16", "StatefulPartitionedCall/rn_gm/batch_normalization_18/batchnorm/add_1"], "attr": {"T": {"type": "DT_FLOAT"}}}, {"name": "StatefulPartitionedCall/rn_gm/Relu_18", "op": "Relu", "input": ["StatefulPartitionedCall/rn_gm/add_8"], "attr": {"T": {"type": "DT_FLOAT"}}}, {"name": "StatefulPartitionedCall/rn_gm/batch_normalization_19/batchnorm/mul_1", "op": "Conv2D", "input": ["StatefulPartitionedCall/rn_gm/Relu_18", "StatefulPartitionedCall/rn_gm/conv2d_19/Conv2D/merged_input"], "device": "/device:CPU:0", "attr": {"T": {"type": "DT_FLOAT"}, "explicit_paddings": {"list": {}}, "padding": {"s": "U0FNRQ=="}, "strides": {"list": {"i": ["1", "1", "1", "1"]}}, "dilations": {"list": {"i": ["1", "1", "1", "1"]}}, "use_cudnn_on_gpu": {"b": true}, "data_format": {"s": "TkhXQw=="}}}, {"name": "StatefulPartitionedCall/rn_gm/batch_normalization_19/batchnorm/add_1", "op": "AddV2", "input": ["StatefulPartitionedCall/rn_gm/batch_normalization_19/batchnorm/mul_1", "StatefulPartitionedCall/rn_gm/batch_normalization_19/batchnorm/sub"], "attr": {"T": {"type": "DT_FLOAT"}}}, {"name": "StatefulPartitionedCall/rn_gm/Relu_19", "op": "Relu", "input": ["StatefulPartitionedCall/rn_gm/batch_normalization_19/batchnorm/add_1"], "attr": {"T": {"type": "DT_FLOAT"}}}, {"name": "StatefulPartitionedCall/rn_gm/conv2d_20/Conv2D", "op": "Conv2D", "input": ["StatefulPartitionedCall/rn_gm/Relu_19", "StatefulPartitionedCall/rn_gm/conv2d_20/Conv2D/ReadVariableOp"], "device": "/device:CPU:0", "attr": {"dilations": {"list": {"i": ["1", "1", "1", "1"]}}, "T": {"type": "DT_FLOAT"}, "explicit_paddings": {"list": {}}, "strides": {"list": {"i": ["1", "1", "1", "1"]}}, "data_format": {"s": "TkhXQw=="}, "padding": {"s": "U0FNRQ=="}, "use_cudnn_on_gpu": {"b": true}}}, {"name": "StatefulPartitionedCall/rn_gm/average_pooling2d_9/AvgPool", "op": "AvgPool", "input": ["StatefulPartitionedCall/rn_gm/conv2d_20/Conv2D"], "attr": {"ksize": {"list": {"i": ["1", "15", "15", "1"]}}, "strides": {"list": {"i": ["1", "15", "15", "1"]}}, "data_format": {"s": "TkhXQw=="}, "T": {"type": "DT_FLOAT"}, "padding": {"s": "VkFMSUQ="}}}, {"name": "StatefulPartitionedCall/rn_gm/dense_18/Tensordot/Shape", "op": "Shape", "input": ["StatefulPartitionedCall/rn_gm/average_pooling2d_9/AvgPool"], "attr": {"T": {"type": "DT_FLOAT"}, "out_type": {"type": "DT_INT32"}}}, {"name": "StatefulPartitionedCall/rn_gm/dense_18/Tensordot/GatherV2_1", "op": "GatherV2", "input": ["StatefulPartitionedCall/rn_gm/dense_18/Tensordot/Shape", "StatefulPartitionedCall/rn_gm/dense_18/Tensordot/axes", "StatefulPartitionedCall/rn_gm/dense_18/Tensordot/GatherV2_1/axis"], "attr": {"Tparams": {"type": "DT_INT32"}, "Tindices": {"type": "DT_INT32"}, "batch_dims": {"i": "0"}, "Taxis": {"type": "DT_INT32"}}}, {"name": "StatefulPartitionedCall/rn_gm/dense_18/Tensordot/GatherV2", "op": "GatherV2", "input": ["StatefulPartitionedCall/rn_gm/dense_18/Tensordot/Shape", "StatefulPartitionedCall/rn_gm/dense_18/Tensordot/free", "StatefulPartitionedCall/rn_gm/dense_18/Tensordot/GatherV2/axis"], "attr": {"batch_dims": {"i": "0"}, "Tparams": {"type": "DT_INT32"}, "Taxis": {"type": "DT_INT32"}, "Tindices": {"type": "DT_INT32"}}}, {"name": "StatefulPartitionedCall/rn_gm/dense_18/Tensordot/Prod_1", "op": "Prod", "input": ["StatefulPartitionedCall/rn_gm/dense_18/Tensordot/GatherV2_1", "StatefulPartitionedCall/rn_gm/dense_18/Tensordot/Const_1"], "attr": {"T": {"type": "DT_INT32"}, "keep_dims": {"b": false}, "Tidx": {"type": "DT_INT32"}}}, {"name": "StatefulPartitionedCall/rn_gm/dense_18/Tensordot/Prod", "op": "Prod", "input": ["StatefulPartitionedCall/rn_gm/dense_18/Tensordot/GatherV2", "StatefulPartitionedCall/rn_gm/dense_18/Tensordot/Const"], "attr": {"Tidx": {"type": "DT_INT32"}, "keep_dims": {"b": false}, "T": {"type": "DT_INT32"}}}, {"name": "StatefulPartitionedCall/rn_gm/dense_18/Tensordot/concat_1", "op": "ConcatV2", "input": ["StatefulPartitionedCall/rn_gm/dense_18/Tensordot/GatherV2", "StatefulPartitionedCall/rn_gm/dense_18/Tensordot/Const_2", "StatefulPartitionedCall/rn_gm/dense_18/Tensordot/concat_1/axis"], "attr": {"T": {"type": "DT_INT32"}, "N": {"i": "2"}, "Tidx": {"type": "DT_INT32"}}}, {"name": "StatefulPartitionedCall/rn_gm/dense_18/Tensordot/stack", "op": "Pack", "input": ["StatefulPartitionedCall/rn_gm/dense_18/Tensordot/Prod", "StatefulPartitionedCall/rn_gm/dense_18/Tensordot/Prod_1"], "attr": {"axis": {"i": "0"}, "N": {"i": "2"}, "T": {"type": "DT_INT32"}}}, {"name": "StatefulPartitionedCall/rn_gm/dense_18/Tensordot/Reshape", "op": "Reshape", "input": ["StatefulPartitionedCall/rn_gm/average_pooling2d_9/AvgPool", "StatefulPartitionedCall/rn_gm/dense_18/Tensordot/stack"], "attr": {"T": {"type": "DT_FLOAT"}, "Tshape": {"type": "DT_INT32"}}}, {"name": "StatefulPartitionedCall/rn_gm/dense_18/Tensordot/MatMul", "op": "MatMul", "input": ["StatefulPartitionedCall/rn_gm/dense_18/Tensordot/Reshape", "StatefulPartitionedCall/rn_gm/dense_18/Tensordot/ReadVariableOp"], "device": "/device:CPU:0", "attr": {"transpose_a": {"b": false}, "T": {"type": "DT_FLOAT"}, "transpose_b": {"b": false}}}, {"name": "StatefulPartitionedCall/rn_gm/dense_18/Tensordot", "op": "Reshape", "input": ["StatefulPartitionedCall/rn_gm/dense_18/Tensordot/MatMul", "StatefulPartitionedCall/rn_gm/dense_18/Tensordot/concat_1"], "attr": {"Tshape": {"type": "DT_INT32"}, "T": {"type": "DT_FLOAT"}}}, {"name": "StatefulPartitionedCall/rn_gm/dense_18/BiasAdd", "op": "BiasAdd", "input": ["StatefulPartitionedCall/rn_gm/dense_18/Tensordot", "StatefulPartitionedCall/rn_gm/dense_18/BiasAdd/ReadVariableOp"], "attr": {"T": {"type": "DT_FLOAT"}, "data_format": {"s": "TkhXQw=="}}}, {"name": "StatefulPartitionedCall/rn_gm/dense_18/Relu", "op": "Relu", "input": ["StatefulPartitionedCall/rn_gm/dense_18/BiasAdd"], "attr": {"T": {"type": "DT_FLOAT"}}}, {"name": "StatefulPartitionedCall/rn_gm/dense_19/Tensordot/Shape", "op": "Shape", "input": ["StatefulPartitionedCall/rn_gm/dense_18/Relu"], "attr": {"out_type": {"type": "DT_INT32"}, "T": {"type": "DT_FLOAT"}}}, {"name": "StatefulPartitionedCall/rn_gm/dense_19/Tensordot/GatherV2_1", "op": "GatherV2", "input": ["StatefulPartitionedCall/rn_gm/dense_19/Tensordot/Shape", "StatefulPartitionedCall/rn_gm/dense_19/Tensordot/axes", "StatefulPartitionedCall/rn_gm/dense_19/Tensordot/GatherV2_1/axis"], "attr": {"batch_dims": {"i": "0"}, "Tparams": {"type": "DT_INT32"}, "Taxis": {"type": "DT_INT32"}, "Tindices": {"type": "DT_INT32"}}}, {"name": "StatefulPartitionedCall/rn_gm/dense_19/Tensordot/GatherV2", "op": "GatherV2", "input": ["StatefulPartitionedCall/rn_gm/dense_19/Tensordot/Shape", "StatefulPartitionedCall/rn_gm/dense_19/Tensordot/free", "StatefulPartitionedCall/rn_gm/dense_19/Tensordot/GatherV2/axis"], "attr": {"Tindices": {"type": "DT_INT32"}, "Taxis": {"type": "DT_INT32"}, "Tparams": {"type": "DT_INT32"}, "batch_dims": {"i": "0"}}}, {"name": "StatefulPartitionedCall/rn_gm/dense_19/Tensordot/Prod_1", "op": "Prod", "input": ["StatefulPartitionedCall/rn_gm/dense_19/Tensordot/GatherV2_1", "StatefulPartitionedCall/rn_gm/dense_19/Tensordot/Const_1"], "attr": {"keep_dims": {"b": false}, "T": {"type": "DT_INT32"}, "Tidx": {"type": "DT_INT32"}}}, {"name": "StatefulPartitionedCall/rn_gm/dense_19/Tensordot/Prod", "op": "Prod", "input": ["StatefulPartitionedCall/rn_gm/dense_19/Tensordot/GatherV2", "StatefulPartitionedCall/rn_gm/dense_19/Tensordot/Const"], "attr": {"T": {"type": "DT_INT32"}, "keep_dims": {"b": false}, "Tidx": {"type": "DT_INT32"}}}, {"name": "StatefulPartitionedCall/rn_gm/dense_19/Tensordot/concat_1", "op": "ConcatV2", "input": ["StatefulPartitionedCall/rn_gm/dense_19/Tensordot/GatherV2", "StatefulPartitionedCall/rn_gm/dense_19/Tensordot/Const_2", "StatefulPartitionedCall/rn_gm/dense_19/Tensordot/concat_1/axis"], "attr": {"N": {"i": "2"}, "Tidx": {"type": "DT_INT32"}, "T": {"type": "DT_INT32"}}}, {"name": "StatefulPartitionedCall/rn_gm/dense_19/Tensordot/stack", "op": "Pack", "input": ["StatefulPartitionedCall/rn_gm/dense_19/Tensordot/Prod", "StatefulPartitionedCall/rn_gm/dense_19/Tensordot/Prod_1"], "attr": {"T": {"type": "DT_INT32"}, "axis": {"i": "0"}, "N": {"i": "2"}}}, {"name": "StatefulPartitionedCall/rn_gm/dense_19/Tensordot/Reshape", "op": "Reshape", "input": ["StatefulPartitionedCall/rn_gm/dense_18/Relu", "StatefulPartitionedCall/rn_gm/dense_19/Tensordot/stack"], "attr": {"T": {"type": "DT_FLOAT"}, "Tshape": {"type": "DT_INT32"}}}, {"name": "StatefulPartitionedCall/rn_gm/dense_19/Tensordot/MatMul", "op": "MatMul", "input": ["StatefulPartitionedCall/rn_gm/dense_19/Tensordot/Reshape", "StatefulPartitionedCall/rn_gm/dense_19/Tensordot/ReadVariableOp"], "device": "/device:CPU:0", "attr": {"transpose_b": {"b": false}, "transpose_a": {"b": false}, "T": {"type": "DT_FLOAT"}}}, {"name": "StatefulPartitionedCall/rn_gm/dense_19/Tensordot", "op": "Reshape", "input": ["StatefulPartitionedCall/rn_gm/dense_19/Tensordot/MatMul", "StatefulPartitionedCall/rn_gm/dense_19/Tensordot/concat_1"], "attr": {"T": {"type": "DT_FLOAT"}, "Tshape": {"type": "DT_INT32"}}}, {"name": "StatefulPartitionedCall/rn_gm/dense_19/BiasAdd", "op": "BiasAdd", "input": ["StatefulPartitionedCall/rn_gm/dense_19/Tensordot", "StatefulPartitionedCall/rn_gm/dense_19/BiasAdd/ReadVariableOp"], "attr": {"data_format": {"s": "TkhXQw=="}, "T": {"type": "DT_FLOAT"}}}, {"name": "StatefulPartitionedCall/rn_gm/dense_19/Sigmoid", "op": "Sigmoid", "input": ["StatefulPartitionedCall/rn_gm/dense_19/BiasAdd"], "attr": {"T": {"type": "DT_FLOAT"}}}, {"name": "StatefulPartitionedCall/rn_gm/mul_9", "op": "Mul", "input": ["StatefulPartitionedCall/rn_gm/batch_normalization_20/batchnorm/mul", "StatefulPartitionedCall/rn_gm/dense_19/Sigmoid"], "attr": {"T": {"type": "DT_FLOAT"}}}, {"name": "StatefulPartitionedCall/rn_gm/batch_normalization_20/batchnorm/mul_1", "op": "Mul", "input": ["StatefulPartitionedCall/rn_gm/conv2d_20/Conv2D", "StatefulPartitionedCall/rn_gm/mul_9"], "attr": {"T": {"type": "DT_FLOAT"}}}, {"name": "StatefulPartitionedCall/rn_gm/batch_normalization_20/batchnorm/add_1", "op": "AddV2", "input": ["StatefulPartitionedCall/rn_gm/batch_normalization_20/batchnorm/mul_1", "StatefulPartitionedCall/rn_gm/batch_normalization_20/batchnorm/sub"], "attr": {"T": {"type": "DT_FLOAT"}}}, {"name": "StatefulPartitionedCall/rn_gm/add_9", "op": "AddV2", "input": ["StatefulPartitionedCall/rn_gm/Relu_18", "StatefulPartitionedCall/rn_gm/batch_normalization_20/batchnorm/add_1"], "attr": {"T": {"type": "DT_FLOAT"}}}, {"name": "StatefulPartitionedCall/rn_gm/Relu_20", "op": "Relu", "input": ["StatefulPartitionedCall/rn_gm/add_9"], "attr": {"T": {"type": "DT_FLOAT"}}}, {"name": "StatefulPartitionedCall/rn_gm/conv2d_21/BiasAdd", "op": "_FusedConv2D", "input": ["StatefulPartitionedCall/rn_gm/Relu_20", "StatefulPartitionedCall/rn_gm/conv2d_21/Conv2D/ReadVariableOp", "StatefulPartitionedCall/rn_gm/conv2d_21/BiasAdd/ReadVariableOp"], "device": "/device:CPU:0", "attr": {"epsilon": {"f": 0.0}, "dilations": {"list": {"i": ["1", "1", "1", "1"]}}, "T": {"type": "DT_FLOAT"}, "data_format": {"s": "TkhXQw=="}, "num_args": {"i": "1"}, "strides": {"list": {"i": ["1", "1", "1", "1"]}}, "explicit_paddings": {"list": {}}, "use_cudnn_on_gpu": {"b": true}, "padding": {"s": "U0FNRQ=="}, "fused_ops": {"list": {"s": ["Qmlhc0FkZA=="]}}}}, {"name": "StatefulPartitionedCall/rn_gm/conv2d_23/BiasAdd", "op": "_FusedConv2D", "input": ["StatefulPartitionedCall/rn_gm/Relu_20", "StatefulPartitionedCall/rn_gm/conv2d_23/Conv2D/ReadVariableOp", "StatefulPartitionedCall/rn_gm/conv2d_23/BiasAdd/ReadVariableOp"], "device": "/device:CPU:0", "attr": {"explicit_paddings": {"list": {}}, "dilations": {"list": {"i": ["1", "1", "1", "1"]}}, "T": {"type": "DT_FLOAT"}, "data_format": {"s": "TkhXQw=="}, "num_args": {"i": "1"}, "use_cudnn_on_gpu": {"b": true}, "padding": {"s": "U0FNRQ=="}, "epsilon": {"f": 0.0}, "fused_ops": {"list": {"s": ["Qmlhc0FkZA=="]}}, "strides": {"list": {"i": ["1", "1", "1", "1"]}}}}, {"name": "StatefulPartitionedCall/rn_gm/conv2d_22/BiasAdd", "op": "_FusedConv2D", "input": ["StatefulPartitionedCall/rn_gm/conv2d_21/BiasAdd", "StatefulPartitionedCall/rn_gm/conv2d_22/Conv2D/ReadVariableOp", "StatefulPartitionedCall/rn_gm/conv2d_22/BiasAdd/ReadVariableOp"], "device": "/device:CPU:0", "attr": {"strides": {"list": {"i": ["1", "1", "1", "1"]}}, "epsilon": {"f": 0.0}, "data_format": {"s": "TkhXQw=="}, "use_cudnn_on_gpu": {"b": true}, "fused_ops": {"list": {"s": ["Qmlhc0FkZA=="]}}, "padding": {"s": "U0FNRQ=="}, "dilations": {"list": {"i": ["1", "1", "1", "1"]}}, "T": {"type": "DT_FLOAT"}, "explicit_paddings": {"list": {}}, "num_args": {"i": "1"}}}, {"name": "StatefulPartitionedCall/rn_gm/flatten/Reshape", "op": "Reshape", "input": ["StatefulPartitionedCall/rn_gm/conv2d_23/BiasAdd", "StatefulPartitionedCall/rn_gm/flatten/Const"], "attr": {"T": {"type": "DT_FLOAT"}, "Tshape": {"type": "DT_INT32"}}}, {"name": "StatefulPartitionedCall/rn_gm/flatten_1/Reshape", "op": "Reshape", "input": ["StatefulPartitionedCall/rn_gm/conv2d_22/BiasAdd", "StatefulPartitionedCall/rn_gm/flatten_1/Const"], "attr": {"T": {"type": "DT_FLOAT"}, "Tshape": {"type": "DT_INT32"}}}, {"name": "StatefulPartitionedCall/rn_gm/dense_20/MatMul", "op": "MatMul", "input": ["StatefulPartitionedCall/rn_gm/flatten/Reshape", "StatefulPartitionedCall/rn_gm/dense_20/MatMul/ReadVariableOp"], "device": "/device:CPU:0", "attr": {"T": {"type": "DT_FLOAT"}, "transpose_b": {"b": false}, "transpose_a": {"b": false}}}, {"name": "StatefulPartitionedCall/rn_gm/Softmax", "op": "Softmax", "input": ["StatefulPartitionedCall/rn_gm/flatten_1/Reshape"], "attr": {"T": {"type": "DT_FLOAT"}}}, {"name": "StatefulPartitionedCall/rn_gm/batch_normalization_21/batchnorm/mul_1", "op": "Mul", "input": ["StatefulPartitionedCall/rn_gm/dense_20/MatMul", "StatefulPartitionedCall/rn_gm/batch_normalization_21/batchnorm/mul"], "attr": {"T": {"type": "DT_FLOAT"}}}, {"name": "StatefulPartitionedCall/rn_gm/batch_normalization_21/batchnorm/add_1", "op": "AddV2", "input": ["StatefulPartitionedCall/rn_gm/batch_normalization_21/batchnorm/mul_1", "StatefulPartitionedCall/rn_gm/batch_normalization_21/batchnorm/sub"], "attr": {"T": {"type": "DT_FLOAT"}}}, {"name": "StatefulPartitionedCall/rn_gm/Relu_21", "op": "Relu", "input": ["StatefulPartitionedCall/rn_gm/batch_normalization_21/batchnorm/add_1"], "attr": {"T": {"type": "DT_FLOAT"}}}, {"name": "StatefulPartitionedCall/rn_gm/dense_21/BiasAdd", "op": "_FusedMatMul", "input": ["StatefulPartitionedCall/rn_gm/Relu_21", "StatefulPartitionedCall/rn_gm/dense_21/MatMul/ReadVariableOp", "StatefulPartitionedCall/rn_gm/dense_21/BiasAdd/ReadVariableOp"], "device": "/device:CPU:0", "attr": {"num_args": {"i": "1"}, "transpose_b": {"b": false}, "T": {"type": "DT_FLOAT"}, "epsilon": {"f": 0.0}, "transpose_a": {"b": false}, "fused_ops": {"list": {"s": ["Qmlhc0FkZA=="]}}}}, {"name": "StatefulPartitionedCall/rn_gm/dense_21/Sigmoid", "op": "Sigmoid", "input": ["StatefulPartitionedCall/rn_gm/dense_21/BiasAdd"], "attr": {"T": {"type": "DT_FLOAT"}}}, {"name": "StatefulPartitionedCall/rn_gm/concatenate/concat", "op": "ConcatV2", "input": ["StatefulPartitionedCall/rn_gm/Softmax", "StatefulPartitionedCall/rn_gm/dense_21/Sigmoid", "StatefulPartitionedCall/rn_gm/concatenate/concat/axis"], "attr": {"N": {"i": "2"}, "Tidx": {"type": "DT_INT32"}, "T": {"type": "DT_FLOAT"}}}, {"name": "Identity", "op": "Identity", "input": ["StatefulPartitionedCall/rn_gm/concatenate/concat"], "attr": {"T": {"type": "DT_FLOAT"}}}], "library": {}, "versions": {"producer": 561}}, "weightsManifest": [{"paths": ["group1-shard1of2.bin", "group1-shard2of2.bin"], "weights": [{"name": "StatefulPartitionedCall/rn_gm/conv2d_21/Conv2D/ReadVariableOp", "shape": [3, 3, 64, 64], "dtype": "float32"}, {"name": "StatefulPartitionedCall/rn_gm/conv2d_21/BiasAdd/ReadVariableOp", "shape": [64], "dtype": "float32"}, {"name": "StatefulPartitionedCall/rn_gm/conv2d_22/Conv2D/ReadVariableOp", "shape": [3, 3, 64, 1], "dtype": "float32"}, {"name": "StatefulPartitionedCall/rn_gm/conv2d_22/BiasAdd/ReadVariableOp", "shape": [1], "dtype": "float32"}, {"name": "StatefulPartitionedCall/rn_gm/flatten_1/Const", "shape": [2], "dtype": "int32"}, {"name": "StatefulPartitionedCall/rn_gm/batch_normalization_20/batchnorm/mul", "shape": [64], "dtype": "float32"}, {"name": "StatefulPartitionedCall/rn_gm/dense_19/Tensordot/Const", "shape": [1], "dtype": "int32"}, {"name": "StatefulPartitionedCall/rn_gm/dense_19/Tensordot/axes", "shape": [1], "dtype": "int32"}, {"name": "StatefulPartitionedCall/rn_gm/dense_19/Tensordot/GatherV2_1/axis", "shape": [], "dtype": "int32"}, {"name": "StatefulPartitionedCall/rn_gm/dense_19/Tensordot/Const_1", "shape": [1], "dtype": "int32"}, {"name": "StatefulPartitionedCall/rn_gm/dense_19/Tensordot/ReadVariableOp", "shape": [32, 64], "dtype": "float32"}, {"name": "StatefulPartitionedCall/rn_gm/dense_18/Tensordot/Const", "shape": [1], "dtype": "int32"}, {"name": "StatefulPartitionedCall/rn_gm/dense_18/Tensordot/axes", "shape": [1], "dtype": "int32"}, {"name": "StatefulPartitionedCall/rn_gm/dense_18/Tensordot/GatherV2_1/axis", "shape": [], "dtype": "int32"}, {"name": "StatefulPartitionedCall/rn_gm/dense_18/Tensordot/Const_1", "shape": [1], "dtype": "int32"}, {"name": "StatefulPartitionedCall/rn_gm/dense_18/Tensordot/ReadVariableOp", "shape": [64, 32], "dtype": "float32"}, {"name": "StatefulPartitionedCall/rn_gm/batch_normalization_18/batchnorm/mul", "shape": [64], "dtype": "float32"}, {"name": "StatefulPartitionedCall/rn_gm/dense_17/Tensordot/Const", "shape": [1], "dtype": "int32"}, {"name": "StatefulPartitionedCall/rn_gm/dense_17/Tensordot/axes", "shape": [1], "dtype": "int32"}, {"name": "StatefulPartitionedCall/rn_gm/dense_17/Tensordot/GatherV2_1/axis", "shape": [], "dtype": "int32"}, {"name": "StatefulPartitionedCall/rn_gm/dense_17/Tensordot/Const_1", "shape": [1], "dtype": "int32"}, {"name": "StatefulPartitionedCall/rn_gm/dense_17/Tensordot/ReadVariableOp", "shape": [32, 64], "dtype": "float32"}, {"name": "StatefulPartitionedCall/rn_gm/dense_16/Tensordot/Const", "shape": [1], "dtype": "int32"}, {"name": "StatefulPartitionedCall/rn_gm/dense_16/Tensordot/axes", "shape": [1], "dtype": "int32"}, {"name": "StatefulPartitionedCall/rn_gm/dense_16/Tensordot/GatherV2_1/axis", "shape": [], "dtype": "int32"}, {"name": "StatefulPartitionedCall/rn_gm/dense_16/Tensordot/Const_1", "shape": [1], "dtype": "int32"}, {"name": "StatefulPartitionedCall/rn_gm/dense_16/Tensordot/ReadVariableOp", "shape": [64, 32], "dtype": "float32"}, {"name": "StatefulPartitionedCall/rn_gm/batch_normalization_16/batchnorm/mul", "shape": [64], "dtype": "float32"}, {"name": "StatefulPartitionedCall/rn_gm/dense_15/Tensordot/Const", "shape": [1], "dtype": "int32"}, {"name": "StatefulPartitionedCall/rn_gm/dense_15/Tensordot/axes", "shape": [1], "dtype": "int32"}, {"name": "StatefulPartitionedCall/rn_gm/dense_15/Tensordot/GatherV2_1/axis", "shape": [], "dtype": "int32"}, {"name": "StatefulPartitionedCall/rn_gm/dense_15/Tensordot/Const_1", "shape": [1], "dtype": "int32"}, {"name": "StatefulPartitionedCall/rn_gm/dense_15/Tensordot/ReadVariableOp", "shape": [32, 64], "dtype": "float32"}, {"name": "StatefulPartitionedCall/rn_gm/dense_14/Tensordot/Const", "shape": [1], "dtype": "int32"}, {"name": "StatefulPartitionedCall/rn_gm/dense_14/Tensordot/axes", "shape": [1], "dtype": "int32"}, {"name": "StatefulPartitionedCall/rn_gm/dense_14/Tensordot/GatherV2_1/axis", "shape": [], "dtype": "int32"}, {"name": "StatefulPartitionedCall/rn_gm/dense_14/Tensordot/Const_1", "shape": [1], "dtype": "int32"}, {"name": "StatefulPartitionedCall/rn_gm/dense_14/Tensordot/ReadVariableOp", "shape": [64, 32], "dtype": "float32"}, {"name": "StatefulPartitionedCall/rn_gm/batch_normalization_14/batchnorm/mul", "shape": [64], "dtype": "float32"}, {"name": "StatefulPartitionedCall/rn_gm/dense_13/Tensordot/Const", "shape": [1], "dtype": "int32"}, {"name": "StatefulPartitionedCall/rn_gm/dense_13/Tensordot/axes", "shape": [1], "dtype": "int32"}, {"name": "StatefulPartitionedCall/rn_gm/dense_13/Tensordot/GatherV2_1/axis", "shape": [], "dtype": "int32"}, {"name": "StatefulPartitionedCall/rn_gm/dense_13/Tensordot/Const_1", "shape": [1], "dtype": "int32"}, {"name": "StatefulPartitionedCall/rn_gm/dense_13/Tensordot/ReadVariableOp", "shape": [32, 64], "dtype": "float32"}, {"name": "StatefulPartitionedCall/rn_gm/dense_12/Tensordot/Const", "shape": [1], "dtype": "int32"}, {"name": "StatefulPartitionedCall/rn_gm/dense_12/Tensordot/axes", "shape": [1], "dtype": "int32"}, {"name": "StatefulPartitionedCall/rn_gm/dense_12/Tensordot/GatherV2_1/axis", "shape": [], "dtype": "int32"}, {"name": "StatefulPartitionedCall/rn_gm/dense_12/Tensordot/Const_1", "shape": [1], "dtype": "int32"}, {"name": "StatefulPartitionedCall/rn_gm/dense_12/Tensordot/ReadVariableOp", "shape": [64, 32], "dtype": "float32"}, {"name": "StatefulPartitionedCall/rn_gm/batch_normalization_12/batchnorm/mul", "shape": [64], "dtype": "float32"}, {"name": "StatefulPartitionedCall/rn_gm/dense_11/Tensordot/Const", "shape": [1], "dtype": "int32"}, {"name": "StatefulPartitionedCall/rn_gm/dense_11/Tensordot/axes", "shape": [1], "dtype": "int32"}, {"name": "StatefulPartitionedCall/rn_gm/dense_11/Tensordot/GatherV2_1/axis", "shape": [], "dtype": "int32"}, {"name": "StatefulPartitionedCall/rn_gm/dense_11/Tensordot/Const_1", "shape": [1], "dtype": "int32"}, {"name": "StatefulPartitionedCall/rn_gm/dense_11/Tensordot/ReadVariableOp", "shape": [32, 64], "dtype": "float32"}, {"name": "StatefulPartitionedCall/rn_gm/dense_10/Tensordot/Const", "shape": [1], "dtype": "int32"}, {"name": "StatefulPartitionedCall/rn_gm/dense_10/Tensordot/axes", "shape": [1], "dtype": "int32"}, {"name": "StatefulPartitionedCall/rn_gm/dense_10/Tensordot/GatherV2_1/axis", "shape": [], "dtype": "int32"}, {"name": "StatefulPartitionedCall/rn_gm/dense_10/Tensordot/Const_1", "shape": [1], "dtype": "int32"}, {"name": "StatefulPartitionedCall/rn_gm/dense_10/Tensordot/ReadVariableOp", "shape": [64, 32], "dtype": "float32"}, {"name": "StatefulPartitionedCall/rn_gm/batch_normalization_10/batchnorm/mul", "shape": [64], "dtype": "float32"}, {"name": "StatefulPartitionedCall/rn_gm/dense_9/Tensordot/Const", "shape": [1], "dtype": "int32"}, {"name": "StatefulPartitionedCall/rn_gm/dense_9/Tensordot/axes", "shape": [1], "dtype": "int32"}, {"name": "StatefulPartitionedCall/rn_gm/dense_9/Tensordot/GatherV2_1/axis", "shape": [], "dtype": "int32"}, {"name": "StatefulPartitionedCall/rn_gm/dense_9/Tensordot/Const_1", "shape": [1], "dtype": "int32"}, {"name": "StatefulPartitionedCall/rn_gm/dense_9/Tensordot/ReadVariableOp", "shape": [32, 64], "dtype": "float32"}, {"name": "StatefulPartitionedCall/rn_gm/dense_8/Tensordot/Const", "shape": [1], "dtype": "int32"}, {"name": "StatefulPartitionedCall/rn_gm/dense_8/Tensordot/axes", "shape": [1], "dtype": "int32"}, {"name": "StatefulPartitionedCall/rn_gm/dense_8/Tensordot/GatherV2_1/axis", "shape": [], "dtype": "int32"}, {"name": "StatefulPartitionedCall/rn_gm/dense_8/Tensordot/Const_1", "shape": [1], "dtype": "int32"}, {"name": "StatefulPartitionedCall/rn_gm/dense_8/Tensordot/ReadVariableOp", "shape": [64, 32], "dtype": "float32"}, {"name": "StatefulPartitionedCall/rn_gm/batch_normalization_8/batchnorm/mul", "shape": [64], "dtype": "float32"}, {"name": "StatefulPartitionedCall/rn_gm/dense_7/Tensordot/Const", "shape": [1], "dtype": "int32"}, {"name": "StatefulPartitionedCall/rn_gm/dense_7/Tensordot/axes", "shape": [1], "dtype": "int32"}, {"name": "StatefulPartitionedCall/rn_gm/dense_7/Tensordot/GatherV2_1/axis", "shape": [], "dtype": "int32"}, {"name": "StatefulPartitionedCall/rn_gm/dense_7/Tensordot/Const_1", "shape": [1], "dtype": "int32"}, {"name": "StatefulPartitionedCall/rn_gm/dense_7/Tensordot/ReadVariableOp", "shape": [32, 64], "dtype": "float32"}, {"name": "StatefulPartitionedCall/rn_gm/dense_6/Tensordot/Const", "shape": [1], "dtype": "int32"}, {"name": "StatefulPartitionedCall/rn_gm/dense_6/Tensordot/axes", "shape": [1], "dtype": "int32"}, {"name": "StatefulPartitionedCall/rn_gm/dense_6/Tensordot/GatherV2_1/axis", "shape": [], "dtype": "int32"}, {"name": "StatefulPartitionedCall/rn_gm/dense_6/Tensordot/Const_1", "shape": [1], "dtype": "int32"}, {"name": "StatefulPartitionedCall/rn_gm/dense_6/Tensordot/ReadVariableOp", "shape": [64, 32], "dtype": "float32"}, {"name": "StatefulPartitionedCall/rn_gm/batch_normalization_6/batchnorm/mul", "shape": [64], "dtype": "float32"}, {"name": "StatefulPartitionedCall/rn_gm/dense_5/Tensordot/Const", "shape": [1], "dtype": "int32"}, {"name": "StatefulPartitionedCall/rn_gm/dense_5/Tensordot/axes", "shape": [1], "dtype": "int32"}, {"name": "StatefulPartitionedCall/rn_gm/dense_5/Tensordot/GatherV2_1/axis", "shape": [], "dtype": "int32"}, {"name": "StatefulPartitionedCall/rn_gm/dense_5/Tensordot/Const_1", "shape": [1], "dtype": "int32"}, {"name": "StatefulPartitionedCall/rn_gm/dense_5/Tensordot/ReadVariableOp", "shape": [32, 64], "dtype": "float32"}, {"name": "StatefulPartitionedCall/rn_gm/dense_4/Tensordot/Const", "shape": [1], "dtype": "int32"}, {"name": "StatefulPartitionedCall/rn_gm/dense_4/Tensordot/axes", "shape": [1], "dtype": "int32"}, {"name": "StatefulPartitionedCall/rn_gm/dense_4/Tensordot/GatherV2_1/axis", "shape": [], "dtype": "int32"}, {"name": "StatefulPartitionedCall/rn_gm/dense_4/Tensordot/Const_1", "shape": [1], "dtype": "int32"}, {"name": "StatefulPartitionedCall/rn_gm/dense_4/Tensordot/ReadVariableOp", "shape": [64, 32], "dtype": "float32"}, {"name": "StatefulPartitionedCall/rn_gm/batch_normalization_4/batchnorm/mul", "shape": [64], "dtype": "float32"}, {"name": "StatefulPartitionedCall/rn_gm/dense_3/Tensordot/Const", "shape": [1], "dtype": "int32"}, {"name": "StatefulPartitionedCall/rn_gm/dense_3/Tensordot/axes", "shape": [1], "dtype": "int32"}, {"name": "StatefulPartitionedCall/rn_gm/dense_3/Tensordot/GatherV2_1/axis", "shape": [], "dtype": "int32"}, {"name": "StatefulPartitionedCall/rn_gm/dense_3/Tensordot/Const_1", "shape": [1], "dtype": "int32"}, {"name": "StatefulPartitionedCall/rn_gm/dense_3/Tensordot/ReadVariableOp", "shape": [32, 64], "dtype": "float32"}, {"name": "StatefulPartitionedCall/rn_gm/dense_2/Tensordot/Const", "shape": [1], "dtype": "int32"}, {"name": "StatefulPartitionedCall/rn_gm/dense_2/Tensordot/axes", "shape": [1], "dtype": "int32"}, {"name": "StatefulPartitionedCall/rn_gm/dense_2/Tensordot/GatherV2_1/axis", "shape": [], "dtype": "int32"}, {"name": "StatefulPartitionedCall/rn_gm/dense_2/Tensordot/Const_1", "shape": [1], "dtype": "int32"}, {"name": "StatefulPartitionedCall/rn_gm/dense_2/Tensordot/ReadVariableOp", "shape": [64, 32], "dtype": "float32"}, {"name": "StatefulPartitionedCall/rn_gm/batch_normalization_2/batchnorm/mul", "shape": [64], "dtype": "float32"}, {"name": "StatefulPartitionedCall/rn_gm/dense_1/Tensordot/Const", "shape": [1], "dtype": "int32"}, {"name": "StatefulPartitionedCall/rn_gm/dense_1/Tensordot/axes", "shape": [1], "dtype": "int32"}, {"name": "StatefulPartitionedCall/rn_gm/dense_1/Tensordot/GatherV2_1/axis", "shape": [], "dtype": "int32"}, {"name": "StatefulPartitionedCall/rn_gm/dense_1/Tensordot/Const_1", "shape": [1], "dtype": "int32"}, {"name": "StatefulPartitionedCall/rn_gm/dense_1/Tensordot/ReadVariableOp", "shape": [32, 64], "dtype": "float32"}, {"name": "StatefulPartitionedCall/rn_gm/dense/Tensordot/Const", "shape": [1], "dtype": "int32"}, {"name": "StatefulPartitionedCall/rn_gm/dense/Tensordot/axes", "shape": [1], "dtype": "int32"}, {"name": "StatefulPartitionedCall/rn_gm/dense/Tensordot/GatherV2_1/axis", "shape": [], "dtype": "int32"}, {"name": "StatefulPartitionedCall/rn_gm/dense/Tensordot/Const_1", "shape": [1], "dtype": "int32"}, {"name": "StatefulPartitionedCall/rn_gm/dense/Tensordot/ReadVariableOp", "shape": [64, 32], "dtype": "float32"}, {"name": "StatefulPartitionedCall/rn_gm/conv2d/Conv2D/merged_input", "shape": [3, 3, 2, 64], "dtype": "float32"}, {"name": "StatefulPartitionedCall/rn_gm/batch_normalization/batchnorm/sub", "shape": [64], "dtype": "float32"}, {"name": "StatefulPartitionedCall/rn_gm/conv2d_1/Conv2D/merged_input", "shape": [3, 3, 64, 64], "dtype": "float32"}, {"name": "StatefulPartitionedCall/rn_gm/batch_normalization_1/batchnorm/sub", "shape": [64], "dtype": "float32"}, {"name": "StatefulPartitionedCall/rn_gm/conv2d_2/Conv2D/ReadVariableOp", "shape": [3, 3, 64, 64], "dtype": "float32"}, {"name": "StatefulPartitionedCall/rn_gm/dense/Tensordot/free", "shape": [3], "dtype": "int32"}, {"name": "StatefulPartitionedCall/rn_gm/dense/Tensordot/GatherV2/axis", "shape": [], "dtype": "int32"}, {"name": "StatefulPartitionedCall/rn_gm/dense/Tensordot/Const_2", "shape": [1], "dtype": "int32"}, {"name": "StatefulPartitionedCall/rn_gm/dense/Tensordot/concat_1/axis", "shape": [], "dtype": "int32"}, {"name": "StatefulPartitionedCall/rn_gm/dense/BiasAdd/ReadVariableOp", "shape": [32], "dtype": "float32"}, {"name": "StatefulPartitionedCall/rn_gm/dense_1/Tensordot/free", "shape": [3], "dtype": "int32"}, {"name": "StatefulPartitionedCall/rn_gm/dense_1/Tensordot/GatherV2/axis", "shape": [], "dtype": "int32"}, {"name": "StatefulPartitionedCall/rn_gm/dense_1/Tensordot/Const_2", "shape": [1], "dtype": "int32"}, {"name": "StatefulPartitionedCall/rn_gm/dense_1/Tensordot/concat_1/axis", "shape": [], "dtype": "int32"}, {"name": "StatefulPartitionedCall/rn_gm/dense_1/BiasAdd/ReadVariableOp", "shape": [64], "dtype": "float32"}, {"name": "StatefulPartitionedCall/rn_gm/batch_normalization_2/batchnorm/sub", "shape": [64], "dtype": "float32"}, {"name": "StatefulPartitionedCall/rn_gm/conv2d_3/Conv2D/merged_input", "shape": [3, 3, 64, 64], "dtype": "float32"}, {"name": "StatefulPartitionedCall/rn_gm/batch_normalization_3/batchnorm/sub", "shape": [64], "dtype": "float32"}, {"name": "StatefulPartitionedCall/rn_gm/conv2d_4/Conv2D/ReadVariableOp", "shape": [3, 3, 64, 64], "dtype": "float32"}, {"name": "StatefulPartitionedCall/rn_gm/dense_2/Tensordot/free", "shape": [3], "dtype": "int32"}, {"name": "StatefulPartitionedCall/rn_gm/dense_2/Tensordot/GatherV2/axis", "shape": [], "dtype": "int32"}, {"name": "StatefulPartitionedCall/rn_gm/dense_2/Tensordot/Const_2", "shape": [1], "dtype": "int32"}, {"name": "StatefulPartitionedCall/rn_gm/dense_2/Tensordot/concat_1/axis", "shape": [], "dtype": "int32"}, {"name": "StatefulPartitionedCall/rn_gm/dense_2/BiasAdd/ReadVariableOp", "shape": [32], "dtype": "float32"}, {"name": "StatefulPartitionedCall/rn_gm/dense_3/Tensordot/free", "shape": [3], "dtype": "int32"}, {"name": "StatefulPartitionedCall/rn_gm/dense_3/Tensordot/GatherV2/axis", "shape": [], "dtype": "int32"}, {"name": "StatefulPartitionedCall/rn_gm/dense_3/Tensordot/Const_2", "shape": [1], "dtype": "int32"}, {"name": "StatefulPartitionedCall/rn_gm/dense_3/Tensordot/concat_1/axis", "shape": [], "dtype": "int32"}, {"name": "StatefulPartitionedCall/rn_gm/dense_3/BiasAdd/ReadVariableOp", "shape": [64], "dtype": "float32"}, {"name": "StatefulPartitionedCall/rn_gm/batch_normalization_4/batchnorm/sub", "shape": [64], "dtype": "float32"}, {"name": "StatefulPartitionedCall/rn_gm/conv2d_5/Conv2D/merged_input", "shape": [3, 3, 64, 64], "dtype": "float32"}, {"name": "StatefulPartitionedCall/rn_gm/batch_normalization_5/batchnorm/sub", "shape": [64], "dtype": "float32"}, {"name": "StatefulPartitionedCall/rn_gm/conv2d_6/Conv2D/ReadVariableOp", "shape": [3, 3, 64, 64], "dtype": "float32"}, {"name": "StatefulPartitionedCall/rn_gm/dense_4/Tensordot/free", "shape": [3], "dtype": "int32"}, {"name": "StatefulPartitionedCall/rn_gm/dense_4/Tensordot/GatherV2/axis", "shape": [], "dtype": "int32"}, {"name": "StatefulPartitionedCall/rn_gm/dense_4/Tensordot/Const_2", "shape": [1], "dtype": "int32"}, {"name": "StatefulPartitionedCall/rn_gm/dense_4/Tensordot/concat_1/axis", "shape": [], "dtype": "int32"}, {"name": "StatefulPartitionedCall/rn_gm/dense_4/BiasAdd/ReadVariableOp", "shape": [32], "dtype": "float32"}, {"name": "StatefulPartitionedCall/rn_gm/dense_5/Tensordot/free", "shape": [3], "dtype": "int32"}, {"name": "StatefulPartitionedCall/rn_gm/dense_5/Tensordot/GatherV2/axis", "shape": [], "dtype": "int32"}, {"name": "StatefulPartitionedCall/rn_gm/dense_5/Tensordot/Const_2", "shape": [1], "dtype": "int32"}, {"name": "StatefulPartitionedCall/rn_gm/dense_5/Tensordot/concat_1/axis", "shape": [], "dtype": "int32"}, {"name": "StatefulPartitionedCall/rn_gm/dense_5/BiasAdd/ReadVariableOp", "shape": [64], "dtype": "float32"}, {"name": "StatefulPartitionedCall/rn_gm/batch_normalization_6/batchnorm/sub", "shape": [64], "dtype": "float32"}, {"name": "StatefulPartitionedCall/rn_gm/conv2d_7/Conv2D/merged_input", "shape": [3, 3, 64, 64], "dtype": "float32"}, {"name": "StatefulPartitionedCall/rn_gm/batch_normalization_7/batchnorm/sub", "shape": [64], "dtype": "float32"}, {"name": "StatefulPartitionedCall/rn_gm/conv2d_8/Conv2D/ReadVariableOp", "shape": [3, 3, 64, 64], "dtype": "float32"}, {"name": "StatefulPartitionedCall/rn_gm/dense_6/Tensordot/free", "shape": [3], "dtype": "int32"}, {"name": "StatefulPartitionedCall/rn_gm/dense_6/Tensordot/GatherV2/axis", "shape": [], "dtype": "int32"}, {"name": "StatefulPartitionedCall/rn_gm/dense_6/Tensordot/Const_2", "shape": [1], "dtype": "int32"}, {"name": "StatefulPartitionedCall/rn_gm/dense_6/Tensordot/concat_1/axis", "shape": [], "dtype": "int32"}, {"name": "StatefulPartitionedCall/rn_gm/dense_6/BiasAdd/ReadVariableOp", "shape": [32], "dtype": "float32"}, {"name": "StatefulPartitionedCall/rn_gm/dense_7/Tensordot/free", "shape": [3], "dtype": "int32"}, {"name": "StatefulPartitionedCall/rn_gm/dense_7/Tensordot/GatherV2/axis", "shape": [], "dtype": "int32"}, {"name": "StatefulPartitionedCall/rn_gm/dense_7/Tensordot/Const_2", "shape": [1], "dtype": "int32"}, {"name": "StatefulPartitionedCall/rn_gm/dense_7/Tensordot/concat_1/axis", "shape": [], "dtype": "int32"}, {"name": "StatefulPartitionedCall/rn_gm/dense_7/BiasAdd/ReadVariableOp", "shape": [64], "dtype": "float32"}, {"name": "StatefulPartitionedCall/rn_gm/batch_normalization_8/batchnorm/sub", "shape": [64], "dtype": "float32"}, {"name": "StatefulPartitionedCall/rn_gm/conv2d_9/Conv2D/merged_input", "shape": [3, 3, 64, 64], "dtype": "float32"}, {"name": "StatefulPartitionedCall/rn_gm/batch_normalization_9/batchnorm/sub", "shape": [64], "dtype": "float32"}, {"name": "StatefulPartitionedCall/rn_gm/conv2d_10/Conv2D/ReadVariableOp", "shape": [3, 3, 64, 64], "dtype": "float32"}, {"name": "StatefulPartitionedCall/rn_gm/dense_8/Tensordot/free", "shape": [3], "dtype": "int32"}, {"name": "StatefulPartitionedCall/rn_gm/dense_8/Tensordot/GatherV2/axis", "shape": [], "dtype": "int32"}, {"name": "StatefulPartitionedCall/rn_gm/dense_8/Tensordot/Const_2", "shape": [1], "dtype": "int32"}, {"name": "StatefulPartitionedCall/rn_gm/dense_8/Tensordot/concat_1/axis", "shape": [], "dtype": "int32"}, {"name": "StatefulPartitionedCall/rn_gm/dense_8/BiasAdd/ReadVariableOp", "shape": [32], "dtype": "float32"}, {"name": "StatefulPartitionedCall/rn_gm/dense_9/Tensordot/free", "shape": [3], "dtype": "int32"}, {"name": "StatefulPartitionedCall/rn_gm/dense_9/Tensordot/GatherV2/axis", "shape": [], "dtype": "int32"}, {"name": "StatefulPartitionedCall/rn_gm/dense_9/Tensordot/Const_2", "shape": [1], "dtype": "int32"}, {"name": "StatefulPartitionedCall/rn_gm/dense_9/Tensordot/concat_1/axis", "shape": [], "dtype": "int32"}, {"name": "StatefulPartitionedCall/rn_gm/dense_9/BiasAdd/ReadVariableOp", "shape": [64], "dtype": "float32"}, {"name": "StatefulPartitionedCall/rn_gm/batch_normalization_10/batchnorm/sub", "shape": [64], "dtype": "float32"}, {"name": "StatefulPartitionedCall/rn_gm/conv2d_11/Conv2D/merged_input", "shape": [3, 3, 64, 64], "dtype": "float32"}, {"name": "StatefulPartitionedCall/rn_gm/batch_normalization_11/batchnorm/sub", "shape": [64], "dtype": "float32"}, {"name": "StatefulPartitionedCall/rn_gm/conv2d_12/Conv2D/ReadVariableOp", "shape": [3, 3, 64, 64], "dtype": "float32"}, {"name": "StatefulPartitionedCall/rn_gm/dense_10/Tensordot/free", "shape": [3], "dtype": "int32"}, {"name": "StatefulPartitionedCall/rn_gm/dense_10/Tensordot/GatherV2/axis", "shape": [], "dtype": "int32"}, {"name": "StatefulPartitionedCall/rn_gm/dense_10/Tensordot/Const_2", "shape": [1], "dtype": "int32"}, {"name": "StatefulPartitionedCall/rn_gm/dense_10/Tensordot/concat_1/axis", "shape": [], "dtype": "int32"}, {"name": "StatefulPartitionedCall/rn_gm/dense_10/BiasAdd/ReadVariableOp", "shape": [32], "dtype": "float32"}, {"name": "StatefulPartitionedCall/rn_gm/dense_11/Tensordot/free", "shape": [3], "dtype": "int32"}, {"name": "StatefulPartitionedCall/rn_gm/dense_11/Tensordot/GatherV2/axis", "shape": [], "dtype": "int32"}, {"name": "StatefulPartitionedCall/rn_gm/dense_11/Tensordot/Const_2", "shape": [1], "dtype": "int32"}, {"name": "StatefulPartitionedCall/rn_gm/dense_11/Tensordot/concat_1/axis", "shape": [], "dtype": "int32"}, {"name": "StatefulPartitionedCall/rn_gm/dense_11/BiasAdd/ReadVariableOp", "shape": [64], "dtype": "float32"}, {"name": "StatefulPartitionedCall/rn_gm/batch_normalization_12/batchnorm/sub", "shape": [64], "dtype": "float32"}, {"name": "StatefulPartitionedCall/rn_gm/conv2d_13/Conv2D/merged_input", "shape": [3, 3, 64, 64], "dtype": "float32"}, {"name": "StatefulPartitionedCall/rn_gm/batch_normalization_13/batchnorm/sub", "shape": [64], "dtype": "float32"}, {"name": "StatefulPartitionedCall/rn_gm/conv2d_14/Conv2D/ReadVariableOp", "shape": [3, 3, 64, 64], "dtype": "float32"}, {"name": "StatefulPartitionedCall/rn_gm/dense_12/Tensordot/free", "shape": [3], "dtype": "int32"}, {"name": "StatefulPartitionedCall/rn_gm/dense_12/Tensordot/GatherV2/axis", "shape": [], "dtype": "int32"}, {"name": "StatefulPartitionedCall/rn_gm/dense_12/Tensordot/Const_2", "shape": [1], "dtype": "int32"}, {"name": "StatefulPartitionedCall/rn_gm/dense_12/Tensordot/concat_1/axis", "shape": [], "dtype": "int32"}, {"name": "StatefulPartitionedCall/rn_gm/dense_12/BiasAdd/ReadVariableOp", "shape": [32], "dtype": "float32"}, {"name": "StatefulPartitionedCall/rn_gm/dense_13/Tensordot/free", "shape": [3], "dtype": "int32"}, {"name": "StatefulPartitionedCall/rn_gm/dense_13/Tensordot/GatherV2/axis", "shape": [], "dtype": "int32"}, {"name": "StatefulPartitionedCall/rn_gm/dense_13/Tensordot/Const_2", "shape": [1], "dtype": "int32"}, {"name": "StatefulPartitionedCall/rn_gm/dense_13/Tensordot/concat_1/axis", "shape": [], "dtype": "int32"}, {"name": "StatefulPartitionedCall/rn_gm/dense_13/BiasAdd/ReadVariableOp", "shape": [64], "dtype": "float32"}, {"name": "StatefulPartitionedCall/rn_gm/batch_normalization_14/batchnorm/sub", "shape": [64], "dtype": "float32"}, {"name": "StatefulPartitionedCall/rn_gm/conv2d_15/Conv2D/merged_input", "shape": [3, 3, 64, 64], "dtype": "float32"}, {"name": "StatefulPartitionedCall/rn_gm/batch_normalization_15/batchnorm/sub", "shape": [64], "dtype": "float32"}, {"name": "StatefulPartitionedCall/rn_gm/conv2d_16/Conv2D/ReadVariableOp", "shape": [3, 3, 64, 64], "dtype": "float32"}, {"name": "StatefulPartitionedCall/rn_gm/dense_14/Tensordot/free", "shape": [3], "dtype": "int32"}, {"name": "StatefulPartitionedCall/rn_gm/dense_14/Tensordot/GatherV2/axis", "shape": [], "dtype": "int32"}, {"name": "StatefulPartitionedCall/rn_gm/dense_14/Tensordot/Const_2", "shape": [1], "dtype": "int32"}, {"name": "StatefulPartitionedCall/rn_gm/dense_14/Tensordot/concat_1/axis", "shape": [], "dtype": "int32"}, {"name": "StatefulPartitionedCall/rn_gm/dense_14/BiasAdd/ReadVariableOp", "shape": [32], "dtype": "float32"}, {"name": "StatefulPartitionedCall/rn_gm/dense_15/Tensordot/free", "shape": [3], "dtype": "int32"}, {"name": "StatefulPartitionedCall/rn_gm/dense_15/Tensordot/GatherV2/axis", "shape": [], "dtype": "int32"}, {"name": "StatefulPartitionedCall/rn_gm/dense_15/Tensordot/Const_2", "shape": [1], "dtype": "int32"}, {"name": "StatefulPartitionedCall/rn_gm/dense_15/Tensordot/concat_1/axis", "shape": [], "dtype": "int32"}, {"name": "StatefulPartitionedCall/rn_gm/dense_15/BiasAdd/ReadVariableOp", "shape": [64], "dtype": "float32"}, {"name": "StatefulPartitionedCall/rn_gm/batch_normalization_16/batchnorm/sub", "shape": [64], "dtype": "float32"}, {"name": "StatefulPartitionedCall/rn_gm/conv2d_17/Conv2D/merged_input", "shape": [3, 3, 64, 64], "dtype": "float32"}, {"name": "StatefulPartitionedCall/rn_gm/batch_normalization_17/batchnorm/sub", "shape": [64], "dtype": "float32"}, {"name": "StatefulPartitionedCall/rn_gm/conv2d_18/Conv2D/ReadVariableOp", "shape": [3, 3, 64, 64], "dtype": "float32"}, {"name": "StatefulPartitionedCall/rn_gm/dense_16/Tensordot/free", "shape": [3], "dtype": "int32"}, {"name": "StatefulPartitionedCall/rn_gm/dense_16/Tensordot/GatherV2/axis", "shape": [], "dtype": "int32"}, {"name": "StatefulPartitionedCall/rn_gm/dense_16/Tensordot/Const_2", "shape": [1], "dtype": "int32"}, {"name": "StatefulPartitionedCall/rn_gm/dense_16/Tensordot/concat_1/axis", "shape": [], "dtype": "int32"}, {"name": "StatefulPartitionedCall/rn_gm/dense_16/BiasAdd/ReadVariableOp", "shape": [32], "dtype": "float32"}, {"name": "StatefulPartitionedCall/rn_gm/dense_17/Tensordot/free", "shape": [3], "dtype": "int32"}, {"name": "StatefulPartitionedCall/rn_gm/dense_17/Tensordot/GatherV2/axis", "shape": [], "dtype": "int32"}, {"name": "StatefulPartitionedCall/rn_gm/dense_17/Tensordot/Const_2", "shape": [1], "dtype": "int32"}, {"name": "StatefulPartitionedCall/rn_gm/dense_17/Tensordot/concat_1/axis", "shape": [], "dtype": "int32"}, {"name": "StatefulPartitionedCall/rn_gm/dense_17/BiasAdd/ReadVariableOp", "shape": [64], "dtype": "float32"}, {"name": "StatefulPartitionedCall/rn_gm/batch_normalization_18/batchnorm/sub", "shape": [64], "dtype": "float32"}, {"name": "StatefulPartitionedCall/rn_gm/conv2d_19/Conv2D/merged_input", "shape": [3, 3, 64, 64], "dtype": "float32"}, {"name": "StatefulPartitionedCall/rn_gm/batch_normalization_19/batchnorm/sub", "shape": [64], "dtype": "float32"}, {"name": "StatefulPartitionedCall/rn_gm/conv2d_20/Conv2D/ReadVariableOp", "shape": [3, 3, 64, 64], "dtype": "float32"}, {"name": "StatefulPartitionedCall/rn_gm/dense_18/Tensordot/free", "shape": [3], "dtype": "int32"}, {"name": "StatefulPartitionedCall/rn_gm/dense_18/Tensordot/GatherV2/axis", "shape": [], "dtype": "int32"}, {"name": "StatefulPartitionedCall/rn_gm/dense_18/Tensordot/Const_2", "shape": [1], "dtype": "int32"}, {"name": "StatefulPartitionedCall/rn_gm/dense_18/Tensordot/concat_1/axis", "shape": [], "dtype": "int32"}, {"name": "StatefulPartitionedCall/rn_gm/dense_18/BiasAdd/ReadVariableOp", "shape": [32], "dtype": "float32"}, {"name": "StatefulPartitionedCall/rn_gm/dense_19/Tensordot/free", "shape": [3], "dtype": "int32"}, {"name": "StatefulPartitionedCall/rn_gm/dense_19/Tensordot/GatherV2/axis", "shape": [], "dtype": "int32"}, {"name": "StatefulPartitionedCall/rn_gm/dense_19/Tensordot/Const_2", "shape": [1], "dtype": "int32"}, {"name": "StatefulPartitionedCall/rn_gm/dense_19/Tensordot/concat_1/axis", "shape": [], "dtype": "int32"}, {"name": "StatefulPartitionedCall/rn_gm/dense_19/BiasAdd/ReadVariableOp", "shape": [64], "dtype": "float32"}, {"name": "StatefulPartitionedCall/rn_gm/batch_normalization_20/batchnorm/sub", "shape": [64], "dtype": "float32"}, {"name": "StatefulPartitionedCall/rn_gm/conv2d_23/Conv2D/ReadVariableOp", "shape": [3, 3, 64, 32], "dtype": "float32"}, {"name": "StatefulPartitionedCall/rn_gm/conv2d_23/BiasAdd/ReadVariableOp", "shape": [32], "dtype": "float32"}, {"name": "StatefulPartitionedCall/rn_gm/flatten/Const", "shape": [2], "dtype": "int32"}, {"name": "StatefulPartitionedCall/rn_gm/dense_20/MatMul/ReadVariableOp", "shape": [7200, 128], "dtype": "float32"}, {"name": "StatefulPartitionedCall/rn_gm/batch_normalization_21/batchnorm/mul", "shape": [128], "dtype": "float32"}, {"name": "StatefulPartitionedCall/rn_gm/batch_normalization_21/batchnorm/sub", "shape": [128], "dtype": "float32"}, {"name": "StatefulPartitionedCall/rn_gm/dense_21/MatMul/ReadVariableOp", "shape": [128, 1], "dtype": "float32"}, {"name": "StatefulPartitionedCall/rn_gm/dense_21/BiasAdd/ReadVariableOp", "shape": [1], "dtype": "float32"}, {"name": "StatefulPartitionedCall/rn_gm/concatenate/concat/axis", "shape": [], "dtype": "int32"}]}]}